mart.pt (torch, 299855 bytes, 8 tensors)

fc1.weight f4 [128, 49]
000000 10 1a 77 3e 9f 6e 28 be 97 9b 1e bf 8b 6a 23 bf
       0.24131036 -0.16448449 -0.6195616 -0.63834447
000010 ca 1f ed bd e6 93 e5 3d c7 7f 17 be 9f 40 31 be
       -0.11578329 0.1120985 -0.14794837 -0.17309807
000020 fd b1 e1 bc fe 62 03 bf 82 54 65 be 80 06 21 3f
       -0.027550692 -0.51322925 -0.22395518 0.62900543
000030 2c 75 03 3f 5b fe b0 be b1 84 18 be b7 c4 82 3e
       0.51350665 -0.34569058 -0.14894368 0.25540707
000040 a1 01 3f bd 52 8e be 3f 41 63 31 3f e5 d7 1b 3f
       -0.046632413 1.4887183 0.69292074 0.60876304
000050 69 e7 7f 3f 02 1b cd 3d 8f fa c2 3c 67 8d 58 3d
       0.9996248 0.10014917 0.023801116 0.052869227
000060 b5 27 72 be e7 55 00 bf 44 f1 60 bf 3f 03 ad 3d
       -0.2364796 -0.50131077 -0.8786814 0.08447885
000070 18 1b 9b 3d 5c 81 62 be 8c 48 88 3d d7 53 47 bb
       0.07573527 -0.22119659 0.06654462 -0.0030414963
000080 4a 0f 51 bd 70 0e 8b be 32 3e a0 be 40 0b 47 be
       -0.05103997 -0.27159452 -0.3129745 -0.19437885
000090 3a 06 94 be e1 c2 f2 bd bd 75 3f 3e 6a 35 6a bd
       -0.28911 -0.118535765 0.18697257 -0.057179846
0000a0 49 79 8e 3d ed 43 00 3e 2e 98 c4 3e 66 69 4f be
       0.06956727 0.12525912 0.38397354 -0.2025505
0000b0 fe 14 4f bb 21 dc 98 be ee 81 cc bb 1a 51 9a 3c
       -0.0031598206 -0.29855445 -0.0062410748 0.0188375
0000c0 47 60 b2 bd c1 b1 d9 bf 77 da 26 3e ff 25 91 be
       -0.0870977 -1.7007371 0.16294275 -0.283493
0000d0 2f 87 a3 3c 4d c2 fb 3e c9 60 04 bc 09 b0 2f 3d
       0.019961921 0.49171677 -0.008079716 0.04289249
0000e0 7a e5 63 bd ef 1d 32 3d 42 dd 1a 3f 8e e9 b0 3e
       -0.055638768 0.04348558 0.6049386 0.34553188
0000f0 da db 03 3f 20 f1 30 3f a8 51 46 3d 13 ae b1 3d
       0.5150734 0.6911793 0.048417717 0.0867578
000100 94 b1 94 3d f0 f1 58 3d 77 f1 52 3c 1d b8 e1 3e
       0.07260433 0.052965105 0.0128749525 0.4408578
000110 6b 1b 3a be 39 4a 79 3f 68 16 62 bd de 7a f5 3d
       -0.18174522 0.9737888 -0.05519715 0.11986326
000120 5e f0 a5 bb d6 92 ad 3d de 68 48 bd 49 5c d9 bd
       -0.0050640544 0.08475272 -0.048928134 -0.10613305
000130 bb ca e6 be c0 b5 6a bd 43 65 d2 3d fa f4 f5 3d
       -0.45076546 -0.057302237 0.102732204 0.12009616
000140 86 a8 29 3d 72 2a 02 3e a9 d4 50 3e ba fc df 3d
       0.041420482 0.12711504 0.20393623 0.10936876
000150 4f 50 10 3c 97 4e 6d bf 01 c4 80 3d 43 ad 8b 3d
       0.00880821 -0.92698044 0.06287385 0.068201564
000160 08 31 45 bd 65 2f d8 3b da 17 2e 3d d3 e4 9e bc
       -0.048142463 0.0065974467 0.042503215 -0.019396221
000170 66 2c 43 3d 61 1f 9e bd 41 c3 35 3e 7b 2f e2 3d
       0.047649764 -0.07720829 0.17750265 0.110442124
000180 74 74 15 3d dc b6 2f 3d 75 a5 08 c0 26 97 d3 b9
       0.03648801 0.042898998 -2.1350987 -0.0004035767
000190 30 84 0c 3f c1 57 01 3d 71 60 12 3e 36 93 2e 3e
       0.548892 0.03157783 0.14294602 0.17048344
0001a0 f9 36 8d 3b cc 50 b9 3d d3 c9 67 3b fc b4 d2 3d
       0.0043095318 0.09048614 0.00353681 0.10288426
0001b0 f6 7d 10 3e 5e bc fb 3d e0 1a 72 3d 70 23 3f bd
       0.1411055 0.122917876 0.05910766 -0.046664655
0001c0 83 4b c3 3c 5b 0f 90 bb 04 ab 9e 3c 6f 57 21 be
       0.023839718 -0.0043963618 0.019368656 -0.1575601
0001d0 09 03 7b 3e 99 65 9b 3e 09 db 04 bf c3 ba 23 be
       0.24512877 0.3035095 -0.5189672 -0.15989213
0001e0 aa c1 2b be 20 d0 6b 3b 3a 6d 56 be 73 f7 b4 bf
       -0.16773096 0.0035982206 -0.20940104 -1.4138016
0001f0 f6 00 a5 be fa a9 cd bd 94 7c 3b bf 05 78 b3 be
       -0.32227296 -0.10042186 -0.73236966 -0.35052505
000200 9e 54 0c bf d0 b2 7c bd e4 84 67 be 29 50 ce 3c
       -0.54816616 -0.061693966 -0.22609288 0.025184708
000210 89 46 83 be 30 2e 79 3d 5c c7 6e bc e9 18 35 3e
       -0.25639752 0.060835063 -0.014573898 0.17685284
000220 d3 84 69 3d e0 2c b2 3d 7c db 33 3d c3 76 6d 3e
       0.057011437 0.086999655 0.04391049 0.23189835
000230 f5 6f b3 3d ba 14 9a bd e7 fa 1f 3f 0b 65 79 3d
       0.087615885 -0.075234845 0.6249222 0.060887378
000240 81 b9 fa 3d 95 78 0b 3d cc 4a b2 b9 34 ea 36 be
       0.12242413 0.034050543 -0.00034006534 -0.17862779
000250 d2 e4 cd 3e 27 4a bb bd d1 7d 17 bc 71 6d 0e 3e
       0.4021364 -0.09145003 -0.009246306 0.13908936
000260 56 ee ab 3d 45 08 48 bb 10 a4 17 bf 94 11 71 3d
       0.08395068 -0.0030522507 -0.59234715 0.058854654
000270 1f 5d 0d bf 58 35 19 bf c0 5a ab be ed 69 4a bf
       -0.55220217 -0.5984702 -0.33467674 -0.7906788
000280 47 60 bf be 79 72 11 bf 61 95 ce be 37 fa e9 3b
       -0.3737814 -0.56815296 -0.40348342 0.0071404236
000290 a1 1a 4e bf 44 4d 5a bf 68 92 22 bf a8 1c 63 bf
       -0.8050938 -0.8527415 -0.6350465 -0.887156
0002a0 29 39 40 3b a4 18 8e 3d 2c 15 12 bf ad f6 1e 3d
       0.0029330945 0.069382936 -0.57063556 0.038809467
0002b0 71 6d 06 3e 3a 14 df 3d f8 45 15 3e ec ba 2c 3e
       0.13127686 0.1089253 0.14577472 0.1686818
0002c0 85 01 f6 be 5c aa 08 bf 1e 38 aa be 88 ee c6 bd
       -0.48048034 -0.5338495 -0.3324594 -0.09713465
0002d0 6c f0 ee be 22 21 ca 3d 31 52 93 3d ce bc 0c 3d
       -0.46667802 0.09869601 0.07193411 0.034359746
0002e0 e4 d2 56 3d 92 3a b4 3d d1 2b 0f 3f 1c ed 00 3e
       0.052447215 0.08800234 0.55926234 0.1259045
0002f0 9d b4 03 3e f0 cc 6b 3d 3a 0a 4c bd 1c 35 90 3b
       0.12861867 0.05756849 -0.04981444 0.0044008624
000300 cb e3 99 3d 24 f4 5e 3e 97 91 aa 3e a4 04 57 3e
       0.07514151 0.2177282 0.333142 0.20997864
000310 e5 3d 0c 3e 36 25 a5 bd 70 62 33 3e f7 75 bb 3d
       0.13695486 -0.08063738 0.1751802 0.091533594
000320 a9 c6 14 be 6a 99 26 bf df ec 92 3e ee 64 ba bd
       -0.14528908 -0.6507784 0.28696343 -0.09101282
000330 50 57 01 bf d6 67 49 3f 8b f6 09 bf ea 68 be bd
       -0.50523853 0.78674066 -0.5389182 -0.092973545
000340 a9 be d3 3e d1 89 05 3e 3d 6f 00 3e 01 72 ca bd
       0.413564 0.13040854 0.12542434 -0.09885026
000350 11 3a 00 3e 7b e7 2c bf 58 82 e0 3e 2e 64 b6 3e
       0.1252215 -0.6754071 0.43849444 0.35623306
000360 41 07 9d 3d 20 4f 23 bf 30 6a ba 3e b5 5d ec bd
       0.07667399 -0.6379261 0.3640914 -0.11541311
000370 ea 77 ea be 5f 44 08 be fb c1 53 be 22 57 b7 bd
       -0.45794612 -0.13307332 -0.20679466 -0.08952166
000380 4d ed 7e bd 64 6e 4e bd 48 e7 92 bc d3 a0 6e bd
       -0.062238026 -0.050398245 -0.01793255 -0.058258843
000390 99 e2 5d 3e 2f b5 43 3e 27 74 28 3d 6e 56 ba 3c
       0.21668471 0.19112085 0.041126397 0.022746291
0003a0 b2 cb 3f 3e 84 bd 48 3e 11 0b 0f bf aa 82 35 bc
       0.18730047 0.19603544 -0.5587626 -0.011078516
0003b0 17 0a c0 3e 61 c3 7a bd db 2a 12 3e 0f 46 a1 3d
       0.37507698 -0.061221484 0.1427416 0.07874691
0003c0 e1 0f 2c 3b 34 92 76 be b5 ab 91 be 42 62 27 3e
       0.0026254582 -0.2407921 -0.28451315 0.16346076
0003d0 a5 d2 46 bc b4 88 be bf 45 3a 43 bf d4 25 ca be
       -0.0121351825 -1.4885468 -0.7626079 -0.39481986
0003e0 73 50 f5 bd 87 6e 02 be d1 e8 7a bc 3f e4 28 3d
       -0.11978235 -0.12737475 -0.015314297 0.041233297
0003f0 59 e9 f4 bc 7e 29 da 3c 43 d1 0d bf d1 11 ef be
       -0.029896425 0.026631113 -0.55397433 -0.4669328

fc1.bias f4 [128]
000000 a1 1f 9b be db e8 2f 3d d4 ea 25 3d 1d 41 97 3d
       -0.30297568 0.042946678 0.040507153 0.07385466
000010 9c 90 ca bd c6 07 60 3d 8b 8b 05 bd 60 09 21 3d
       -0.09890863 0.054694913 -0.03260378 0.03931558
000020 27 e4 b8 3d 85 fd b0 3d c9 2f fc bc c6 fb d1 3d
       0.090278916 0.08642105 -0.030784504 0.102531
000030 2f 60 ba 3c 1e 1a 3a 3e 6d ca 60 3e fe 64 bd be
       0.022750942 0.18174025 0.2195222 -0.36991113
000040 25 4f 12 3e 6e f7 bf 3d bf b5 b3 3d f4 8e f6 3d
       0.14288004 0.09373365 0.087749 0.12038985
000050 af 22 e1 3d 49 f6 0c 3e 3f 4a 01 3d 58 35 bf 3c
       0.109929435 0.13765825 0.031564947 0.023340866
000060 d7 74 2d 3e 9b d6 ed 3d 36 e3 1c 3e 80 df dd 3d
       0.16939102 0.11613198 0.15321049 0.10833645
000070 2f a5 85 bc 78 56 be bd f3 c5 26 be d5 b8 31 be
       -0.016314117 -0.09293836 -0.16286449 -0.17355664
000080 87 d2 12 be c3 3e f9 3b f7 a2 3f be 71 e3 84 3d
       -0.14338122 0.0076063587 -0.1871451 0.064886935
000090 23 85 73 be 4a f3 41 bc cc 33 46 3d 09 05 03 3e
       -0.23781256 -0.01183779 0.04838924 0.1279489
0000a0 62 9d 2c be 99 27 13 be bd 6f 92 bd 43 d5 2f 3d
       -0.16856912 -0.14370574 -0.07150219 0.04292799
0000b0 b5 f3 02 3e 55 fd ad bc 2b 0f 9f bc a5 df c4 3c
       0.1278828 -0.021238962 -0.019416412 0.024032423
0000c0 2a 88 3b 3d 2d b0 78 be f8 c0 b0 3d 65 d2 f0 3d
       0.045784153 -0.24285956 0.08630556 0.117588796
0000d0 95 d1 80 3c c5 f3 12 bd e1 7f b8 be 0b 76 b5 bd
       0.015724937 -0.035877008 -0.36035064 -0.088604055
0000e0 60 66 85 bd 6c 56 94 3c 93 ae 7b bd 87 a8 04 3d
       -0.06513667 0.018107615 -0.061445784 0.032387283
0000f0 44 ab b5 3d f1 cb 06 3e c4 73 0e be 41 16 aa 3d
       0.08870557 0.13163735 -0.13911349 0.08305026
000100 2e 76 8f 3d 17 fd c4 bd 1a 1e 06 bc 2b 10 be 3d
       0.07004963 -0.096185856 -0.008185888 0.092804275
000110 fd be e0 3c 55 18 2d 3e d3 fb 7e 3e 7b 06 83 be
       0.02743482 0.16903813 0.24900751 -0.25590882
000120 b7 8f 9a 3d 99 f9 91 3d ed f3 7f 3d 69 3e 1b be
       0.07546943 0.07127685 0.062488485 -0.15160526
000130 17 ac 1b bd a4 69 dd 3c b6 fa 14 3d 0f a2 11 3e
       -0.038005915 0.027027912 0.03637191 0.14221977
000140 22 5f 8a bc 3a 1e 00 be 8a 1a 1d 3e 38 5c 01 be
       -0.016891066 -0.1251153 0.15342155 -0.12632835
000150 a1 19 1f 3e ab 4b bd 3d 33 2d 98 3d 12 b2 ca 3c
       0.1553712 0.09242948 0.07430496 0.024743114
000160 4b 8a a0 bc 5a 15 a4 3c 5f 4d 7f be 5e 55 37 bd
       -0.019597193 0.020029712 -0.24931858 -0.044759147
000170 f9 ab c5 bd dc 4c ad bc 19 f9 b6 3d 72 9c 57 3e
       -0.09651942 -0.021154813 0.0893423 0.21055773
000180 e1 b5 8b 3c e4 bd 0a 3e fc 14 8f bc 0a 83 dc 3d
       0.0170545 0.13549 -0.01746606 0.10767181
000190 d0 aa 9e 3d 7d 9b 90 3c a4 fa 90 3d dc cf 57 be
       0.07747424 0.017652268 0.07079056 -0.21075386
0001a0 c8 34 61 be 58 35 a3 bd 67 65 d3 3d d3 b6 14 be
       -0.2199279 -0.07969159 0.10322075 -0.14522867
0001b0 e8 f6 3b be 75 e0 ca bd 0d f6 97 bd 97 45 b5 bd
       -0.18355906 -0.09906093 -0.07419977 -0.08851164
0001c0 0f cd 19 3e 9b 8e c6 3d 9f 87 24 be ba cc 0e 3e
       0.1501963 0.096951686 -0.1606736 0.13945284
0001d0 be 8c fa bd ee 4a 46 3d 46 7c 6a be ad b5 0d 3e
       -0.12233876 0.048411302 -0.22898969 0.13838835
0001e0 8d 8d 48 be b8 b5 24 be 43 d4 a9 3d ba 02 1a bd
       -0.19585247 -0.16084945 0.08292439 -0.037600257
0001f0 11 b8 19 3e 22 d3 ee 3a 39 50 17 bd 64 95 f4 3d
       0.15011622 0.0018220881 -0.03694174 0.119425565

fc2.weight f4 [256, 128]
000000 90 af 7e be 8c 2e bb 3e 03 0f 6d 3e b8 52 5e 3e
       -0.2487166 0.3655895 0.23150258 0.21711242
000010 83 c4 ca bd d2 9c 03 3f 76 d1 13 3e fd 3b 18 be
       -0.09900763 0.51411164 0.14435372 -0.14866634
000020 53 be 90 be 76 3e 6c 3e 8b 49 8a 3d fb 6e 52 be
       -0.28270206 0.23070702 0.067523085 -0.20550148
000030 d3 c2 96 3d 4e 5f 65 bd 87 4c c9 3e f6 3a 12 3d
       0.073613785 -0.055999093 0.39316198 0.03570076
000040 e2 8b b5 bc d3 35 3a bd d2 16 18 3e 38 44 20 3e
       -0.022161428 -0.045461487 0.14852455 0.15651023
000050 37 2a f6 bd 31 10 6d be 60 96 23 3c 3f 71 ca bb
       -0.120197706 -0.23150708 0.009984583 -0.006178051
000060 06 04 49 3f e3 01 99 bf d1 44 ea bd f5 a8 7e be
       0.78521764 -1.1953701 -0.11438907 -0.2486914
000070 35 42 33 bf 24 90 d4 bc 02 19 ff bc db 9c 0d be
       -0.700229 -0.025947638 -0.031139854 -0.13829367
000080 24 aa 89 bd 4c 81 c9 be db 6b 17 3e af 6a 27 3d
       -0.06721905 -0.39356458 0.14787237 0.040873226
000090 06 07 68 bd 35 21 d6 bd 40 e9 f4 be 3e 75 40 3d
       -0.056647323 -0.104555525 -0.47834206 0.04698681
0000a0 89 2e e5 bd 66 eb 71 3c 7b b9 4f 3d 45 b3 0d bf
       -0.111905165 0.014765596 0.050713997 -0.5535167
0000b0 d7 d0 ac be 24 42 01 3e 29 9a 4f 3e 3b 15 91 3d
       -0.33753082 0.12622887 0.20273651 0.070841275
0000c0 51 b8 0e 3e 79 72 91 3f 2f ac 0a 3e f7 a3 02 3d
       0.13937499 1.1363059 0.13542245 0.03189465
0000d0 17 af 3a bc 5c 67 5c be fe 5e 26 bf 06 8b 1e 3e
       -0.011394284 -0.21523803 -0.64988697 0.1548272
0000e0 37 7e 70 3d e0 68 9e bd b3 09 05 bf 60 f8 fd 3c
       0.058714118 -0.07734847 -0.51967925 0.031002223
0000f0 dc 5a 85 3e 5b ee b8 be bc 94 a6 bd df a3 f9 3e
       0.26045883 -0.3611935 -0.081338376 0.48757836
000100 55 81 41 3d 7a 6e ec bf c4 47 f5 bd c2 47 6b 3b
       0.04724248 -1.8471215 -0.11976579 0.0035900925
000110 bc 43 c0 bd b2 4c 8e be 44 fb 82 3e f3 61 3c 3e
       -0.09387919 -0.2779289 0.25582325 0.1839674
000120 e1 1d dd 3d 0b d4 4e be a7 bc 0c be 8f 6f ab bf
       0.107967146 -0.20198075 -0.1374384 -1.339342
000130 4c 2b a4 bd eb b8 31 be 41 17 84 3e 05 5f 14 3f
       -0.08016071 -0.17355697 0.2579899 0.5795749
000140 17 82 3f 3e 75 5f 0c 3e b0 28 33 3d e8 9f 91 be
       0.18701969 0.13708289 0.043739974 -0.2844231
000150 ae 25 48 3e d9 e8 87 3e 33 45 e2 bd 61 80 84 bd
       0.19545624 0.26544836 -0.11048355 -0.06469799
000160 b7 94 2d 3f 34 4c 5f 3d b3 b5 0f 3e 89 bf 40 39
       0.67805046 0.054516032 0.14034157 0.000183819
000170 cb 3c 54 bc 3d b7 42 be 7b 5b 38 be 54 e0 09 3f
       -0.012953947 -0.19015212 -0.18003647 0.5385792
000180 93 b4 f1 3d c0 b3 81 be 41 af a3 bd aa 4b f4 be
       0.1180202 -0.2533245 -0.079924114 -0.47713977
000190 d8 b4 89 3e 8d 73 a8 bd df 0c 58 be 77 00 df bf
       0.26895785 -0.082251646 -0.2109866 -1.7422017
0001a0 6f 83 22 3f bf 46 39 3d a5 05 58 3e 14 a5 8e bd
       0.634818 0.045233484 0.21095903 -0.0696508
0001b0 f4 f1 90 be 91 09 c1 3e 49 c8 04 3e c0 74 87 3d
       -0.28309596 0.3770261 0.12967028 0.06614065
0001c0 ce 9d c1 bd cf 3a f5 3d 2d 05 3f 3e b7 9f 53 bd
       -0.09453927 0.119741075 0.18654318 -0.051665988
0001d0 1e 29 91 3d c2 18 58 3d 1b 22 2b 3e 86 a9 b7 be
       0.070879206 0.052757986 0.16712229 -0.35871524
0001e0 c1 c2 d0 bd 23 01 d1 3d dd 1c a4 3d a6 3f 21 bf
       -0.10193396 0.10205295 0.08013318 -0.62987745
0001f0 31 9b 30 be 25 e0 21 3d a1 b8 e5 bd e2 e0 83 3d
       -0.17246701 0.0395204 -0.11216856 0.06439377
000200 01 e0 01 bd 9b 0e 67 be 19 74 32 be a8 51 5e 3e
       -0.031707767 -0.22564165 -0.174271 0.21710837
000210 4e 20 a3 be 73 5c 64 be 5a 47 ea be b9 06 b7 be
       -0.31860584 -0.22300892 -0.45757562 -0.35747316
000220 de 93 13 be 1a 5c e7 3c 3e b5 bf be ab 8a e7 3d
       -0.14411876 0.02824216 -0.37442964 0.11305746
000230 e0 4e d1 be af 0f 91 be b5 21 94 be a2 cc bc be
       -0.4088049 -0.28332278 -0.28931966 -0.36874872
000240 09 8c a3 3d c8 c8 a0 be c4 e1 25 bd 3c a2 e7 3d
       0.07985694 -0.31403184 -0.04049851 0.113102406
000250 6d 7e ca be 0a 8b 91 3e 13 be 70 3e c9 8b fb be
       -0.3954958 0.2842639 0.23510008 -0.49130085
000260 69 c7 f3 be e1 49 f5 bd ab f8 20 3e 9f 0e a7 bc
       -0.47613075 -0.11976982 0.1571986 -0.020392714
000270 a2 2d 2e 3e 23 86 35 be e7 5e a0 3e 1a fa 27 3e
       0.17009595 -0.1772695 0.31322405 0.16404
000280 f2 1b 2e 3c fe 73 0f be 16 38 51 3e 8a 23 bf bd
       0.01062678 -0.14009091 0.20431551 -0.093329504
000290 9a 4f de 3d 16 e3 d1 3e b5 d6 bf bd 54 24 3c 3e
       0.108550265 0.40993565 -0.09367124 0.18373233
0002a0 ed 4d f4 3d 65 e2 4e be d8 42 a9 be e7 42 14 bc
       0.11928926 -0.2020355 -0.3305881 -0.009049154
0002b0 85 b4 d9 3d 16 87 84 be 13 2e a2 be 05 50 68 be
       0.106301345 -0.25884312 -0.31675777 -0.22686775
0002c0 16 25 70 be 67 e9 5b be eb 5c 46 3e e0 fb a3 bd
       -0.23451647 -0.21475755 0.19371383 -0.08007026
0002d0 6c 98 78 3e ba 6f 30 bc e3 e1 82 3e 14 00 8f bd
       0.24276894 -0.010768825 0.25562963 -0.06982437
0002e0 93 95 36 bf f7 6d 0e 3e 6e 51 d9 3c 6a 12 c4 be
       -0.7132198 0.13909136 0.026528087 -0.382953
0002f0 5e 9c 21 bf 3c a1 a6 3e 26 05 17 bf a5 7c f0 be
       -0.6312922 0.32544887 -0.5899223 -0.46970096
000300 ea 5f 3d 3c 55 0a f0 be 4f df 5f 3e ce 87 8c bb
       0.011558512 -0.46882883 0.21862529 -0.00428865
000310 ae 97 25 bd 38 2a b9 be 97 a0 ec be ec e1 05 be
       -0.040427856 -0.36165023 -0.4621627 -0.13074464
000320 35 a0 18 bf ec e3 1a bf 2c 1c 0f 3e 07 59 01 3f
       -0.59619457 -0.6050403 0.1397559 0.5052647
000330 2e ad 64 be 5a 7a 34 be f9 82 b6 be 51 dc ee bd
       -0.22331688 -0.17624798 -0.356468 -0.11663116
000340 ea 04 54 be 0b 08 63 be b4 b0 00 be 5d 9b 0c be
       -0.20705 -0.22171037 -0.12567407 -0.13731141
000350 db ed 9d 3c 97 4f 88 3d 46 f8 69 bc d9 6d 00 bf
       0.019278457 0.066558056 -0.014280384 -0.50167614
000360 d7 9d 96 be a6 ae 24 bf e9 6d 2e bf 84 a4 22 be
       -0.29417297 -0.6432899 -0.6813646 -0.1588307
000370 73 7f fd 3c c8 76 e4 bd 95 97 82 be 3c 2f 30 bd
       0.030944562 -0.11155468 -0.25506273 -0.043013796
000380 a5 c9 15 be 42 23 90 be ad fc b0 3e 64 90 96 be
       -0.14627703 -0.281519 0.34567776 -0.29407036
000390 43 61 87 3d 43 26 51 3b 4e d8 64 be 30 2c aa bd
       0.06610348 0.0031913675 -0.22348139 -0.08309209
0003a0 03 33 cf be 08 d3 3d be 44 d1 51 be 93 25 08 3e
       -0.40468606 -0.18537533 -0.20489985 0.13295583
0003b0 1a 4c 4a 3e d3 05 0c bf 0f bb 0e 3e 05 37 3f 3e
       0.19755593 -0.5469639 0.13938545 0.18673332
0003c0 fa cc 07 bf 52 40 1b ba d1 b6 57 be f1 4a e9 3e
       -0.53047144 -0.0005922365 -0.21065833 0.45564988
0003d0 38 32 05 be b3 c0 7a 3e 30 dd ed bd a4 c8 a1 bc
       -0.13007438 0.24487571 -0.11614454 -0.019748993
0003e0 b2 a8 85 bd a3 c7 9e 3d 6e b1 b1 bd b4 f4 e8 bd
       -0.06526317 0.077529214 -0.0867642 -0.113747984
0003f0 62 ab 8b bd 7b e6 db bd 35 a7 07 be 08 5e 7a be
       -0.06819798 -0.1073732 -0.13247378 -0.24449933

fc2.bias f4 [256]
000000 6d 35 7f 3e d2 24 27 be d0 74 84 bd ba 1a 4c be
       0.24922724 -0.1632264 -0.06467593 -0.1993207
000010 6a 10 a5 bd 5d 6d 9b be 24 56 74 be f1 3b c2 3d
       -0.08059771 -0.30356875 -0.23860985 0.09484089
000020 b8 ac aa be 0b ba 86 be 2f 8c 44 be 30 38 41 bd
       -0.333349 -0.26313815 -0.19194101 -0.047172725
000030 4a cf 1f be 07 6e c0 bd ef 7d 96 be 9f 91 05 be
       -0.15606418 -0.09395986 -0.29392955 -0.13043831
000040 c0 fb dc be 11 6c e0 bd 6d a6 76 3c ad bb 83 be
       -0.4316082 -0.10958112 0.015054327 -0.25729123
000050 f8 11 22 bc 5f 19 06 be 9a 06 30 3d bd 38 28 be
       -0.009891979 -0.13095616 0.042975046 -0.16427894
000060 86 3b 13 bd 75 4d 13 be 4d c0 70 3e be 80 87 3d
       -0.035945438 -0.14385016 0.23510857 0.066163525
000070 93 9d ca bd fb b7 09 be 01 90 5c be 8d e7 92 3c
       -0.09893336 -0.13449089 -0.21539308 0.017932678
000080 44 aa d0 bd c6 4f 7e be 96 a8 97 bc d7 f2 3b 3e
       -0.101887256 -0.24835119 -0.018513005 0.18354355
000090 e0 c9 21 bd 29 ed 62 bd 76 c5 aa 3d bf cc cc bd
       -0.039499164 -0.055401955 0.08338444 -0.0999999
0000a0 5e b7 92 3e 6a ee 6e be 5e ea 8a 3c d8 bc 55 3c
       0.28655523 -0.23333135 0.016957458 0.013045512
0000b0 da 80 30 be 34 19 d4 bd 1e 60 86 be dc f5 e5 3d
       -0.17236653 -0.103563696 -0.26245207 0.112285346
0000c0 56 cb 0b be cc 7a 5d 3d 60 86 03 be ef be 5c be
       -0.13651785 0.054072186 -0.12844229 -0.2155721
0000d0 5f 11 85 be c6 b5 31 be 4d 31 64 be 6f ce 3f be
       -0.25989816 -0.17354497 -0.22284432 -0.18731092
0000e0 66 52 4a be 3f 69 09 be ca 3c e5 bd 62 26 19 be
       -0.19757995 -0.13419054 -0.11193235 -0.14956048
0000f0 26 08 1d 3e b5 6a 34 be 62 a9 4c be 2e ec cc bd
       0.1533514 -0.1761883 -0.1998649 -0.10005985
000100 c3 f8 25 be 5e d6 63 be 4a 9a 87 be 74 63 46 be
       -0.16208176 -0.22249743 -0.264849 -0.19373876
000110 33 c3 d8 3a d2 1e 26 3c 3c 38 90 3e 8f 59 41 be
       0.0016537666 0.010139184 0.28167903 -0.1888182
000120 97 8d 8b be 64 58 99 bd d3 a1 09 bd b0 dc 5b bd
       -0.27256462 -0.07487562 -0.033601593 -0.05367726
000130 3d f3 e6 bd c3 fd ae 3c 98 c1 9f be c4 0d bd bd
       -0.11276863 0.021361237 -0.31202388 -0.09231141
000140 16 fb 8f 3d 56 f8 5a bd 88 ca c3 bd 74 b2 cb bd
       0.07030313 -0.053459488 -0.09560114 -0.099461466
000150 2d a1 65 3e 16 a5 0f be 1e f7 ea bc fe 8f 30 3c
       0.22424765 -0.14027819 -0.028682288 0.010776518
000160 33 34 ea bd 8e 1f 97 bd f0 02 8e be 7c eb 1f be
       -0.114357375 -0.073790655 -0.27736616 -0.15617174
000170 1f 19 0e be 04 3c 82 3e 58 47 db bd 2b 93 dd bd
       -0.1387677 0.25436413 -0.10706967 -0.10819086
000180 e6 99 6f be fc bb cf bd d5 5d 31 be b5 b8 19 3f
       -0.23398551 -0.10143277 -0.1732095 0.60047466
000190 28 85 ed bd 95 3f c4 bd 59 dc d4 bd 6f e4 bc bd
       -0.11597663 -0.0958244 -0.103935905 -0.09223258
0001a0 08 40 44 be 4e f3 48 be f6 e3 89 be 7a 2a f9 bd
       -0.19165051 -0.19624063 -0.26931733 -0.12166305
0001b0 a6 01 41 bd 29 a7 2a 3f 7d 03 f9 bd bd 7d b3 be
       -0.047120713 0.66661316 -0.121588685 -0.35056868
0001c0 7d 55 69 be ec 98 40 3c cc 5d 1c be 8b 18 77 be
       -0.22786517 0.011755209 -0.15270156 -0.24130456
0001d0 ad 94 25 be 77 0e eb bd e3 bf c4 be cf a4 8f be
       -0.16169997 -0.11477368 -0.38427648 -0.28055426
0001e0 72 f3 0d be 0c 7f 69 be 12 0e 5a be 5b b3 b0 bd
       -0.13862398 -0.22802371 -0.2129443 -0.08627959
0001f0 65 16 24 be c9 8f 56 be 9d 18 99 bd 5b f3 9c be
       -0.16024168 -0.20953287 -0.07475398 -0.30654415
000200 fe 49 8b bc 17 7e 34 bc 57 d1 6e be c1 7c 48 be
       -0.017003056 -0.01101639 -0.23322044 -0.1957884
000210 66 c0 82 3e e5 8a 13 be d3 58 99 3c a0 a6 d8 bd
       0.25537413 -0.14408453 0.018719113 -0.10578656
000220 a9 72 1e be c6 43 99 3d 2f 4f bf bd a3 99 28 be
       -0.15473427 0.0748363 -0.09341275 -0.16464858
000230 e9 80 9a bc 84 c0 9e bc 2c 10 60 3e fa 55 bc 3e
       -0.018860297 -0.019378908 0.21881169 0.36784345
000240 12 aa 25 bd 0a e4 26 be 6e bf ff 3d 71 cd 45 be
       -0.040445395 -0.16297927 0.12487684 -0.19316651
000250 3d c0 d6 3d 7c 87 23 bd 0c 77 9d bd 37 62 75 be
       0.10485885 -0.03992413 -0.07688722 -0.23963247
000260 4c e4 43 be 25 f5 91 bc 02 60 b7 bd 2f a2 42 be
       -0.19130057 -0.01781709 -0.08953859 -0.1900718
000270 87 94 6a bd 98 3b 74 bd fa 9e a9 bc f1 51 4a 3e
       -0.057270553 -0.059627146 -0.020705689 0.1975782
000280 f9 6b 2d be 79 cf 9d be 12 40 71 bd 57 38 38 be
       -0.1693572 -0.30822352 -0.058898993 -0.17990242
000290 28 41 84 be df 92 88 be 87 32 87 be f0 3e 84 be
       -0.2583096 -0.26674554 -0.26405737 -0.25829268
0002a0 98 93 7a 3e 04 f3 74 be 00 31 38 be 05 a3 40 3d
       0.24470365 -0.23920828 -0.17987442 0.047030468
0002b0 af eb 0d 3e 45 6e 7a be 83 9e cf bd e4 53 37 be
       0.13859437 -0.24456127 -0.101376556 -0.17903095
0002c0 c8 ba 21 be 7e 2f 1a be d6 53 c9 3b 77 39 1f be
       -0.15793908 -0.1505718 0.006144027 -0.15549265
0002d0 dc 2b 9a 3a 56 e6 b1 3a 77 b2 6b be e8 68 ff 3d
       0.0011762339 0.0013572674 -0.23017298 0.12471181
0002e0 7d 19 eb bb 59 7e 8d 3d 5f 58 24 be 4b 33 b5 bc
       -0.0071746693 0.069088645 -0.16049336 -0.022119185
0002f0 24 df 57 be 7c 19 3a 3e 84 3f 0a be bd aa 85 bd
       -0.21081215 0.18173784 -0.13500792 -0.06526706
000300 0f e8 d7 3e 4d 90 b1 3d e6 0b 26 3f 28 54 1d 3d
       0.42169234 0.08670101 0.64861906 0.038410336
000310 61 b8 8d be cb 33 45 be d2 ae 3d bd 43 9b 18 be
       -0.27679732 -0.19258039 -0.0463093 -0.14902978
000320 fe 17 f4 3b e0 01 01 be 5d c6 a0 be e3 22 1c be
       0.007449149 -0.12598372 -0.3140134 -0.15247683
000330 24 d2 45 be ac 3e 51 be d4 d9 63 be 55 9f 3d be
       -0.19318444 -0.20434064 -0.22251064 -0.18517812
000340 b8 d7 91 bd ad ac 1c be 58 65 69 3d 88 a8 43 be
       -0.07121223 -0.15300246 0.056981415 -0.19107258
000350 e6 04 92 be 3b a5 66 be a6 73 d2 3d 93 9b 60 bd
       -0.28519362 -0.22523968 0.102759644 -0.054835867
000360 f4 f3 43 be 89 2d e4 bd b0 ed 3f 3d 47 a8 f8 3c
       -0.1913603 -0.11141498 0.046857536 0.030353678
000370 f3 15 69 3e d5 41 81 be 38 6a 5a 3d f7 e0 0e be
       0.22762279 -0.25245538 0.053323954 -0.13953005
000380 1b e2 a5 3d 21 64 e1 bd 47 47 91 be c2 f2 93 3e
       0.08099767 -0.11005426 -0.28374693 0.28896147
000390 27 1a 22 be ef 8c 71 be c8 76 82 bd 2a 65 d7 bc
       -0.15830289 -0.23588918 -0.06370312 -0.026293356
0003a0 54 a1 5d be 99 21 41 be 29 03 df 3b 42 88 5c be
       -0.21643573 -0.18860473 0.0068057966 -0.21536353
0003b0 08 d8 9f 3c 9b fa 92 be 55 6d 5e be 19 27 98 3c
       0.019512191 -0.28706822 -0.21721394 0.01857333
0003c0 a7 cf 1e be db fe 4c 3d d2 61 6d bb ff 22 50 be
       -0.155089 0.050047737 -0.0036221636 -0.2032585
0003d0 f2 c1 0f be 31 be 59 be fc 02 70 be 40 a8 96 be
       -0.14038828 -0.21263959 -0.23438638 -0.2942524
0003e0 08 61 8a bd 66 c3 b9 bd 55 63 ab 3d e1 3c f4 bd
       -0.067567885 -0.090704724 0.083685555 -0.11925674
0003f0 7f 2e 38 be c5 28 f7 bd 87 6b 96 be 6e 94 d0 bd
       -0.17986487 -0.12068323 -0.29378912 -0.10184561

fc3.weight f4 [128, 256]
000000 07 17 c0 3d 12 22 e3 be 66 ad 1d bd a0 54 74 be
       0.09379392 -0.4436193 -0.038495444 -0.23860407
000010 84 8d f6 be 06 a5 ab be 8c 37 92 bd de 86 86 3d
       -0.48154843 -0.3352434 -0.07139501 0.065686926
000020 6c 8d d9 bc b1 ba ef 3d ca e1 ff be af 43 b2 bc
       -0.026556693 0.117055304 -0.4997695 -0.02176079
000030 1c d2 b9 3d a2 e9 11 be 68 a6 0c bd a0 5d ed be
       0.09073278 -0.1424928 -0.034338385 -0.46360493
000040 90 a3 41 be 5b 0a cc bd 85 b4 1a bc 88 cb a9 bc
       -0.1891005 -0.09962913 -0.009442453 -0.020726934
000050 52 bc 7c be b1 f1 ef 3c 1f 26 86 be 23 d9 1b be
       -0.24681213 0.029290052 -0.2620096 -0.1521955
000060 2e 33 4f bd f3 87 60 3d a8 ac 6e bd a8 f8 a4 bd
       -0.050585918 0.05481715 -0.058270127 -0.0805524
000070 45 44 e4 bd 98 d3 47 3d 2f ea 2c be 25 de d5 bd
       -0.11145834 0.048785776 -0.16886209 -0.10442761
000080 d6 38 74 3c 8d b3 07 be 28 93 68 bd 86 b4 f0 bd
       0.014906129 -0.13252087 -0.056780964 -0.11753182
000090 6c 64 84 3d d9 1f 25 3e f2 ef db 3d 3c 46 14 3e
       0.064644665 0.1612543 0.10739125 0.14479917
0000a0 fb 3b 30 3b 82 45 f0 be 98 39 4e bd 67 bc 38 be
       0.002689122 -0.4692803 -0.050347894 -0.1804062
0000b0 f8 c2 12 be 35 45 bd 3b 7d db c8 3d 6e 51 1f 3c
       -0.14332187 0.0057760724 0.09807489 0.009724004
0000c0 18 61 e6 bc e5 29 dd bd f2 fa 96 bb 9e 32 a8 3d
       -0.02812247 -0.107990064 -0.0046075517 0.082127795
0000d0 78 db 46 3d 80 b4 88 bc a7 a6 c9 be 30 6e ae 3d
       0.048549145 -0.016687632 -0.39384958 0.0851711
0000e0 eb ef d3 bd bd e0 50 be f4 a0 3d 3d 17 42 1b bc
       -0.10348495 -0.20398231 0.046296075 -0.009476206
0000f0 6d c0 bf bd 51 b0 e7 bb d3 75 6c be de 1f 03 be
       -0.09362874 -0.007070579 -0.23091821 -0.12805125
000100 f2 0e ae be 34 f3 08 be 98 34 85 3d 3f f4 49 be
       -0.33995777 -0.13374025 0.06504172 -0.19722079
000110 9e 90 48 bd 85 60 b0 bc 99 92 cb be 9c 94 73 be
       -0.048966043 -0.0215304 -0.39760283 -0.23787159
000120 91 62 05 3e 0a cd 44 be 80 bf 77 bd f3 f5 1c bd
       0.13025881 -0.19218841 -0.060485363 -0.038320493
000130 43 87 98 bd 6a 1d 98 bc f9 21 2b be 58 06 a5 be
       -0.07447674 -0.018568713 -0.16712178 -0.32231402
000140 94 a6 0b 3e 7a 64 e5 be 98 db 95 3c 39 26 54 bd
       0.13637763 -0.4480322 0.018293187 -0.051794264
000150 fd 0c f8 bd 8f d1 41 bc 59 d1 99 be 4f f8 3b be
       -0.12111852 -0.011829748 -0.30042532 -0.18356441
000160 94 89 1a be 1f 8c 7a be d0 d5 09 bf c5 0f ad 3c
       -0.15091544 -0.24467514 -0.53841877 0.021125684
000170 7f e5 9d be 34 42 d0 3c c0 9f aa 3c e5 1d 08 be
       -0.30839154 0.025422193 0.020828128 -0.13292654
000180 c7 c0 94 be 88 77 bc 3c a2 0d 06 3e 12 a6 96 be
       -0.29053327 0.023006216 0.13091138 -0.29423577
000190 5c 8c 5f 3e 49 30 12 be 37 3f 0f be 6b bb fa be
       0.21830887 -0.14276232 -0.13988958 -0.48971114
0001a0 4d 95 96 be 6f c8 f3 bd 8f 19 ae 3c ca 3e 78 be
       -0.29410782 -0.11903464 0.021252422 -0.24242702
0001b0 4b 70 1c be d5 a0 8a be a2 54 83 bd 62 63 2c 3c
       -0.15277211 -0.2707583 -0.06412627 0.010521742
0001c0 75 80 0c be e3 94 80 3d 26 9f e5 bd 1d 85 16 3a
       -0.13720877 0.06278398 -0.11211996 0.00057418813
0001d0 60 b5 ba be d3 02 08 be 02 60 fc bd 26 85 07 bf
       -0.36466503 -0.13282327 -0.123229995 -0.52937543
0001e0 e3 4b 0b be 22 58 59 bd 0e 87 b3 3b 7d 16 c4 bc
       -0.13603167 -0.053062566 0.0054787463 -0.023936504
0001f0 31 86 9f ba af 99 98 bd 86 88 cd bc d0 78 33 bd
       -0.001217073 -0.07451188 -0.025089514 -0.043816388
000200 e8 ad 16 be 50 da d1 bd 42 33 99 3c 8c 80 43 3c
       -0.14714777 -0.10246718 0.0187012 0.011932503
000210 e5 d3 1f 3e 72 8c 12 be c3 25 77 be 69 39 90 be
       0.15608175 -0.14311388 -0.24135499 -0.281688
000220 22 ea f3 bc 62 ed 1b 3e 18 ca 46 be ec b9 f3 be
       -0.02977473 0.15227273 -0.1941303 -0.47602785
000230 bd 0c 3c be 25 45 90 be c0 da bb be c8 8a 9b be
       -0.18364234 -0.28177753 -0.3669033 -0.3037932
000240 d7 17 8d bc e4 29 0a 3e 05 cb 0d be 2d ba 1a be
       -0.017223282 0.13492543 -0.13846977 -0.15110083
000250 f9 e3 56 be 84 5c 97 be 99 5e 9e bc 01 af df 3d
       -0.20985402 -0.2956277 -0.019332217 0.10922051
000260 8a 32 a4 bd 57 5b 6c bc 34 0b 6e bd 56 3e 2d 3d
       -0.08017452 -0.014426074 -0.058116153 0.042295776
000270 df 02 1d bd e6 0d fc 3b 25 75 c6 bc 14 28 a4 3e
       -0.038332816 0.0076920865 -0.02422578 0.32061827
000280 74 e8 08 3e 33 17 1d be cc 6a 02 bd e1 ea 76 bd
       0.13369924 -0.15340881 -0.03184013 -0.06028259
000290 6c df 31 be 82 8d 87 bd da b3 d7 bd a9 31 c3 be
       -0.17370385 -0.06618787 -0.10532351 -0.38123825
0002a0 a0 16 78 3c 9b c4 59 3c 2d ea 95 3c 43 ed 8d 3d
       0.015142113 0.013291503 0.01830014 0.0693002
0002b0 b0 d7 bc be 15 96 5d be b5 4c 0f bd a1 da 27 be
       -0.36883307 -0.21639283 -0.034985263 -0.16391994
0002c0 cd 80 9e be cd 0e 89 3b c0 0c ae bd 5b 92 b4 bd
       -0.30957642 0.0041826726 -0.084985256 -0.088169776
0002d0 c7 85 22 be af e1 e1 bd e3 f5 d1 3c d1 57 c4 bd
       -0.15871345 -0.11029374 0.025629943 -0.09587062
0002e0 ce 55 98 be 9e 1a dd bd d5 e4 b0 bd e6 04 79 be
       -0.29752964 -0.107960925 -0.08637396 -0.24318275
0002f0 27 8f 6f bd f9 87 5e be 24 74 61 be 52 55 df 3e
       -0.05848613 -0.21731557 -0.2201696 0.43619782
000300 40 a8 33 be 18 f2 95 be e6 5e 18 be e9 37 10 be
       -0.17544651 -0.29286265 -0.14879951 -0.14083828
000310 8c 95 b4 be d1 e8 f2 bd 49 45 d7 bd 20 16 5d 3d
       -0.35270345 -0.118608125 -0.10511262 0.05397618
000320 d8 38 cf bd da 56 91 be d1 83 9b bd e6 be bc 3c
       -0.10118264 -0.28386575 -0.07593501 0.023040246
000330 b4 84 13 be 3f 85 af bc a9 99 b8 be f9 d6 2d 3e
       -0.14406091 -0.021425841 -0.36054733 0.16976537
000340 6f 04 85 be 36 41 16 be eb ab c8 bd 60 e8 2a be
       -0.25979945 -0.14673313 -0.09798416 -0.16690207
000350 f1 71 9f 3e 3c 6f f2 be 8a dc 09 be 36 69 dc 3c
       0.31141618 -0.4735049 -0.13463035 0.026905637
000360 6c 2e 2a be 38 e1 3c be 64 97 41 be ce cf 77 bd
       -0.16619271 -0.18445289 -0.18905407 -0.060500912
000370 7e 04 8f be ce fa 63 be 06 24 bf bc a8 fb 0e 3e
       -0.27933115 -0.22263643 -0.023332607 0.13963187
000380 05 da e2 bd aa 09 5d 3d e4 c8 8f be e4 15 25 3d
       -0.1107674 0.053964294 -0.28082955 0.04030408
000390 cd 50 16 be 0b 1e 41 be 2d 24 10 be 91 1b 97 bd
       -0.1467926 -0.18859117 -0.140763 -0.07378305
0003a0 f2 2d ff bd 65 a3 d1 bd 97 bc 15 3d f6 ac 8f bd
       -0.12459935 -0.10236243 0.036556806 -0.070154116
0003b0 8a e6 d2 3a c9 0e 00 bd 62 29 91 3d 29 bf 22 be
       0.0016090435 -0.0312641 0.07087971 -0.15893234
0003c0 98 27 dc bd 07 7e 0e 3d 0e e5 31 3e b8 ed 5b 3e
       -0.107497394 0.034788158 0.17372534 0.21477401
0003d0 31 0f 6a be 38 c6 5e 3e 2c 74 0b bc 7e bb 54 be
       -0.22857358 0.21755302 -0.008511584 -0.20774648
0003e0 bf b8 78 be 6f d4 85 3d 17 c3 1d be 16 1e 8f 3c
       -0.24289225 0.06534659 -0.15406452 0.0174704
0003f0 04 a3 29 be ac 5b 9d ba da aa 51 bd 77 13 54 be
       -0.16566092 -0.001200547 -0.051188327 -0.2071055

fc3.bias f4 [128]
000000 96 78 75 be 42 f4 2e be aa 21 82 be c2 b5 c7 3e
       -0.23971781 -0.17085364 -0.2541631 0.39005858
000010 e4 bf 27 3e 98 80 ab 3e 70 5e 78 bc 17 92 69 bd
       0.16381794 0.33496547 -0.015159234 -0.057024088
000020 a5 6c 47 bd 6b b9 93 bd 2b 91 a6 bd a0 ce dd bd
       -0.048687596 -0.072131 -0.08133157 -0.10830426
000030 2e 41 cd 3e 5f d7 10 be 83 43 12 3f 9d 3d bc bd
       0.4008879 -0.14144658 0.57134265 -0.09191439
000040 f9 51 8f bd 90 47 95 bd 67 d4 d8 bc 2b 79 c7 bd
       -0.06998057 -0.0728904 -0.026468469 -0.09739908
000050 7c f3 0b 3d 99 fa 86 3e cd 77 f6 3e aa 85 37 be
       0.03416775 0.26363066 0.48138276 -0.17922083
000060 e4 53 d8 3e 52 8f 8b 3d a2 46 40 bd 76 cf 4d bc
       0.42251503 0.068144456 -0.04694236 -0.01256167
000070 e8 69 d6 3e f8 69 61 3e da 60 d7 3e 79 27 60 bc
       0.41877675 0.2201308 0.4206608 -0.013681286
000080 8b f7 b2 bc 19 c0 e3 bd 9c a9 89 3d dc ec 03 be
       -0.021846553 -0.11120624 0.067218035 -0.12883323
000090 3d a3 a2 3e a1 89 40 bd b0 ce 09 bd 96 64 12 bd
       0.31765166 -0.047006253 -0.03364438 -0.035740457
0000a0 33 d7 77 bd 84 b1 e1 bc b6 d6 c3 bc 1e 2b ac bd
       -0.060507964 -0.027550466 -0.023906093 -0.084066615
0000b0 91 7c b2 3e a6 30 9a bc 98 bd 4e 3e e0 20 94 3e
       0.34860662 -0.018822026 0.20189512 0.28931332
0000c0 c3 70 5c 3e 02 18 a6 3e 2d 57 e2 be fc 19 30 3d
       0.2152739 0.32440192 -0.44207135 0.04299353
0000d0 ad 05 ef 3e bc bd 7a be 96 50 5f bd 26 a1 21 be
       0.46684018 -0.2448644 -0.054520212 -0.1578413
0000e0 c0 e1 65 3e 0f 69 f1 3d 3d b1 3f be c3 a5 82 3d
       0.22449398 0.117876165 -0.18719955 0.06379273
0000f0 d9 d7 8c 3e bc 96 d1 be df 98 01 3e f7 40 4f bd
       0.2750843 -0.40935314 0.12655972 -0.050599065
000100 24 6b a7 3c b0 fc 05 3f 1c 84 01 be 35 60 55 3d
       0.02043683 0.52338696 -0.12648052 0.052093703
000110 32 64 56 be b0 be 3d be ae 9c 7b bd 76 40 e1 bc
       -0.20936659 -0.18529773 -0.06142872 -0.027496558
000120 51 ef b2 bd 17 e7 6a 3d 69 e9 7a 3c 88 26 ee 3d
       -0.08737052 0.05734929 0.015314438 0.11628443
000130 0b 93 43 bc 1a 5b 12 bd 9b 39 1e bd 95 3c a6 be
       -0.011936913 -0.035731412 -0.038629156 -0.32468095
000140 4f 7e aa bd 57 c4 81 bd a5 84 d9 3e a7 9d 3e bc
       -0.08324873 -0.06336277 0.42484012 -0.011634267
000150 3f bc 05 bd a5 30 9a 3e 65 87 ab 3e fd 3a 7a 3e
       -0.03265023 0.30115238 0.33501735 0.24436565
000160 89 e5 fc 3e df 84 a7 3e 66 e2 37 3e 42 80 d3 bd
       0.4939387 0.3271856 0.17957458 -0.103271976
000170 5b fd b8 bd a1 40 2f bd 04 5f 9c be 79 52 ab bd
       -0.09032699 -0.042786244 -0.3054124 -0.0836534
000180 12 05 bd bd 8c db b2 3e 25 55 b0 bd b4 3c b3 3e
       -0.09229483 0.34933126 -0.0860999 0.3500725
000190 04 b5 c1 bd 2f 33 3f bd 66 c9 37 be bc 31 8b bd
       -0.09458354 -0.04667967 -0.17947921 -0.067965955
0001a0 bd 05 7a be 7d 1f 3c 3f f7 bc 95 3e f3 c7 2a bb
       -0.24416251 0.7348555 0.2924573 -0.002605912
0001b0 af ff 70 bd f2 ac f2 bc 60 3f bc bd bd 01 bc 3e
       -0.05883759 -0.029623482 -0.09191775 0.36720076
0001c0 db ac 26 be 16 24 1e 3e 69 5d ac 3b 19 92 d9 bd
       -0.16276877 0.15443453 0.005260159 -0.10623569
0001d0 75 d8 cf bd f4 cf d1 3e af 57 44 bd a2 1b 61 3e
       -0.10148708 0.40978968 -0.047935184 0.21983197
0001e0 d1 17 e2 3c 52 a0 65 3e 15 9b d9 bc 08 37 67 3e
       0.027599247 0.22424439 -0.026563207 0.22579587
0001f0 e5 13 ed bc 23 bc 00 bd 05 73 b8 be a1 91 de bd
       -0.02894015 -0.03142942 -0.36025253 -0.1086762

fc4.weight f4 [16, 128]
000000 77 e5 d0 bd 7b 26 97 bc 14 78 96 3c 79 0a b4 3e
       -0.10200017 -0.018450966 0.018367805 0.3516424
000010 c6 c6 2f 3f 6b 38 be 3c 65 8f 88 3d 5b b4 f4 3b
       0.6866268 0.023220262 0.06667975 0.007467789
000020 ed 53 b9 bc ae 5a 71 3b 90 9b a0 3a 5e 50 52 3d
       -0.022623027 0.003682773 0.0012253392 0.051346175
000030 7e da 12 bd bd 48 85 3d db 78 c7 3e 0f a2 4e bd
       -0.0358529 0.06508014 0.38959393 -0.05044752
000040 7f 3a cf bb a6 bc c0 3c ef 90 dd 3b 8e db 8a 3d
       -0.006324112 0.023527455 0.006761662 0.06780158
000050 d0 49 40 3e ee 95 1a bd d2 76 0d 3d 40 e2 c8 bd
       0.18778157 -0.03774064 0.034537144 -0.09808779
000060 b8 26 49 3c ca 7b c9 bf 55 82 8a 3d 18 ef 76 be
       0.012277298 -1.5740902 0.0676314 -0.24114645
000070 72 f4 d2 3c 7f c4 62 3c 2a ca a8 3d 80 0d a4 3c
       0.025751326 0.013840794 0.08241685 0.020025969
000080 1c bd 51 be 36 19 ec 3d 06 e4 45 bf c5 ff a8 3b
       -0.20482296 0.11528246 -0.7730106 0.005157443
000090 dd 40 2b 3d a2 e3 d0 3c 9c ab 8c 3d d1 f7 69 bd
       0.041809905 0.025499169 0.068686694 -0.0571211
0000a0 1d 62 41 3d 81 d6 67 3d 3f c5 b8 3d b9 7c a1 bc
       0.04721271 0.05660105 0.09021997 -0.019712793
0000b0 5d 1b 38 3e 76 74 92 bd d3 5d ca 3a fe 55 66 3e
       0.17979188 -0.071511194 0.0015439339 0.22493741
0000c0 b3 a9 89 3d 08 f6 ea bb 26 4e 82 be 1c 0a 9a 3d
       0.06721821 -0.0071704425 -0.25450248 0.075214595
0000d0 a0 be 28 3d d5 54 40 be 21 97 ff 3d 73 57 64 3d
       0.04119742 -0.18782361 0.124799974 0.05574746
0000e0 6c 43 a1 be 3d a1 29 3b 5a 2b 4d bc 54 14 55 be
       -0.3149675 0.002588346 -0.012522543 -0.20808536
0000f0 9c 52 98 3c 27 41 6c bd d3 43 88 bb 0f ef 44 3d
       0.018594079 -0.05767932 -0.004158476 0.048079547
000100 27 8b 4d 3d d6 d1 09 3d aa c8 1a 3e 02 21 0c 3d
       0.050181534 0.03364738 0.1511561 0.034211166
000110 60 14 4d 3c 44 4d 87 bd cd 66 e7 3d 7d 1d 5c ba
       0.012517065 -0.06606534 0.112989046 -0.0008396728
000120 e6 83 08 3d 76 6d 9b 3e 5c 31 9d 3e 55 f8 aa bf
       0.033328913 0.3035695 0.3070172 -1.3357035
000130 bf 24 d4 be fc df f5 bc 89 1d 88 bc 6c 50 a8 bb
       -0.41434285 -0.03001403 -0.016615646 -0.00513654
000140 d7 02 77 3b 2b b9 0d 3c 23 9d 22 bd d5 f2 4b 3c
       0.0037690902 0.0086501045 -0.03970064 0.012448032
000150 41 5e e2 3d de c4 1b be dc b6 5c 3d e7 9a 02 be
       0.11053134 -0.15211818 0.053885326 -0.12754403
000160 15 88 ac bc 66 01 b5 3d 46 81 8e 3e b1 98 97 bc
       -0.021060983 0.08838157 0.27833003 -0.018505426
000170 35 5e 46 bd 08 a1 e1 bc 81 a6 41 3d 99 77 80 bc
       -0.048429687 -0.027542606 0.04727793 -0.015682029
000180 c3 f1 01 bd 10 56 05 3e ae 77 2c bd 8a 5a 63 3d
       -0.031724703 0.13021111 -0.042106323 0.055506267
000190 c0 20 62 bd da 3d e8 3c 18 7c 55 be f4 9d 94 3d
       -0.055207014 0.028349806 -0.2084812 0.0725669
0001a0 8c 9c 88 3d 55 4c 60 3e b7 64 f5 3d 37 a5 4b 3e
       0.06670484 0.21904118 0.119821005 0.19887243
0001b0 6e fa ea bc 5a 3c 43 3c 2a d3 a6 3d 48 d2 98 3c
       -0.028683867 0.011916244 0.08145745 0.018654957
0001c0 91 81 82 bc 83 0b 72 bb 6e 78 75 3d 6d 66 18 3e
       -0.015930923 -0.003693313 0.059929304 0.14882822
0001d0 52 2c 87 bd 79 f7 0a 3d e6 41 1f be 20 48 0f 3d
       -0.0660025 0.033927415 -0.15552482 0.034980893
0001e0 e9 ff 3d 3d 8f fe 17 3d 6f 01 d1 bc fb af 22 ba
       0.046386633 0.037108 -0.025513379 -0.00062060327
0001f0 f9 c8 85 bd 40 23 b5 3d f4 7d 25 bf a7 0e 5b bc
       -0.06532473 0.08844614 -0.64645314 -0.013370193
000200 7e 3e ed 3d 96 87 09 bd 2e a2 81 3e c3 87 d2 3e
       0.11584185 -0.03357657 0.25319046 0.41119203
000210 7f b3 ae 3e eb 5e 8c be d2 62 33 3d 7d 22 29 bc
       0.3412132 -0.27416167 0.043795414 -0.010323164
000220 88 90 10 bc fc d6 82 3d 6e 09 1b bd d4 2c ad bd
       -0.008823521 0.06388661 -0.03785079 -0.08455816
000230 9f cb 23 bd 07 64 d9 bc 06 72 0c 3f f4 55 a1 3d
       -0.03998911 -0.026536955 0.54861486 0.078777224
000240 19 73 cf bc 33 1d 8c 3c 7e 1e 8f bb 91 8b 90 3d
       -0.025323438 0.017103767 -0.0043676486 0.0705787
000250 92 6d b7 3d 8a 12 87 bc 10 6a 86 bb 6b db 26 be
       0.08956446 -0.016488332 -0.004101999 -0.16294639
000260 4c a6 b3 bd 3f 69 e3 bd b3 50 d1 3c bc 5d 18 be
       -0.08771953 -0.111040585 0.025551176 -0.14879507
000270 2a 80 63 bd 83 f7 60 3e 9d 29 7a 3d c4 6b a7 3d
       -0.05554215 0.21969418 0.06107484 0.081748515
000280 df b5 3b be 7a 8d dd 3e a3 64 88 3e cc 40 4d bd
       -0.18331097 0.43272 0.2663928 -0.050110623
000290 e2 f1 25 3e 0a 36 a5 3c 8e 4c 6d be 67 92 04 bd
       0.16205552 0.02016737 -0.23173735 -0.032366183
0002a0 75 34 00 3e a9 68 48 3b 2b 1f 65 bd 2a a9 ef be
       0.12520011 0.003057996 -0.055937927 -0.4680875
0002b0 16 75 f0 3e c2 b0 12 3d 9f 03 ee bb 73 26 73 bf
       0.4696433 0.0358131 -0.0072636153 -0.94980544
0002c0 18 0f 01 be 7f e1 2b 3e 6e 25 00 be 9d 06 4c 3e
       -0.12603414 0.16785239 -0.12514278 0.19924398
0002d0 e7 9c 9a 3d ae 5d f9 bd 2b 38 82 3d a2 9f bd bd
       0.07549458 -0.12176071 0.063583694 -0.09258963
0002e0 0c 34 86 be 7c 39 2d 3f cc ce 82 bd bc 4f b3 3e
       -0.26211584 0.6766584 -0.063870996 0.3502177
0002f0 68 26 ae bd ec ff 34 3d 96 bf f0 3c b1 cf 98 3d
       -0.08503419 0.04418938 0.02938823 0.07461489
000300 96 28 f0 bc 7d 73 9a 3c 39 38 0a bf 83 fd 53 bd
       -0.029316228 0.018853897 -0.5399204 -0.05175544
000310 fc 8b 36 3d 94 a3 35 bd 89 d5 08 3e 5b 3b 98 bd
       0.044567093 -0.044345453 0.13362707 -0.07433196
000320 08 70 48 3d d1 67 34 3e 50 a8 0a be 8b a6 db 3d
       0.048934966 0.17617728 -0.13540769 0.10725125
000330 84 6a 0d be e5 ba 67 bb 85 36 26 bb de 05 26 3f
       -0.13810164 -0.00353592 -0.0025362086 0.648527
000340 64 0c 89 bd 5e 40 3b bd 9d 56 13 be f8 67 bf ba
       -0.066918164 -0.045715682 -0.14388509 -0.0014603129
000350 3a 5a ac bc 29 ea 93 be 7e ac 24 3e f1 bc 46 be
       -0.021039117 -0.28889588 0.16081426 -0.19408013
000360 23 ce 1d be 0a 18 8c 3e 69 54 8b 3e 2a 61 74 bc
       -0.15410666 0.2736209 0.27212837 -0.014915744
000370 fa a0 0b bd dd 08 55 bd 0b cb 21 3d 46 04 93 bc
       -0.034089066 -0.052010406 0.039500277 -0.017946374
000380 41 cf c0 3d 26 7f 9c 3c 49 f2 62 bd fe fd 18 3e
       0.094145305 0.019103598 -0.055406842 0.1494064
000390 1d 8a 65 3d 87 25 87 3d 53 2e 26 be 58 67 97 3d
       0.05603992 0.06598955 -0.16228609 0.07392758
0003a0 62 f0 0f 3e 0f da 49 3e 6c 4a 1d 3b c9 9f dd bd
       0.14056543 0.19712089 0.0024000658 -0.10821492
0003b0 ab d8 8e bd 64 62 9b bd 46 dc 4f 3e 7c 88 1f 3d
       -0.0697492 -0.07587126 0.20298871 0.03894852
0003c0 8c 15 b2 3c 5f da 92 be be fb fe 3c 06 79 f3 3d
       0.02173879 -0.2868223 0.0311259 0.11888318
0003d0 77 86 17 bd 2e 43 18 3e 91 83 51 3e 51 d6 9b b9
       -0.03699347 0.14869377 0.20460345 -0.00029723582
0003e0 43 e0 4d ba 04 6e cc 3c 4b 12 58 bd 2e bf 34 3d
       -0.0007853547 0.024954803 -0.05275182 0.044127636
0003f0 99 27 a6 3d 83 28 34 bf 60 15 a5 3d bd 43 50 3c
       0.081130214 -0.70374316 0.080607176 0.012711463

fc4.bias f4 [16]
000000 0e f5 e8 3d c6 cd be be a4 85 a0 bd 8c fb f5 3d
       0.113748655 -0.37266368 -0.0783799 0.120108694
000010 06 73 46 bd 20 3b 65 3e 21 cc 93 3e 52 d0 85 bd
       -0.04844954 0.22385836 0.28866675 -0.065338746
000020 61 6c f0 ba 68 d7 1c 3e 75 d8 b5 be 62 c3 61 bd
       -0.0018342846 0.15316546 -0.35516706 -0.055117972
000030 4c 66 13 3e c5 c0 12 3e 66 d2 65 3e 22 82 54 3d
       0.14394492 0.14331348 0.22443542 0.051881917
