Martti/Graphs/MarttiWeights-2x2x2-b128-lr0.001000.pt (torch, 72535 bytes, 6 tensors)

fc1.weight f4 [128, 4]
-0.12406178 0.2974569 -0.60472673 0.24187334 0.9384411 0.46888626 1.0932068 0.7323071
-0.19821653 -0.32108387 -0.019971918 -0.26518214 0.4690307 -0.16743273 0.16371572 -0.638743
0.93302757 0.98978937 1.1123649 0.36924747 0.34973592 0.3942277 0.56724733 -0.46187317
0.16491754 -0.4208922 0.15876429 -0.22416444 -0.363047 -0.3022576 -0.39968574 0.1870799
0.44889742 -0.43804032 0.43232688 -0.008586997 0.56857705 0.5103898 0.16072501 0.124396175
0.25758648 0.38276446 -0.58889115 0.25849202 0.5461708 0.33578628 -0.37120125 0.42268243
0.6735468 -0.5462698 -0.013875316 -0.23762505 -0.5034152 -0.026931299 0.29287001 0.2686154
0.23932713 -0.40076485 0.198134 -0.40094185 -0.47874644 0.37261394 0.119175844 -0.15344523
0.09811656 0.27566248 -0.06757058 0.39531797 -0.029184014 0.28914213 0.4224822 -0.6321458
0.059873138 -0.618268 0.26535016 -0.036045857 0.15055507 0.0015686231 -0.29397634 -0.48267153
0.29725182 0.45310962 0.058935873 -0.4363512 -0.27996075 0.4523297 -0.31340107 -0.33807194
0.07507356 -0.3727194 0.3928769 0.012348312 0.37680253 0.21284397 -0.21944144 0.52838445
0.16846679 -0.21426836 -0.002941092 -0.22833416 -0.75051606 -0.12383665 0.1455421 0.55601054
-0.3963161 0.15598784 0.28222197 0.2833516 0.36370215 0.647318 0.02007818 0.33629575
0.40156 0.21864626 0.6088612 -0.38615906 -0.29062995 -0.31876364 0.23610167 0.63339686
0.035127718 -0.52422506 -0.32237878 0.30395317 0.24042821 0.38267407 -0.32594848 -0.22350347
0.119843125 -0.20450622 -0.46663475 0.18716931 -0.42479712 0.45613164 -0.15561885 -0.33104676
-0.2695499 0.07581889 0.059173483 -0.53538847 -0.81353235 0.0017523397 0.37955108 0.551001
-0.5285021 -0.0085869795 0.44377032 0.5000553 0.11177623 -0.028508723 0.016619086 -0.2440992
-0.57578355 -0.118761115 0.6992067 -0.3358101 0.8688117 0.62879944 0.8800548 0.21537583
-0.32548085 -0.048504826 -0.31578165 0.44221348 0.6072828 0.030556493 -0.2814228 -0.5145262
0.34965292 0.27091315 0.28822884 -0.07644574 -0.49538586 0.40194884 -0.0033303392 0.18356279
-0.022920609 -0.4639641 -0.20749503 -0.46272397 -0.5383115 0.558304 -0.38136125 0.49688995
0.5356292 -0.19086093 0.32343084 0.08782859 0.035938352 -0.18381152 -0.32823688 0.04969012
0.34747416 0.590136 -0.18871137 0.06664748 0.37245512 -0.6463725 0.10372111 0.15325668
-0.04570502 -0.47926545 -0.32661462 0.0071008205 0.22551538 0.62666744 0.07412783 -0.53042763
0.73641026 0.14624032 0.4765919 0.0058763116 0.4789803 -0.43074626 0.13712366 0.61315805
-0.37486964 0.28147095 -0.046467543 -0.1498959 -0.25241944 0.12997477 0.3643145 0.35655007
0.463132 -0.30104744 -0.37733474 0.07066572 0.3449609 -0.3970064 -0.39444432 0.24447379
-0.13611308 0.36736462 0.20632102 -0.113426015 -0.5542135 -0.087047726 0.088033885 0.32746845
0.74117774 -0.37151912 -0.45833084 -0.01292176 -0.3620239 -0.33878887 -0.16872782 -0.36108607
0.39738947 0.47042403 -0.36462533 -0.47663194 -0.15183485 -0.4501603 0.00094542163 0.45338613
00000000: 1a14 febd 454c 983e 5fcf 1abf a5ad 773e
00000010: ad3d 703f dc11 f03e 33ee 8b3f 7a78 3b3f
00000020: 46f9 4abe 1b65 a4be 269c a3bc f4c5 87be
00000030: cb24 f03e 7c73 2bbe 18a5 273e a984 23bf
00000040: e5da 6e3f d662 7d3f f961 8e3f 010e bd3e
00000050: 9610 b33e 37d8 c93e 1f37 113f a47a ecbe
00000060: 25e0 283e 2f7f d7be 1b93 223e 5d8b 65be
00000070: 4ce1 b9be 82c1 9abe 9ca3 ccbe e091 3f3e
00000080: e2d5 e53e d246 e0be f359 dd3e 7ab0 0cbc
00000090: 448e 113f e8a8 023f 1995 243e 6cc3 fe3d
000000a0: 60e2 833e b4f9 c33e 92c1 16bf 1159 843e
000000b0: d9d1 0b3f 2eec ab3e 170e bebe d569 d83e
000000c0: 906d 2c3f 56d8 0bbf 4b55 63bc fb53 73be
000000d0: d2df 00bf 079f dcbc 0ff3 953e f587 893e
000000e0: 2c12 753e 0d31 cdbe a4e3 4a3e 4048 cdbe
000000f0: 411e f5be 41c7 be3e 7712 f43d bf20 1dbe
00000100: 56f1 c83d a223 8d3e 7262 8abd 1e67 ca3e
00000110: 5013 efbc 700a 943e 964f d83e 4fd4 21bf
00000120: 893d 753d d046 1ebf fadb 873e d2a4 13bd
00000130: 1c2b 1a3e 429a cd3a 1184 96be b920 f7be
00000140: 6431 983e fcfd e73e be66 713d 6d69 dfbe
00000150: 0457 8fbe c297 e73e 1b76 a0be c417 adbe
00000160: 2bc0 993d 14d5 bebe 2927 c93e 9350 4a3c
00000170: 43ec c03e c5f3 593e 42b5 60be 3444 073f
00000180: 8f82 2c3e 2a69 5bbe 56bf 40bb 6ed0 69be
00000190: d221 40bf 129e fdbd fd08 153e b556 0e3f
000001a0: f2e9 cabe 47bb 1f3e 667f 903e 7613 913e
000001b0: 2b37 ba3e a2b6 253f ff7a a43c f52e ac3e
000001c0: 4699 cd3e cee4 5f3e 54de 1b3f a4b6 c5be
000001d0: 73cd 94be fd34 a3be a3c4 713e 4c26 223f
000001e0: 15e2 0f3d 9d33 06bf d50e a5be c09f 9b3e
000001f0: d032 763e dbed c33e b8e2 a6be 18de 64be
00000200: 5070 f53d 146a 51be c0ea eebe 50a9 3f3e
00000210: 027f d9be 168a e93e 8c5a 1fbe f67e a9be
00000220: 7202 8abe ef46 9b3d e55f 723d 380f 09bf
00000230: a843 50bf c3ae e53a 8554 c23e 670e 0d3f
00000240: ea4b 07bf 67b0 0cbc dd35 e33e a003 003f
00000250: f0ea e43d 208b e9bc c024 883c 24f5 79be
00000260: 8d66 13bf 0739 f3bd 36ff 323f 4def abbe
00000270: 726a 5e3f 00f9 203f 454b 613f 7b8b 5c3e
00000280: 6da5 a6be ffac 46bd 22ae a1be ce69 e23e
00000290: e376 1b3f 9c51 fa3c a616 90be fdb7 03bf
000002a0: b505 b33e 21b5 8a3e bb92 933e 968f 9cbd
000002b0: 37a3 fdbe 3dcc cd3e d241 5abb e2f7 3b3e
000002c0: 00c4 bbbc b48c edbe 9479 54be 28ea ecbe
000002d0: c8ce 09bf 03ed 0e3f c841 c3be 5c68 fe3e
000002e0: ff1e 093f 0c71 43be ba98 a53e 7adf b33d
000002f0: 1834 133d 1639 3cbe aa0e a8be de87 4b3d
00000300: 22e8 b13e 2713 173f 8e3d 41be 797e 883d
00000310: 70b2 be3e ab78 25bf bc6b d43d 52ef 1c3e
00000320: 3035 3bbd 4862 f5be 083a a7be 00ae e83b
00000330: 81ed 663e 476d 203f 55d0 973d 1bca 07bf
00000340: 6285 3c3f 06c0 153e db03 f43e 138e c03b
00000350: e83c f53e c68a dcbe 256a 0c3e edf7 1c3f
00000360: eaee bfbe f61c 903e c054 3ebd 507e 19be
00000370: 1f3d 81be 1b18 053e 6e87 ba3e bb8d b63e
00000380: a31f ed3e e422 9abe 0532 c1be 30b9 903d
00000390: b79e b03e 6c44 cbbe 9bf4 c9be 5657 7a3e
000003a0: 3a61 0bbe 3717 bc3e d145 533e e64b e8bd
000003b0: f0e0 0dbf 1446 b2bd 1c4b b43d f2a9 a73e
000003c0: d3bd 3d3f c137 bebe 57aa eabe cab5 53bc
000003d0: 325b b9be bc75 adbe fcc6 2cbe 46e0 b8be
000003e0: a276 cb3e 6bdb f03e 2cb0 babe 1a09 f4be
000003f0: 987a 1bbe 697b e6be 2cd6 773a 3a22 e83e

fc1.bias f4 [128]
0.23762564 0.094977066 0.8051577 0.18099175 0.3739159 0.2205117 0.34735218 -0.3962149
-0.37022242 0.023825137 -0.12260456 -0.3422961 0.14644323 0.40981787 0.37272516 0.24794824
0.62678444 -0.0398865 0.37924713 0.6174204 -0.26497266 0.506003 -0.054495595 -0.32445508
0.43750834 0.15559503 -0.075753056 0.26237947 0.15992826 -0.16554551 0.54940766 -0.04065003
-0.4015115 -0.45945585 0.6686803 -0.017095791 0.4166063 -0.18356729 0.3330645 0.19595256
0.23310645 0.17831413 0.66125554 0.623868 -0.15242517 0.03932237 -0.26659516 0.44989985
0.042015534 0.08914847 -0.3691631 -0.30429712 0.13210957 0.13032365 -0.49369365 -0.25390446
0.20577739 0.31106526 0.25366607 0.3463508 0.11906382 0.042221904 0.42492905 0.14076729
-0.18970633 0.26765117 0.15752272 -0.10767181 -0.36355406 0.26436695 -0.43013752 0.0074152774
0.51974106 -0.111572616 -0.009624694 -0.24252802 -0.108976774 0.68100685 0.5380569 -0.051072747
0.7402681 0.5656158 0.5627059 0.62252825 0.17075017 -0.049641673 -0.31995845 0.22241336
0.39584938 0.05762662 0.3391407 0.03284848 0.33763137 0.022760808 0.5374734 0.32621717
0.09964591 -0.2714324 -0.37290257 -0.14235221 -0.4445938 0.59615165 -0.3834085 -0.15668428
-0.06455301 0.69778556 0.1393699 0.38084123 0.7238433 0.58402735 -0.17135614 -0.102262855
0.3143849 -0.32476914 0.48289713 0.18302861 -0.31638455 -0.085524455 -0.26410583 0.21245097
-0.12055111 0.4008122 0.41236657 0.57144165 0.47787112 0.32256663 0.6082799 0.32616648
00000000: 2354 733e 5683 c23d d11e 4e3f e755 393e
00000010: e871 bf3e d2cd 613e 25d8 b13e aedc cabe
00000020: cb8d bdbe ef2c c33c 1918 fbbd 6f41 afbe
00000030: 37f5 153e a6d3 d13e d5d5 be3e 25e6 7d3e
00000040: f274 203f 0760 23bd ae2c c23e 430f 1e3f
00000050: 7faa 87be 6a89 013f c636 5fbd fa1e a6be
00000060: 1801 e03e 4e54 1f3e 6b24 9bbd 9a56 863e
00000070: 3cc4 233e c384 29be fba5 0c3f a580 26bd
00000080: ea92 cdbe cc3d ebbe a22e 2b3f 790c 8cbc
00000090: 6c4d d53e 10f9 3bbe 6e87 aa3e caa7 483e
000000a0: 75b3 6e3e fb97 363e 0b48 293f d0b5 1f3f
000000b0: 5815 1cbe 7e10 213d 297f 88be 4659 e63e
000000c0: 7b18 2c3d 7993 b63d f202 bdbe d5cc 9bbe
000000d0: bb47 073e 9073 053e 6ac5 fcbe c4ff 81be
000000e0: 4fb7 523e f243 9f3e 85e0 813e e454 b13e
000000f0: bbd7 f33d e0f0 2c3d 4d90 d93e 4d25 103e
00000100: 6042 42be 9309 893e a34d 213e 0a83 dcbd
00000110: c223 babe 1b5b 873e fc3a dcbe dbfb f23b
00000120: c00d 053f 2f80 e4bd e4b0 1dbc 4459 78be
00000130: 372f dfbd 7756 2e3f 19be 093f a831 51bd
00000140: 3682 3d3f 32cc 103f 7e0d 103f 035e 1f3f
00000150: 22d9 2e3e 1155 4bbd 98d1 a3be 54c0 633e
00000160: c5ac ca3e e409 6c3d daa3 ad3e 218c 063d
00000170: 05de ac3e e074 ba3c db97 093f f005 a73e
00000180: 2813 cc3d 30f9 8abe 16ed bebe c7c4 11be
00000190: cca1 e3be 659d 183f 1e4e c4be d871 20be
000001a0: 5e34 84bd 13a2 323f fcb6 0e3e 9ffd c23e
000001b0: cb4d 393f d182 153f fc77 2fbe 306f d1bd
000001c0: 0ff7 a03e 2448 a6be 4b3e f73e da6b 3b3e
000001d0: 28fd a1be 7227 afbd e138 87be bf8c 593e
000001e0: 80e3 f6bd 4237 cd3e b621 d33e 004a 123f
000001f0: 86ab f43e 7427 a53e 3bb8 1b3f 4bff a63e

fc2.weight f4 [128, 128]
0.02993981 -0.049848273 -0.015776735 0.030474424 -0.034747284 0.08048636 -0.0112717 -0.023101509
-0.08495527 0.0041832775 0.071329474 -0.0770741 -0.044351865 -0.072255924 -0.025642198 -0.07110904
-0.07085175 0.06690415 -0.08788763 -0.08036613 0.049554918 -0.02884074 -0.010538966 -0.07013322
0.067460656 -0.062366534 -0.060532883 -0.031703446 -0.06036673 0.009324695 0.014658568 -0.043416876
-0.080791295 -0.08261703 0.05833013 0.07912409 -0.06793994 0.042187467 0.0046614837 -0.0014380252
-0.029324165 -0.0069001946 0.008885981 0.039108593 -0.005054724 0.086611204 -0.029914388 0.06448677
0.0412136 -0.025839673 0.015106663 -0.06666495 0.057023328 -0.04757489 -0.017421104 0.04740827
-0.0007945217 0.018811328 -0.010287705 0.0067960634 -0.052891932 -0.011287916 0.061490018 -0.08638573
0.043388177 -0.004264281 0.009383502 -0.025047198 0.07422845 0.018037017 -0.056174424 0.04064131
-0.04896262 0.026986793 0.01096426 -0.049008936 -0.030394673 -0.08047486 0.069717996 0.011298123
0.006570595 -0.06867439 -0.08113353 -0.038170837 -0.048771743 -0.006064636 0.0862889 -0.06445248
0.046673797 -0.05417805 -0.044896305 -0.06313731 -0.08520286 -0.07354196 -0.053240556 0.06612347
0.0823679 0.0015826352 -0.044160392 -0.04818314 -0.03447845 0.043956317 0.07436818 0.032990526
-0.06775526 0.068352714 0.015203222 -0.093767926 0.07761614 0.046650127 -0.07554246 -0.07753035
-0.037221633 -0.038866874 -0.0729576 -0.09069869 -0.013504662 0.043872952 -0.07370155 -0.03330721
-0.062693745 -0.07253268 -0.0087486105 -0.061351757 0.057950046 0.038509533 0.022198707 0.042820975
-0.0012312649 -0.028702542 0.35621125 -0.029837955 -0.12478352 -0.066219576 0.53786707 -0.08096796
0.6341296 -0.031179093 -0.04128572 -0.09013774 0.3257437 0.08786043 0.23914035 -0.056051075
0.06219052 -0.10306408 0.6870269 0.17609619 -0.2138767 -0.025726099 0.7497845 -0.048458833
0.17630526 0.1298091 0.048534613 -0.15460274 0.03772649 0.28874227 0.35094228 0.015776098
-0.051648233 -0.03648015 0.049438916 0.047456514 0.038207315 0.0073675113 0.18397257 -0.0574827
0.20984592 -0.011517555 -0.07913288 0.021861093 -0.08200392 0.13185847 0.3249113 0.22397606
-0.16401549 0.6408477 -0.06447459 -0.014680728 0.03917341 0.21759222 0.075011715 -0.003201656
0.29658046 0.4087116 -0.08301262 0.059249155 0.21044292 -0.021333618 -0.032319672 0.5704365
-0.050304066 0.45014605 -0.09943896 -0.13231054 -0.068506435 0.40142593 -0.022614377 0.07100059
0.02272405 -0.09920702 0.36313212 0.71557885 0.018148866 -0.037605748 0.2540066 0.022193579
0.010636295 0.3765623 -0.101191394 -0.07974888 0.14651135 -0.07214583 0.33100033 0.19686112
-0.030471543 -0.10984773 0.16644926 -0.094558015 0.40001965 -0.054553088 -0.006764971 -0.00017208421
0.13866873 0.58607715 -0.05682838 -0.13850902 -0.032069948 0.14122161 0.01824751 0.10796848
-0.047260392 0.0705963 0.102511026 -0.043421518 0.0898132 0.17798316 0.7525761 -0.11988758
0.10113556 0.010472206 -0.029386789 0.2931706 0.031617194 0.12690584 3.9712835e-05 0.09717553
-0.02710467 0.37314692 0.05126449 0.08058919 0.0050802063 0.112550326 0.08529352 0.016672518
00000000: 5544 f53c b42d 4cbd 363e 81bc 80a5 f93c
00000010: 2b53 0ebd 08d6 a43d f0ac 38bc 603f bdbc
00000020: 07fd adbd e013 893b 3015 923d 07d9 9dbd
00000030: 4daa 35bd eafa 93bd 960f d2bc 9ea1 91bd
00000040: b91a 91bd 0b05 893d 6efe b3bd ff96 a4bd
00000050: 19fa 4a3d 6a43 ecbc a1ab 2cbc 01a2 8fbd
00000060: d028 8a3d 0d74 7fbd 54f1 77bd 79db 01bd
00000070: 1b43 77bd 9bc6 183c 7e2a 703c e5d5 31bd
00000080: e875 a5bd 1e33 a9bd 93eb 6e3d d00b a23d
00000090: 1824 8bbd c4cc 2c3d 5cbf 983b 1e7c bcba
000000a0: 3b39 f0bc 071b e2bb 8196 113c 5530 203d
000000b0: 19a2 a5bb 3761 b13d 050f f5bc a411 843d
000000c0: 98cf 283d b9ad d3bc f081 773c a287 88bd
000000d0: 4b91 693d e3dd 42bd b4b6 8ebc 2d2f 423d
000000e0: 7347 50ba 371a 9a3c c38d 28bc 83b1 de3b
000000f0: 36a5 58bd f4f0 38bc f5dc 7b3d 00eb b0bd
00000100: cdb7 313d 62bb 8bbb 43bd 193c c82f cdbc
00000110: 1605 983d 5ec2 933c 2717 66bd 8177 263d
00000120: 078d 48bd 6813 dd3c 71a3 333c 98bd 48bd
00000130: 40fe f8bc 01d0 a4bd 4fc8 8e3d c31b 393c
00000140: 254e d73b 29a5 8cbd 5629 a6bd 0659 1cbd
00000150: e1c4 47bd dbb9 c6bb 3cb8 b03d a9ff 83bd
00000160: 062d 3f3d cee9 5dbd 30e5 37bd 224e 81bd
00000170: d67e aebd 2b9d 96bd c512 5abd be6b 873d
00000180: 80b0 a83d 6d70 cf3a 87e1 34bd af5b 45bd
00000190: 4639 0dbd 8a0b 343d 584e 983d 1321 073d
000001a0: 45c3 8abd 82fc 8b3d ef16 793c 6609 c0bd
000001b0: 36f5 9e3d 3414 3f3d 01b6 9abd 3bc8 9ebd
000001c0: b675 18bd df32 1fbd cb6a 95bd 3cc0 b9bd
000001d0: a842 5dbc 20b4 333d d7f0 96bd 246d 08bd
000001e0: 9465 80bd 048c 94bd 5556 0fbc fb4b 7bbd
000001f0: 075d 6d3d 2cbc 1d3d 10da b53c 0c65 2f3d
00000200: 6562 a1ba 9821 ebbc 5261 b63e ba6e f4bc
00000210: 818e ffbd 219e 87bd a8b1 093f 88d2 a5bd
00000220: 5156 223f 4c6b ffbc 371b 29bd 239a b8bd
00000230: e1c7 a63e 2bf0 b33d 35e1 743e d095 65bd
00000240: 7dbb 7e3d 4313 d3bd ffe0 2f3f 8f52 343e
00000250: 7e02 5bbe 8abf d2bc e1f1 3f3f c57c 46bd
00000260: 5e89 343e adec 043e 3bcc 463d 2e50 1ebe
00000270: 1887 1a3d 07d6 933e b5ae b33e e03c 813c
00000280: 198d 53bd 366c 15bd 7680 4a3d c361 423d
00000290: 467f 1c3d 2a6b f13b 4e63 3c3e fb72 6bbd
000002a0: d9e1 563e 21b4 3cbc 6b10 a2bd 0916 b33c
000002b0: acf1 a7bd e805 073e c65a a63e fb59 653e
000002c0: adf3 27be 980e 243f 410b 84bd 7087 70bc
000002d0: 4c74 203d 7fd0 5e3e be9f 993d e0d2 51bb
000002e0: 65d9 973e a642 d13e 8502 aabd 3eaf 723d
000002f0: 597e 573e d7c3 aebc a261 04bd 2008 123f
00000300: a30b 4ebd 8b79 e63e a7a6 cbbd 6a7c 07be
00000310: 1a4d 8cbd b387 cd3e c941 b9bc c268 913d
00000320: c927 ba3c 0d2d cbbd 74ec b93e 2d30 373f
00000330: eeac 943c 7c08 1abd 270d 823e 4fcf b53c
00000340: db43 2e3c c6cc c03e 6f3d cfbd 6153 a3bd
00000350: 1207 163e 31c1 93bd e078 a93e f695 493e
00000360: 759f f9bc d9f7 e0bd ad71 2a3e a2a7 c1bd
00000370: 60cf cc3e 0f73 5fbd b1ac ddbb 8171 34b9
00000380: 2dff 0d3e 2709 163f e0c4 68bd 4fd5 0dbe
00000390: c75b 03bd 669c 103e cd7b 953c 941e dd3d
000003a0: 1d94 41bd cb94 903d 4df1 d13d c3da 31bd
000003b0: fcef b73d 3841 363e d4a8 403f 9f87 f5bd
000003c0: 2920 cf3d 9e93 2b3c 90bc f0bc 751a 963e
000003d0: 0881 013d 9bf3 013e 5591 2638 f703 c73d
000003e0: 9d0a debc 1d0d bf3e b7fa 513d f20b a53d
000003f0: dc77 a63b c980 e63d 5eae ae3d ce94 883c

fc2.bias f4 [128]
-0.05727814 0.05091106 0.09475 -0.028994162 -0.012776481 -0.049210355 -0.066751525 -0.07190658
0.06365311 -0.035374995 -0.070079714 0.045865756 -0.08823125 0.0040271664 0.054664273 0.08303257
0.05256555 0.08826888 0.06198643 0.0015458075 0.09395678 -0.023831218 0.018732592 -0.019152151
-0.01164338 -0.011016852 0.018018816 -0.017820582 0.113507 0.059641592 0.49860197 0.042952493
-0.090650424 0.048056167 0.055969864 -0.106121734 0.11629948 -0.0603721 0.04727266 0.15078059
-0.052840594 0.018063111 0.083149694 -0.037292786 -0.033147473 0.00073093595 0.10350887 0.031177511
0.04059245 0.08172108 -0.014524693 0.04302396 0.09392065 0.048961792 0.08471936 0.040540904
0.035086405 0.11125595 -0.030024879 0.08206214 0.044035323 0.043737292 -0.083475634 -0.0021673487
-0.035111614 0.06720973 -0.015472022 0.029657682 -0.07397695 0.08441558 -0.07090431 0.048049588
-0.0049991636 0.033048753 0.061724044 -0.004129232 0.032435507 0.048280135 0.0730744 -0.042447355
0.01091391 -0.03733053 0.021160658 -0.06698192 0.05076164 0.025290852 -0.08892705 0.1672726
0.05717366 -0.0399919 0.053370677 0.0978918 -0.068543375 0.06334338 -0.052820653 -0.061683543
0.09660698 -0.07326035 -0.06267727 -0.030633772 -0.023662794 0.010882478 0.076181434 0.09268322
0.02468916 0.36924797 0.05055334 -0.03262107 -0.016381705 0.031365063 0.0027348606 0.04282161
0.1395807 0.05709696 0.115562566 0.09853673 0.03642388 -0.016425755 0.012124332 0.06241362
0.060731865 -0.039678074 -0.0045096157 -0.055183634 -0.029758988 0.06623814 0.006778808 -0.049581993
00000000: 7c9c 6abd 1e88 503d 4a0c c23d 2a85 edbc
00000010: 7254 51bc cc90 49bd 06b5 88bd c243 93bd
00000020: 905c 823d 5fe5 10bd f485 8fbd bbdd 3b3d
00000030: 96b2 b4bd 52f6 833b a5e7 5f3d fb0c aa3d
00000040: f94e 573d 51c6 b43d 7ce5 7d3d b19c ca3a
00000050: 6a6c c03d b039 c3bc 1875 993c f9e4 9cbc
00000060: e0c3 3ebc 0780 34bc 329c 933c 78fc 91bc
00000070: 5c76 e83d be4a 743d c248 ff3e f4ee 2f3d
00000080: eea6 b9bd 8bd6 443d a840 653d 5a56 d9bd
00000090: 6c2e ee3d bc48 77bd faa0 413d 3a66 1a3e
000000a0: 616f 58bd 17f9 933c 634a aa3d 52c0 18bd
000000b0: a5c5 07bd 489c 3f3a 75fc d33d fb67 ff3c
000000c0: 4544 263d 625d a73d faf8 6dbc e439 303d
000000d0: 7859 c03d 298c 483d 5881 ad3d 380e 263d
000000e0: c3b6 0f3d 29da e33d bcf6 f5bc 3210 a83d
000000f0: 625e 343d e025 333d 46f5 aabd 140a 0ebb
00000100: 32d1 0fbd 41a5 893d 5d7e 7dbc abf4 f23c
00000110: 3a81 97bd 13e2 ac3d 4736 91bd a5cf 443d
00000120: 06d0 a3bb 215e 073d 5ad2 7c3d 824e 87bb
00000130: 18db 043d 64c1 453d 08a8 953d 47dd 2dbd
00000140: 42d0 323c e6e7 18bd 1e59 ad3c d12d 89bd
00000150: 70eb 4f3d c32e cf3c 631f b6bd 8249 2b3e
00000160: ed2e 6a3d 8cce 23bd 369b 5a3d 7f7b c83d
00000170: 7860 8cbd 2dba 813d 785a 58bd e2a7 7cbd
00000180: e1d9 c53d 8609 96bd f15c 80bd adf3 fabc
00000190: 7ad8 c1bc 6c4c 323c 0305 9c3d b3d0 bd3d
000001a0: ec40 ca3c 120e bd3e 0511 4f3d ac9d 05bd
000001b0: ed32 86bc a778 003d 593b 333b b665 2f3d
000001c0: 3eee 0e3e 80de 693d 11ac ec3d a0cd c93d
000001d0: 3531 153d 4e8f 86bc 22a5 463c 6da5 7f3d
000001e0: fac1 783d 7a85 22bd 66c5 93bb 3c08 62bd
000001f0: 1fc9 f3bc dda7 873d c320 de3b 7d16 4bbd

fc3.weight f4 [4, 128]
-0.019000547 -0.034684066 -0.036513895 -0.018036474 -0.15146066 0.17286749 -0.027543915 0.068678506
-0.21274197 -0.0011624681 -0.03874384 -0.025005367 -0.030084157 -0.009632492 -0.17565338 0.053036
0.013791501 -0.19473556 -0.06492397 0.13663653 -0.0517681 0.07532935 0.021379182 -0.043202672
0.039822478 -0.0625393 -0.075977445 0.06559049 -0.13898033 0.01529823 0.20744516 0.032550886
0.15758811 -0.04435265 -0.06484641 0.003808674 -0.03509418 0.06799863 0.012301348 -0.100162104
-0.06596905 0.005961345 -0.054452337 -0.18517251 0.032188416 0.0044082757 -0.022082642 -0.08383375
0.022322236 0.06457075 -0.31960166 0.07249568 0.05982174 -0.12471273 -0.112307265 -0.07456356
0.04209046 -0.044183552 -0.1682226 0.1375032 0.054740537 -0.049732856 0.010750934 -0.07831876
0.06551291 0.046823747 -0.035783764 0.070861325 0.04073551 -0.10113627 0.08135782 0.078450374
-0.05591598 0.067641616 0.006432559 -0.08061158 0.07013562 -0.3813925 -0.01729104 -0.0035853775
-0.104703404 0.10066909 0.16915843 0.0570701 0.13069431 0.2307522 0.0008142363 -0.12368824
0.049763493 -0.06377018 -0.20592661 -0.12577763 0.06796669 -0.015513822 -0.0417458 0.02173318
-1.3760376 0.050722122 -0.16989438 -0.04852215 0.002357177 -0.07089864 0.1816336 -0.08550437
-0.04296299 0.17228761 -0.1138839 -0.0063508344 -0.105168186 0.04364867 -0.017359536 -0.027196353
0.113087595 0.023524983 0.13463172 -0.016397359 0.013938565 -0.19927008 -0.028111273 0.19823168
0.06717784 0.10502905 0.07171225 -0.061082076 0.13641714 -0.0029769132 -0.05745551 0.01681383
-0.057778046 -0.3557765 -0.10576667 -0.21973643 -0.07085635 0.14835158 0.06575286 -0.07770449
0.11810632 0.009497154 -0.003501646 0.040980518 0.009657992 -0.27107927 0.09308151 -0.078654975
0.036953866 0.060831856 -0.13078313 -0.529123 -0.069737226 0.028214838 0.020114284 -0.2752452
-0.13306047 0.04496072 -0.16337892 0.06548072 -0.034989893 0.04555785 0.17822318 0.033779364
-0.3353302 -0.082722925 0.059534963 -0.0033529156 -0.13978636 0.060422804 -0.028759295 -0.124232754
-0.07335122 0.06854427 0.004238254 0.013233389 0.10376323 -0.030895589 -0.00532184 8.546327e-05
-0.19185108 -0.3966608 -0.17255071 0.038776737 0.13789226 -0.13435769 0.18430243 0.11517015
0.06794446 -0.06308285 -0.25206068 0.06970196 0.01114758 -0.057560332 0.04964098 0.026878405
0.027533548 0.045286667 0.03255175 0.010668916 0.03345426 -0.01516376 0.013336063 -0.05908856
-0.0489636 -0.10544919 -0.09706415 -0.04728318 0.04870377 0.039305083 0.12753344 0.066597864
-0.28551093 -0.21972229 -0.057920147 0.037913185 0.028757267 0.010752321 0.04961077 -0.15585048
-0.41386166 0.15028965 0.17493276 -0.118654564 -0.010994374 -0.02094904 0.053420465 0.081744224
0.18574405 0.061924957 -0.17465225 -0.076227024 0.11443954 0.041236546 0.17197391 0.08904836
-0.056656566 0.15952426 -0.07366069 0.04937944 0.08966393 0.021300973 -0.035290804 -0.049552705
0.20363836 0.008866147 0.1718279 -0.43841013 0.11633219 -0.10009349 -0.060189724 0.15836938
-6.268498e-05 0.14742097 0.028752223 0.015465786 -0.15060788 -0.12552433 -0.03465642 -0.07169403
00000000: 09a7 9bbc e110 0ebd 988f 15bd 3ac1 93bc
00000010: 8118 1bbe 2d04 313e c7a3 e1bc 51a7 8c3d
00000020: 08d9 59be f55d 98ba dcb1 1ebd 0ed8 ccbc
00000030: 0d73 f6bc 9ad1 1dbc 7bde 33be 473c 593d
00000040: bff5 613c c268 47be dcf6 84bd 72ea 0b3e
00000050: ca0a 54bd 4646 9a3d 6523 af3c 49f5 30bd
00000060: e51c 233d 9b14 80bd 109a 9bbd 4f54 863d
00000070: dc50 0ebe 6da5 7a3c 816c 543e 1454 053d
00000080: c75e 213e 20ab 35bd 32ce 84bd f29a 793b
00000090: eabe 0fbd de42 8b3d 988b 493c ca21 cdbd
000000a0: c81a 87bd 6357 c33b 6a09 5fbd dd9d 3dbe
000000b0: 00d8 033d 4c73 903b a8e6 b4bc 07b1 abbd
000000c0: 1fdd b63c ab3d 843d d4a2 a3be 9d78 943d
000000d0: a407 753d 6369 ffbd 5a01 e6bd c8b4 98bd
000000e0: 0c67 2c3d d0f9 34bd 8c42 2cbe a4cd 0c3e
000000f0: 9d37 603d aeb4 4bbd af24 303c 9665 a0bd
00000100: a22b 863d 42ca 3f3d ff91 12bd be1f 913d
00000110: 47da 263d 8820 cfbd ee9e a63d 97aa a03d
00000120: 2808 65bd b087 8a3d 37c8 d23b af17 a5bd
00000130: 44a3 8f3d e145 c3be f0a5 8dbc a7f8 6abb
00000140: bd6e d6bd 992b ce3d de37 2d3e 56c2 693d
00000150: bbd4 053e 4e4a 6c3e 7972 553a 4350 fdbd
00000160: ced4 4b3d f199 82bd 6dde 52be dacb 00be
00000170: 1f32 8b3d b02d 7ebc a5fd 2abd c809 b23c
00000180: 0022 b0bf 00c2 4f3d cbf8 2dbe 29bf 46bd
00000190: de7a 1a3b 4e33 91bd 29fe 393e ea1c afbd
000001a0: f6f9 2fbd 2a6c 303e f63b e9bd a91a d0bb
000001b0: 6b62 d7bd f3c8 323d 9635 8ebc e3ca debc
000001c0: 789a e73d 77b7 c03c e6dc 093e c153 86bc
000001d0: 945e 643c 750d 4cbe 9d49 e6bc 3ffd 4a3e
000001e0: 8994 893d 7819 d73d dfdd 923d 3331 7abd
000001f0: efb0 0b3e 5118 43bb 7856 6bbd 28bd 893c
00000200: aca8 6cbd 5628 b6be 329c d8bd 9602 61be
00000210: 221d 91bd 7ae9 173e 6fa9 863d 8823 9fbd
00000220: bae1 f13d f399 1b3c df7b 65bb 30db 273d
00000230: 8e3c 1e3c e7ca 8abe 85a1 be3d dc15 a1bd
00000240: f05c 173d d32a 793d 03ec 05be 9b74 07bf
00000250: 64d2 8ebd ce22 e73c b6c6 a43c f0ec 8cbe
00000260: 0141 08be bb28 383d ce4c 27be c11a 863d
00000270: 9051 0fbd de9a 3a3d 2380 363e 3b5c 0a3d
00000280: 66b0 abbe a36a a9bd efda 733d 97bc 5bbb
00000290: 2824 0fbe e77d 773d 9d98 ebbc be6d febd
000002a0: 2a39 96bd f060 8c3d 0de1 8a3b dbd0 583c
000002b0: d181 d43d bf18 fdbc d462 aebb be3a b338
000002c0: 9c74 44be 2017 cbbe 22b1 30be 5bd4 1e3d
000002d0: a133 0d3e 1095 09be c7b9 3c3e 54de eb3d
000002e0: 7726 8b3d 9531 81bd 190e 81be e7bf 8e3d
000002f0: 57a4 363c 62c4 6bbd 5754 4b3d 1a30 dc3c
00000300: 098e e13c 837e 393d fc54 053d adcc 2e3c
00000310: 5607 093d 6b71 78bc 817f 5a3c d906 72bd
00000320: 0e8e 48bd bff5 d7bd 92c9 c6bd 02ac 41bd
00000330: 9b7d 473d 5efe 203d 2098 023e 7664 883d
00000340: 7d2e 92be e1fe 60be ad3d 6dbd db4a 1b3d
00000350: 5c94 eb3c 812a 303c aa34 4b3d 4597 1fbe
00000360: ade5 d3be 88e5 193e 9321 333e 2a01 f3bd
00000370: bf21 34bc 529d abbc 6bcf 5a3d 8469 a73d
00000380: b033 3e3e 06a5 7d3d 0ad8 32be ea1c 9cbd
00000390: 475f ea3d a7e7 283d ee19 303e fd5e b63d
000003a0: b710 68bd 545a 233e 6adb 96bd 1842 4a3d
000003b0: b9a1 b73d 617f ae3c 178d 10bd c7f7 4abd
000003c0: 9386 503e 5143 113c a7f3 2f3e 4b77 e0be
000003d0: 923f ee3d d1fd ccbd 8089 76bd 952b 223e
000003e0: be75 83b8 86f5 163e c889 eb3c 3564 7d3c
000003f0: f438 1abe 7389 00be e4f3 0dbd 52d4 92bd

fc3.bias f4 [4]
-0.044045847 0.039755713 0.07330668 -0.07194391
00000000: 6b69 34bd e3d6 223d d021 963d 5457 93bd
