Martti/Graphs/MarttiWeights-2x2x5-b128-lr0.001000.pt (torch, 74583 bytes, 6 tensors)

fc1.weight f4 [128, 8]
0	0xbe654ad1	-0.22391821
1	0xbee4d18e	-0.44691128
2	0x3bb4053b	0.0054937876
3	0xbd23f1e3	-0.040025603
4	0xbe026859	-0.12735118
5	0x3e3f04d1	0.18654181
6	0xbe89d305	-0.26918808
7	0x3eed39dd	0.4633321
8	0xbe99b0c2	-0.30017668
9	0xbe364bdd	-0.17802377
10	0x3e48a467	0.19593965
11	0xbe736e0e	-0.23772451
12	0x3ec9b182	0.3939324
13	0x3db825f8	0.08991617
14	0xbe223f4c	-0.15844458
15	0x3e7535ef	0.23946355
16	0xbe8085f9	-0.25102213
17	0xbf5ffc4f	-0.8749437
18	0xbd4f8d09	-0.05067161
19	0x3e5300d8	0.2060579
20	0xbe201b04	-0.15635306
21	0x3ee1ca4f	0.44099662
22	0x3bf498bd	0.007464497
23	0xbc0aeb94	-0.008479018
24	0xbe30b8fb	-0.17258064
25	0xbdf9d36c	-0.12198529
26	0x3edfbf08	0.43700433
27	0x3da8f1df	0.08249258
28	0x3ea12ebb	0.31480965
29	0x3ed51926	0.4162075
30	0xbe85de65	-0.26146236
31	0xbe1ffffa	-0.15624991
32	0x3f29c593	0.663171
33	0x3e61602e	0.22009346
34	0x3f31fbbc	0.6952474
35	0x3e606c16	0.21916232
36	0xbe952977	-0.29133198
37	0xbcc59ca1	-0.024122538
38	0xbc1cbcbf	-0.009566485
39	0x3e985228	0.2975018
40	0xbe8d235d	-0.27566043
41	0x3d1fb968	0.038995177
42	0xbd448344	-0.047976747
43	0x3f0403f7	0.5156855
44	0x3ecad9c1	0.39619258
45	0xbe56aeb5	-0.20965083
46	0x3e7f7396	0.24946436
47	0xbca019aa	-0.019543488
48	0xbd5d7707	-0.05406859
49	0xbe8cc526	-0.27494162
50	0xbc107d7d	-0.008818981
51	0x3ea8f4c1	0.32999232
52	0x3dc0bed4	0.094113976
53	0x3e8970f6	0.26843995
54	0xbd93b3bb	-0.07212015
55	0x3e08bac6	0.13352498
56	0xbe43555d	-0.19075532
57	0xbd1311e4	-0.035905734
58	0x3e05a0ee	0.13049671
59	0xbe40e493	-0.18837194
60	0xbcecd88a	-0.028911848
61	0x3e14f74d	0.14547463
62	0xbd99048d	-0.07471571
63	0x3f07fde6	0.53121793
64	0xbe917555	-0.2840983
65	0x3dd73d62	0.10509755
66	0xbed7a27a	-0.42116147
67	0xbd9cc72f	-0.07655179
68	0xbe70b485	-0.23506363
69	0x3dc354c3	0.095376514
70	0x3f07bcaa	0.53022254
71	0xbdfd0092	-0.123536244
72	0x3e87153b	0.26383385
73	0xbf49c6f6	-0.78819215
74	0xbe8678cb	-0.26264033
75	0x3e01337b	0.12617294
76	0xbde6770f	-0.112531774
77	0x3ee76175	0.4519154
78	0xbe56b3eb	-0.20967071
79	0xbddad95d	-0.1068599
80	0x3f3b0ea0	0.7306919
81	0x3f350557	0.7071127
82	0xbd9663dc	-0.073432654
83	0x3e886e5d	0.266467
84	0xbed449fc	-0.41462696
85	0xbe263b5c	-0.16233581
86	0x3d34b888	0.044121295
87	0xbc420913	-0.011842984
88	0x3e82cb82	0.2554589
89	0xbf71f1ab	-0.9450938
90	0x3eab9e77	0.33519337
91	0x3e3ff499	0.1874565
92	0xbe2f9f94	-0.17150718
93	0x3e312fbb	0.17303364
94	0xbe0f4810	-0.13992333
95	0xbdbea39d	-0.093085505
96	0xbe25879c	-0.16165012
97	0xbec2e7ae	-0.38067383
98	0x3ec459df	0.38349816
99	0xbe6836c1	-0.22677137
100	0xbe4ba19f	-0.19885872
101	0x3ec04560	0.3755293
102	0xbc782ad9	-0.015146934
103	0x3e5eefb9	0.21771134
104	0x3e0936a7	0.13399754
105	0x3de0c664	0.1097534
106	0xbe944dd2	-0.28965622
107	0x3bd63c7b	0.0065379716
108	0x3db372f7	0.08762162
109	0x3e6ccc5c	0.23124832
110	0x3e892231	0.26783898
111	0xbe450c08	-0.19242871
112	0xbf8143e8	-1.0098848
113	0xbe4328f3	-0.1905859
114	0xbdf9399d	-0.12169192
115	0x3eaac9a7	0.33356974
116	0x3f1a1b4f	0.6019792
117	0xbea5ef95	-0.3240935
118	0xbede78f6	-0.4345166
119	0xbeabc7d0	-0.33550882
120	0x3e1357c7	0.14388953
121	0xbe0c2bab	-0.13688533
122	0xbe691069	-0.22760166
123	0xbe01138b	-0.12605111
124	0x3d07f901	0.033196453
125	0xbe19e016	-0.15026888
126	0xbe76d96d	-0.24106379
127	0x3ee620f9	0.4494703
128	0x3f2d917f	0.67800134
129	0x3f1abde9	0.6044603
130	0x3e23dd80	0.16002464
131	0x3f01e429	0.5073877
132	0xbd9c3b83	-0.076285385
133	0x3d28dda2	0.04122699
134	0xbe1d30b0	-0.15350604
135	0x3dca7fdc	0.098876685
136	0x3ef1278d	0.47100487
137	0xbe10584f	-0.14096187
138	0x3e9a0c2c	0.3008741
139	0xbed03a3d	-0.40669432
140	0xbdd80876	-0.10548489
141	0x3eaeba08	0.34126306
142	0x3b8293e4	0.003984915
143	0x3ea4596a	0.32099468
144	0xbf0a0e29	-0.53927857
145	0xbe57062d	-0.2099845
146	0x3dde3d7a	0.108515695
147	0xbda72b5c	-0.08162567
148	0x3e70c5cd	0.23512955
149	0x3dfb43ed	0.12268815
150	0x3e479ad1	0.19492652
151	0xbdd67e17	-0.104732685
152	0xbf0d594d	-0.5521439
153	0xbe51a5d5	-0.20473416
154	0x3e9f4ec6	0.31114787
155	0x3f0d7817	0.5526137
156	0x3e80ee49	0.25181797
157	0xbe5a8a76	-0.21341881
158	0x3c820f64	0.01587648
159	0x3de534fa	0.11191745
160	0x3e29f208	0.16596234
161	0x3d353f9b	0.044250112
162	0x3c113727	0.008863247
163	0xbf948da8	-1.160573
164	0xbe7dfdc2	-0.24803832
165	0xbe4addd9	-0.1981119
166	0xbe9275dc	-0.28605545
167	0x3f1a8a45	0.6036723
168	0x3f508964	0.8145964
169	0x3ede7a68	0.43452764
170	0x3f2185c7	0.63094753
171	0x3f03db2f	0.5150632
172	0xbe7c201e	-0.24621627
173	0xbe304b80	-0.17216301
174	0xbe92d764	-0.28679955
175	0xbe0951ae	-0.13410065
176	0xbe0135e4	-0.12618214
177	0xbeb98e68	-0.3624146
178	0x3d42c217	0.04754838
179	0x3d908016	0.070556805
180	0x3e4dfaa2	0.2011514
181	0x3e83f3f1	0.2577205
182	0xbd5246fd	-0.05133723
183	0xbec342c4	-0.38136876
184	0xbec3d637	-0.3824937
185	0xbf411081	-0.7541581
186	0x3d32f863	0.04369391
187	0xbcc9a30d	-0.024613881
188	0xbe53efa9	-0.20696892
189	0x3f118b74	0.56853414
190	0xbe9442f1	-0.28957322
191	0xbe66cf1c	-0.22539943
192	0x3ea9da72	0.33174473
193	0xbd937f14	-0.072019726
194	0xbdb74953	-0.08949532
195	0x3e1555d6	0.14583525
196	0x3cb3988a	0.021923322
197	0x3ea7cc36	0.32772988
198	0x3c9f063e	0.019412156
199	0xbe0667aa	-0.13125482
200	0x3d8986d5	0.0671517
201	0x3f2996f2	0.6624595
202	0x3f2322d2	0.63725007
203	0x3f274e4a	0.65353835
204	0xb903a92a	-0.00012556152
205	0xbde5d0b3	-0.11221447
206	0xbe91c651	-0.28471616
207	0xbead627c	-0.338642
208	0xbddcd022	-0.10781886
209	0x3dac4db5	0.08413259
210	0xbeb48272	-0.35255772
211	0x3e56c6b6	0.2097424
212	0x3ec6aea2	0.3880511
213	0xbe885cda	-0.2663334
214	0x3ed6ff80	0.41991806
215	0xbdbf994b	-0.0935541
216	0xbe61fd11	-0.22069193
217	0xbd78796b	-0.06066267
218	0x3e476a91	0.19474246
219	0xbe1b5cb2	-0.15172079
220	0x3e1d09aa	0.15335718
221	0x3e828fb8	0.25500274
222	0x3e4a5667	0.19759522
223	0x3deba337	0.1150574
224	0x3f26cf62	0.6516019
225	0x3ed74ad9	0.42049292
226	0x3e3e0552	0.18556717
227	0x3f32f6a1	0.69907576
228	0xbe5383c2	-0.2065573
229	0x3c34d3e9	0.011036851
230	0xbe647d59	-0.22313441
231	0xbe918c2c	-0.28427255
232	0xbea8f2a9	-0.32997635
233	0xbde14b1f	-0.11000656
234	0x3e36cbc9	0.17851175
235	0xbdf685ad	-0.120372154
236	0xbdac4ab6	-0.084126875
237	0xbe6c3e58	-0.23070657
238	0xbe18a830	-0.14907908
239	0xbdc514cc	-0.09623107
240	0xbe526cd8	-0.20549333
241	0xbd4853b4	-0.04890795
242	0xbe27cf5c	-0.16387695
243	0xbe60e293	-0.21961431
244	0xbe2ba9fe	-0.16764066
245	0x3eb9e991	0.3631101
246	0xbd994fa8	-0.07485896
247	0x3e814338	0.25246596
248	0xbdc98a95	-0.098408855
249	0xbe648ac9	-0.22318567
250	0x3e794563	0.24342875
251	0xbf149cb3	-0.58051604
252	0x3e7960dc	0.24353355
253	0xbe52a843	-0.20571999
254	0x3dd54ffd	0.10415647
255	0x3ed14c24	0.40878403

fc1.bias f4 [128]
0	0x3e65197e	0.22373006
1	0x3e990e71	0.2989383
2	0x3e76541d	0.24055524
3	0xbe6c2d49	-0.2306415
4	0x3f2372e7	0.638472
5	0xbd1596e1	-0.036520842
6	0xbdf8656e	-0.12128721
7	0x3e723987	0.23654757
8	0xbe2246cd	-0.15847321
9	0xbd40fb08	-0.047114402
10	0x3f296710	0.66172886
11	0xbdac541d	-0.08414481
12	0x3d4efadf	0.050532218
13	0xbdb0a182	-0.08624555
14	0x3ebe37b3	0.3715187
15	0xbea6dd8d	-0.32590905
16	0x3eadd7bf	0.33953664
17	0xbe56c756	-0.20974478
18	0xbe489a06	-0.19590005
19	0x3b5efee1	0.0034026431
20	0x3e7fae0e	0.2496874
21	0x3eb4a6e2	0.3528357
22	0xbe80a78a	-0.25127822
23	0xbdb7ff72	-0.08984269
24	0xbea2390f	-0.31684157
25	0x3f38a42a	0.72125494
26	0x3e36be75	0.17846091
27	0x3e641910	0.22275186
28	0x3f5d4467	0.864325
29	0xbe6128ed	-0.21988268
30	0xbd49ce4c	-0.049269006
31	0xbee8da3e	-0.45479006
32	0x3da8d0c5	0.08242945
33	0xbe09ded5	-0.1346391
34	0x3f26c225	0.6513999
35	0xbe53f7e1	-0.20700027
36	0xbe5022f8	-0.2032584
37	0xbd8daf5f	-0.06918215
38	0xbee46229	-0.4460614
39	0x3f32b79e	0.6981143
40	0x3f3748f4	0.7159569
41	0x3e512f4a	0.20428196
42	0xbeae3afb	-0.34029374
43	0x3ede3675	0.43400922
44	0x3ed27ea4	0.41112244
45	0x3f33864a	0.70126784
46	0xbdfcbbdf	-0.12340521
47	0x3efb1d9d	0.4904603
48	0xbececba7	-0.4038975
49	0xbe968ca8	-0.29404187
50	0x3f23eeb5	0.64036113
51	0x3ed5458a	0.41654617
52	0xbe6fad58	-0.23405969
53	0x3f27282d	0.6529568
54	0xbd46759f	-0.048452016
55	0x3e568a5a	0.20951214
56	0xbec591e6	-0.38587874
57	0x3ee053ea	0.4381402
58	0xbe08df48	-0.13366425
59	0x3f4bd043	0.7961466
60	0xbe8d4b04	-0.27596295
61	0xbdfe0dd9	-0.12404985
62	0x3f244f80	0.6418381
63	0xbcea13dc	-0.028573923
64	0xbec90e56	-0.3926875
65	0xbe046034	-0.12927324
66	0x3dba849f	0.09107327
67	0xbd497a5f	-0.049188968
68	0x3eaa391a	0.3324669
69	0xbe568bfb	-0.20951836
70	0x3f145ed8	0.5795722
71	0x3eb02fc8	0.34411454
72	0x3f344704	0.7042086
73	0xbe7733f0	-0.24140906
74	0x3f16a70c	0.58848643
75	0x3f584207	0.8447575
76	0xbea6dad8	-0.3258884
77	0x3f4095ee	0.75228775
78	0xbcf6d193	-0.03012923
79	0xbe5d05c9	-0.21584238
80	0xbe115f04	-0.14196402
81	0xbdaee035	-0.08538858
82	0x3ee588ec	0.44831026
83	0x3e6f5c46	0.23375043
84	0x3d98f1fb	0.07468029
85	0x3ef45a46	0.47725123
86	0x3e975c8c	0.29562795
87	0xbded5731	-0.11588896
88	0x3f678baa	0.90447485
89	0x3f1f5668	0.6224122
90	0xbe1972df	-0.14985226
91	0x3dde3aa5	0.10851029
92	0x3f1f199d	0.6214846
93	0x3f481b08	0.78166246
94	0xbebaa892	-0.36456734
95	0x3ed6a6c1	0.41924098
96	0xbe5c6e70	-0.21526504
97	0xbeb1da86	-0.34737033
98	0xbe20bda6	-0.15697345
99	0x3f550f6c	0.83226657
100	0x3e751cce	0.2393677
101	0x3ed791a8	0.42103314
102	0x3e90c068	0.28271794
103	0x3e884eb5	0.2662255
104	0x3e5dd0fc	0.21661752
105	0x3e8416fe	0.25798792
106	0xbeb21365	-0.34780422
107	0x3f4644d6	0.77448785
108	0x3de8b51d	0.113626696
109	0xbe8571d3	-0.26063403
110	0xbd812b39	-0.06307072
111	0x3e64e31c	0.2235226
112	0xbe96fdf4	-0.29490626
113	0x3e32070d	0.17385502
114	0x3f16949f	0.5882053
115	0xbe56d77e	-0.20980641
116	0x3e439fc1	0.1910391
117	0x3dab1fdd	0.08355687
118	0x3ed1cbd5	0.40975824
119	0x3eb27422	0.34854227
120	0xbe25d5e6	-0.16194877
121	0xbe9832de	-0.2972631
122	0xbe6bdf52	-0.23034409
123	0x3c243ba8	0.010023989
124	0x3e5b7ece	0.21435091
125	0x3f2a23fe	0.6646117
126	0x3eae1ecc	0.3400787
127	0xbd3986ec	-0.045294687

fc2.weight f4 [128, 128]
0	0x3d67049f	0.05640089
1	0x3d06aed2	0.032881565
2	0x3e562395	0.20912011
3	0x3dd4c890	0.10389817
4	0xbda304d3	-0.079599045
5	0xbd737638	-0.059438914
6	0xbd9a77e2	-0.07542397
7	0xbdefe226	-0.11713056
8	0x3ee323fb	0.44363388
9	0x3c29590e	0.010336174
10	0x3db43973	0.0880002
11	0xbc9c0aa6	-0.019048046
12	0xbdc22ee8	-0.09481603
13	0x3dba1943	0.090868495
14	0xbd3d8dec	-0.046277925
15	0x3ed0474d	0.40679398
16	0xbcf96f86	-0.030448686
17	0xbdacab83	-0.08431151
18	0x3d3c2de1	0.04594219
19	0xbdc817ec	-0.09770188
20	0x3f08a133	0.5337097
21	0xbecb293c	-0.39679897
22	0x3bdfe0e3	0.0068322285
23	0xbd051d23	-0.03249849
24	0x3e00e58a	0.12587562
25	0xbf0422da	-0.5161568
26	0x3d60c23b	0.054872733
27	0xbb6fa470	-0.0036566518
28	0xbeb7498f	-0.35798308
29	0x3d81d67e	0.06339739
30	0xbd6e69bc	-0.058206305
31	0x3a873e71	0.0010318292
32	0xbe53c105	-0.206791
33	0x3e5c2a89	0.21500601
34	0x3e2522c2	0.1612654
35	0x3f055d7d	0.52095777
36	0x3c40de21	0.01177171
37	0xbcb70bf6	-0.02234457
38	0x3e12088f	0.14261077
39	0xbd721e69	-0.059111033
40	0xbdc912cc	-0.09818038
41	0xbd9d9eb4	-0.07696286
42	0x3d8dbee9	0.06921179
43	0xbc956a70	-0.01823923
44	0xbe45fd40	-0.19334888
45	0xbe28228c	-0.16419429
46	0x3da5005d	0.0805671
47	0x3d4046c6	0.046942495
48	0x3e9d34ec	0.3070444
49	0xbbaed9b7	-0.005336012
50	0xbe50414e	-0.20337412
51	0xbd84e2cc	-0.064885706
52	0xbdacf311	-0.08444799
53	0x3d8ffc91	0.07030595
54	0xbcb0122b	-0.021493038
55	0xbd17dd44	-0.03707625
56	0xbc5e2f30	-0.013561055
57	0xbe55864f	-0.20852016
58	0xbddc34db	-0.10752269
59	0xbd859af7	-0.06523698
60	0xbb96a5f8	-0.0045974217
61	0x3f422996	0.75844705
62	0x3d344fee	0.04402154
63	0x3cac62ca	0.0210432
64	0xbc2b5564	-0.01045737
65	0x3cd43221	0.02590281
66	0x3d454f1f	0.04817116
67	0xbcaff3a7	-0.021478487
68	0x3d518639	0.051153395
69	0x3def3004	0.1167908
70	0x3dc05bab	0.09392484
71	0xbba51380	-0.005037725
72	0xbf18492d	-0.5948666
73	0xbc99d2ae	-0.018777218
74	0x3e152144	0.14563471
75	0xbceef349	-0.029168742
76	0x3c45ae2c	0.012065452
77	0x3e46f2c3	0.19428544
78	0x3c78e6e1	0.015191765
79	0x3d983b97	0.07433241
80	0xbca29b6c	-0.019849502
81	0x3eadd3e1	0.33950713
82	0xbe4ebab6	-0.20188412
83	0x3da4b31e	0.080419764
84	0xbe012ab3	-0.12613945
85	0xbdf3fcfb	-0.119134866
86	0x3dbf1de1	0.09331871
87	0x3e07a268	0.13245547
88	0x3d77561d	0.06038486
89	0x3e3bdb13	0.18345289
90	0x3b092bab	0.002093057
91	0x3d85d56c	0.065348476
92	0xbd687b55	-0.056758244
93	0xbdf5443c	-0.11975905
94	0x3d7a1632	0.061056323
95	0xbe312d2e	-0.17302391
96	0x3d16b732	0.036795802
97	0x3d304016	0.043029867
98	0x3d68c1e1	0.056825522
99	0xbe95bc4c	-0.29245222
100	0x3caa31ce	0.020775702
101	0x3d560136	0.05224725
102	0xbea983b9	-0.3310831
103	0xbd76f7b8	-0.060294837
104	0xbbc803bc	-0.006103961
105	0xbd940c03	-0.072288536
106	0xbdb6bf97	-0.089232616
107	0xbf5775e7	-0.8416428
108	0x3f802885	1.0012366
109	0xbda6ccb1	-0.081445105
110	0x3e124045	0.1428233
111	0x3ec5b89b	0.38617405
112	0x3ee22363	0.44167623
113	0xbdb35d49	-0.08758027
114	0xbe63dc58	-0.22252023
115	0xbcec4206	-0.028840076
116	0xbe4e6ac9	-0.20157923
117	0xbc8ba917	-0.017048402
118	0x3c6aabf3	0.014323222
119	0xbc411e81	-0.011787058
120	0xbd8fc580	-0.07020092
121	0x3d04aad8	0.03238949
122	0x3ddf6cd5	0.1090943
123	0x3d1d6ea0	0.03843558
124	0x3ded7889	0.11595256
125	0xbe5131f7	-0.20429216
126	0x3d48e667	0.049047854
127	0x3d275324	0.040850773
128	0x3d5c9052	0.053848572
129	0xbd9930a6	-0.07479982
130	0xbd60eddf	-0.05491435
131	0xbd58abd2	-0.052898236
132	0x3d4dd6ba	0.050253607
133	0xbdbe5885	-0.092942275
134	0xbdb1829a	-0.086674884
135	0xbd44942f	-0.04799288
136	0xb942a9ea	-0.0001856458
137	0x3c8ecaec	0.017430745
138	0x3d292a14	0.041299894
139	0x3d64b19d	0.055833448
140	0x3d84c241	0.064823635
141	0xbd713588	-0.058888942
142	0x3dab4c41	0.08364154
143	0xbcfcfd9c	-0.03088265
144	0xbd53d174	-0.051713422
145	0xbc387733	-0.011258888
146	0xbd9eca55	-0.077534355
147	0xbd8df010	-0.06930554
148	0xbd322ab2	-0.04349775
149	0x3c0c9dca	0.008582542
150	0x3d46cc7f	0.048534866
151	0x3d41f56a	0.047353186
152	0xbd19638a	-0.037448443
153	0x3d59be58	0.05316004
154	0x3bf95328	0.00760879
155	0x3d9ad447	0.0756002
156	0xbc9cc90a	-0.019138832
157	0x3d5118fa	0.05104921
158	0xbc2cd516	-0.0105488505
159	0xbd0a6a67	-0.03379288
160	0x3d46da05	0.048547763
161	0xbcbdf8c3	-0.023189908
162	0xbd90e534	-0.07074967
163	0xbd261d98	-0.040555567
164	0x3d1579e7	0.03649321
165	0xbd90e274	-0.070744425
166	0x3d36465d	0.044500697
167	0xbd8bbaaf	-0.068227164
168	0xbccc44e3	-0.024935191
169	0xbcd49ff8	-0.025955185
170	0x3d8e4c45	0.06948141
171	0x3d56f44f	0.052479085
172	0xbd1e4663	-0.038641345
173	0xbd5a9731	-0.053366844
174	0xbd5b8eef	-0.05360311
175	0xbcc976bf	-0.024592755
176	0xbc0298a6	-0.007970965
177	0x3d0e997e	0.03481435
178	0x3d7d6120	0.061860204
179	0x3d9e5e55	0.07732836
180	0x3bc0abca	0.005879854
181	0xbd48405a	-0.048889495
182	0xbb501b04	-0.0031754384
183	0xbd81988c	-0.06327924
184	0x3d1dfe7f	0.038572785
185	0xbceab436	-0.028650384
186	0xbdc3aa8a	-0.09554012
187	0x39f4ae59	0.00046669206
188	0x3c996ccc	0.018728636
189	0x3d8cc59f	0.06873631
190	0x3d747a5e	0.05968701
191	0x3d872d60	0.066004515
192	0x3d195585	0.037435073
193	0xbce97fa5	-0.028503248
194	0x3b8974ba	0.004194823
195	0xbba40225	-0.0050051385
196	0xbd5c40a0	-0.05377257
197	0xbda0a104	-0.07843211
198	0xbd90583c	-0.07048079
199	0xbd21fb02	-0.03954602
200	0x3da40277	0.08008283
201	0xbd630ec4	-0.055434003
202	0x3d94e3e8	0.07270032
203	0x3cc84a75	0.024449566
204	0x3b85c216	0.0040819747
205	0x3d21bb8f	0.03948551
206	0x3d27e266	0.040987395
207	0x3da43023	0.08016994
208	0x3d99ade7	0.07503872
209	0x3d9c7f1a	0.0764143
210	0xbdae8cfd	-0.08522985
211	0x3cc8a05e	0.024490532
212	0xbd2038d2	-0.039116688
213	0xbdb498f9	-0.0881824
214	0xbd1700f3	-0.03686614
215	0x3c9c1579	0.019053208
216	0xbdb35230	-0.087559104
217	0x3cafd0fa	0.021461952
218	0xb9e8fa56	-0.00044437003
219	0x3cab3ddc	0.02090352
220	0x3c77d2a3	0.015125903
221	0xbcaf5f47	-0.021407736
222	0xbbfeae43	-0.0077722385
223	0xbd35ee5f	-0.04441678
224	0xbd37cebd	-0.044874895
225	0xbb2ea0e2	-0.0026646187
226	0x3c1999fd	0.009375093
227	0x3d8e9709	0.069624014
228	0x3d9e36f1	0.07725323
229	0xbdb48ce6	-0.08815937
230	0xbc9b86f9	-0.018985258
231	0xbd282a4d	-0.041055966
232	0xbd8fa702	-0.07014276
233	0xbd0f3c9a	-0.034969904
234	0x3d31271f	0.0432502
235	0x3d50e890	0.05100304
236	0x3d683e98	0.05670032
237	0x3d64ae06	0.055830024
238	0x3c25cd1a	0.010119701
239	0x3d4cf55e	0.050038688
240	0xbc2aff2f	-0.010436817
241	0xbd7419b6	-0.059594832
242	0xbce4e486	-0.027941
243	0xbd92dee2	-0.07171418
244	0x3d8de1d8	0.06927842
245	0x3c556b2e	0.013026042
246	0xbd5a47be	-0.053291075
247	0xbd858e85	-0.06521324
248	0x3d911f58	0.070860565
249	0x3c1b458c	0.0094770305
250	0x3d7b8edd	0.061415542
251	0x3da1403f	0.07873582
252	0x3a538087	0.00080681633
253	0x3d5939ac	0.053033516
254	0xbcdfba22	-0.027310435
255	0x3d7d7ed2	0.061888523

fc2.bias f4 [128]
0	0xbd7a9dc1	-0.061185602
1	0xbd4fca27	-0.050729897
2	0xbd7a01fe	-0.061037056
3	0x3c79d74e	0.015249087
4	0xbdb1a955	-0.08674876
5	0xbd928072	-0.07153405
6	0x3d46c746	0.048529886
7	0xbd93de9c	-0.07220194
8	0xbdac63fc	-0.08417508
9	0xbcd52736	-0.026019674
10	0xbd368e93	-0.044569563
11	0xbb79aacd	-0.003809619
12	0xbd13cc3f	-0.036083456
13	0xbd9f3045	-0.077728786
14	0x3c8a06fe	0.016849037
15	0x3c24497a	0.010027284
16	0xbdae4b39	-0.08510441
17	0xbbf7dbd1	-0.007564046
18	0x3e6a5ff3	0.22888164
19	0xbd55bcb8	-0.05218193
20	0xbd4bc256	-0.04974588
21	0xbd87bd3c	-0.066278905
22	0x3e67719a	0.2260193
23	0x3e609234	0.21930772
24	0xbd9cc751	-0.07655204
25	0xbd9eb613	-0.07749572
26	0x3d7dffb1	0.062011424
27	0xbc19182c	-0.009344142
28	0x3d4d7338	0.05015871
29	0xbc124e91	-0.0089298645
30	0x3d9fbe5c	0.0779998
31	0xbbd4bd52	-0.0064922953
32	0x3e95ed7f	0.29282758
33	0xbda4af94	-0.08041301
34	0xbda6a0fa	-0.081361726
35	0x3d0fbb31	0.03509063
36	0x3d2b53a3	0.04182781
37	0x3cc9c4dc	0.024630003
38	0x3d830219	0.063968845
39	0x3e03d671	0.12874772
40	0x3e52a8a4	0.20572144
41	0x3c87536d	0.016519273
42	0x3caf0065	0.021362493
43	0x3e5bd32f	0.21467279
44	0x3dba89b0	0.09108293
45	0x3d57d4c0	0.05269313
46	0x3d974272	0.0738572
47	0x3dde00a2	0.108399644
48	0xbc7611aa	-0.01501886
49	0x3c9253f0	0.01786229
50	0xbc534353	-0.012894469
51	0xbcfc16ef	-0.030772654
52	0x3e0f881e	0.14016768
53	0xbd43c65a	-0.047796585
54	0x3d3481bd	0.04406904
55	0x3dec5807	0.115402274
56	0x3d62c11f	0.055359956
57	0xbdb13ffb	-0.086547814
58	0xbcbdb73e	-0.023158666
59	0x3b836b45	0.0040105903
60	0xbd4134ae	-0.04716938
61	0xbd72b15a	-0.059251167
62	0xbd7658ea	-0.06014339
63	0xbd7845a4	-0.06061329
64	0x3d86477a	0.06556602
65	0x3d35f9dd	0.04442774
66	0x3dac3a44	0.08409551
67	0xbd97542b	-0.07389101
68	0x3d37900e	0.044815116
69	0x3e8634cd	0.2621216
70	0x3c532e2a	0.012889424
71	0x3cc57c78	0.024107203
72	0x3e18d07d	0.14923282
73	0xbd00550a	-0.0313311
74	0x3da4e577	0.080515794
75	0xbb48dd27	-0.0030649395
76	0x3e0b66af	0.1361339
77	0x3c9eceaf	0.019385664
78	0xbd909d0a	-0.07061203
79	0xbdab502c	-0.08364901
80	0xbd943fea	-0.07238753
81	0xbd941ca1	-0.07232023
82	0xbd7a7b98	-0.061153024
83	0x3dc97ba1	0.098380335
84	0x3cff858a	0.031191606
85	0x3bf49856	0.007464449
86	0x3d1addf6	0.037809335
87	0xbd128ad2	-0.03577692
88	0x3db31b5f	0.08745455
89	0xbdabfb46	-0.08397536
90	0x3d1d277e	0.03836774
91	0x3b58a01e	0.0033054422
92	0x3daf6e97	0.08566015
93	0x3d133cce	0.03594666
94	0x3d273d5b	0.040829998
95	0xbc3a9a6b	-0.011389355
96	0xbcafc0c9	-0.021454232
97	0x3e80763c	0.25090206
98	0x3dbdc4b8	0.09266037
99	0x3c7837c9	0.015150019
100	0xbdb91ffc	-0.09039304
101	0x3ccd6b4c	0.025075577
102	0xbcd9ce9c	-0.026587777
103	0x3e1a5bc1	0.15074064
104	0x3db9a7b4	0.0906519
105	0xbc6eac4f	-0.014567449
106	0xbd583d83	-0.052793037
107	0x3dc850b3	0.09781017
108	0x3cc9f70d	0.024653936
109	0x3db2cdb2	0.087306395
110	0x3e8b1ea4	0.27171814
111	0x3e700304	0.2343865
112	0xbd23729f	-0.039904233
113	0xbcfd5fe0	-0.030929506
114	0x3c0d636a	0.008629659
115	0x3d5f9739	0.054587577
116	0xbd473ab2	-0.04863996
117	0x3e034541	0.12819387
118	0x3c0a0c84	0.0084258355
119	0x3bd7b6c9	0.006583069
120	0x3d385971	0.045007173
121	0xbc483a95	-0.012220998
122	0xbd3fcb1d	-0.046824563
123	0xbd721509	-0.059102092
124	0xbd7f25db	-0.06229196
125	0x3cbebb89	0.023282783
126	0xbdaa7a24	-0.08324078
127	0x3c144152	0.009048777

fc3.weight f4 [4, 128]
0	0x3e7f06dd	0.24904962
1	0xbc9c5efa	-0.019088257
2	0xbc49ac82	-0.0123091955
3	0x3ec14653	0.37748966
4	0xbd729e77	-0.059233155
5	0xbda6cf43	-0.08145001
6	0x3dcc9207	0.0998879
7	0x3ad23d25	0.0016039951
8	0xbbcb1d63	-0.0061985715
9	0x3c642cb3	0.013926673
10	0xbdd00e9b	-0.10159036
11	0x3d1ba7b8	0.038001746
12	0xbda09268	-0.07840425
13	0xbd900852	-0.07032837
14	0x3df27040	0.11837816
15	0xbda1e08d	-0.07904158
16	0x3e0306ac	0.12795514
17	0x3d786e53	0.06065209
18	0x3e437d61	0.19090797
19	0x3daafaa2	0.08348586
20	0x3da353d9	0.07974977
21	0xbb335501	-0.0027363899
22	0x3e908718	0.28228068
23	0x3de81600	0.11332321
24	0xbb707583	-0.0036691136
25	0xbd162475	-0.036655862
26	0x3dac6d1d	0.08419249
27	0x3dbdd296	0.09268682
28	0xbd83ef83	-0.064421676
29	0xbdb0b1e5	-0.08627681
30	0x3c2a8223	0.010407004
31	0xbdb3ae14	-0.08773437
32	0x3e34acbe	0.17644021
33	0x3d5dd2a1	0.05415595
34	0xbdbeecb0	-0.09322488
35	0x3c1ceaf5	0.0095775025
36	0x3d665e82	0.056242473
37	0xbb992275	-0.004673297
38	0x3de486c3	0.11158516
39	0x3d7cef08	0.061751395
40	0x3e456958	0.19278467
41	0xbd1b9190	-0.037980616
42	0xbd758ce4	-0.059948817
43	0x3e2ff796	0.1718429
44	0xbf47f5aa	-0.7810923
45	0x3ce051e4	0.027382798
46	0xbc48f05e	-0.012264339
47	0x3e3aac16	0.18229708
48	0xbdb8e214	-0.09027496
49	0x3d5905a7	0.052983906
50	0x3e2fd30f	0.17170356
51	0xbdd1d234	-0.10245171
52	0x3dcc017c	0.099612206
53	0x3d389896	0.045067392
54	0xbcdbe130	-0.026840776
55	0x3e5790bd	0.21051307
56	0x3eb37251	0.35048154
57	0xbbd5e9f5	-0.006528134
58	0xbd899589	-0.06717975
59	0xbda6e01c	-0.08148214
60	0x3c1ad857	0.0094509935
61	0x3d8391da	0.06424303
62	0x3d8ef843	0.06980946
63	0xbccc3de8	-0.024931863
64	0xbd1905c8	-0.03735903
65	0x3e486d59	0.19572963
66	0xbd9fbf6e	-0.07800184
67	0xbdcf8571	-0.10132874
68	0xbd5c22f7	-0.053744283
69	0x3e25cb7d	0.16190906
70	0x3e7838c9	0.24240412
71	0x3e37b7bb	0.17941181
72	0x3d85f6f2	0.06541242
73	0x3d3674c9	0.04454497
74	0xbf41c130	-0.75685406
75	0xbbfdebb1	-0.007749044
76	0x3e537ca7	0.2065302
77	0xbeb20a65	-0.34773555
78	0x3c9f9b0a	0.019483108
79	0xbd05fded	-0.032712866
80	0xbdd6826b	-0.10474094
81	0xbd93b0e0	-0.072114706
82	0x3c96c867	0.018406106
83	0x3e34e0f7	0.17663942
84	0xbd976825	-0.07392911
85	0x3d4e0386	0.05029633
86	0xbd23ded3	-0.040007424
87	0xbdcfa898	-0.101395786
88	0x3ded2217	0.11578768
89	0x3d5233b9	0.051318858
90	0xbdb68e7a	-0.08913894
91	0xbc76ea4c	-0.015070509
92	0x3c9876cb	0.018611332
93	0xbdc2887d	-0.09498689
94	0xbc799409	-0.015233048
95	0xbd4a6afc	-0.049418435
96	0xbd9885ee	-0.0744742
97	0x3e419a78	0.18906581
98	0xbf40b821	-0.7528096
99	0xbe7885b9	-0.24269761
100	0x3c556674	0.013024915
101	0xbdf35761	-0.118819006
102	0x3d6fae22	0.058515675
103	0x3e258d52	0.1616719
104	0x3e485855	0.19564946
105	0xbdd34714	-0.103162915
106	0x3d0960b2	0.03353948
107	0x3d037047	0.032089498
108	0xbd84018a	-0.06445606
109	0x3eb897e2	0.36053377
110	0x3e27aa74	0.16373616
111	0x3e56f6e6	0.20992622
112	0x3d234193	0.03985746
113	0x3997abee	0.00028929062
114	0x3ea2b2ee	0.31777138
115	0x3e4f679f	0.20254372
116	0xbdba4236	-0.0909466
117	0x3dcebe4e	0.100948915
118	0xbdbec03d	-0.0931401
119	0x3d203ec6	0.039122365
120	0x3c95719d	0.018242652
121	0xbde71392	-0.112830296
122	0xbd955cf2	-0.072931185
123	0xbd94c6d6	-0.072644874
124	0xbab134e9	-0.0013519797
125	0xbd3c326a	-0.045946516
126	0xbe1d7ecc	-0.153804
127	0xbd901273	-0.07034769
128	0x3e8060b7	0.25073788
129	0x3d10790e	0.035271697
130	0xbd17ebd6	-0.037090145
131	0xbf581096	-0.8440031
132	0x3d9a5119	0.075349994
133	0xbd6a202a	-0.05715958
134	0xbdb6a43d	-0.08918045
135	0x3da07d4d	0.07836399
136	0xbd0db30e	-0.034594588
137	0xbd021a6e	-0.031763487
138	0xbdf31983	-0.118701
139	0x3d034957	0.032052364
140	0xbd9f2523	-0.07770755
141	0xbc813a19	-0.015774773
142	0xbe8c0bda	-0.27352792
143	0xbddabea2	-0.106808916
144	0x3d9e0232	0.077152625
145	0xbe19ae54	-0.15007907
146	0x3e41cbf6	0.18925461
147	0x3d8b299e	0.06795047
148	0xbd12a35b	-0.03580032
149	0xbc3c7176	-0.011501661
150	0x3e437360	0.19086981
151	0x3e59d9d3	0.212745
152	0x3d2bc9b2	0.0419404
153	0xbd243f53	-0.040099453
154	0xbd63c2b3	-0.0556056
155	0x3cafeb1f	0.02147442
156	0x3d13da24	0.036096707
157	0xbdca4354	-0.09876123
158	0x3d185128	0.03718677
159	0xbdf99f1b	-0.1218855
160	0x3e0aec2b	0.13566653
161	0xbbe2975a	-0.006915015
162	0xbe120d4c	-0.14262885
163	0x3c2d93ea	0.0105943475
164	0x3d3ca0cb	0.04605178
165	0xbde91d1b	-0.113825046
166	0xbd919fcc	-0.07110557
167	0xbaf99eaf	-0.0019044484
168	0x3e18a153	0.1490529
169	0x3db919bf	0.09038114
170	0xbd3f4215	-0.04669388
171	0x3e3dffd8	0.18554628
172	0x3eb95106	0.36194628
173	0x3caa1c16	0.020765346
174	0xbdf6d8bf	-0.1205306
175	0x3d766dc8	0.06016329
176	0x3d3488c6	0.04407575
177	0xbded8c5b	-0.11599036
178	0x3d764c50	0.06013137
179	0xbdbede53	-0.09319749
180	0x3e2ca2a9	0.16858925
181	0xbc35c150	-0.011093453
182	0xbcfe986c	-0.03107854
183	0x3e328fc4	0.17437655
184	0x3eac9127	0.33704492
185	0x3d8ca0a3	0.068665765
186	0x3dc18385	0.094489135
187	0xbde1fea4	-0.11034897
188	0xbc746c27	-0.014918364
189	0x3cca9d0d	0.02473309
190	0xbc0279a3	-0.007963571
191	0x3e0c2e30	0.13689494
192	0xbdbf6aca	-0.0934654
193	0x3e3c4bab	0.1838824
194	0x3c00302a	0.007823983
195	0xbd977428	-0.07395202
196	0x3ced63b2	0.028978202
197	0x3e6405a3	0.22267775
198	0xbf136ef1	-0.5759116
199	0x3e743b85	0.2385083
200	0x3df8e7b6	0.1215357
201	0x3dae5930	0.08513105
202	0x3ea12fe7	0.3148186
203	0xbc9f850a	-0.019472618
204	0x3e5c09e5	0.2148815
205	0xbd61cbcd	-0.055126
206	0x3c286e79	0.010280245
207	0xbc4c12a7	-0.012455619
208	0x3cdc31d1	0.026879223
209	0x3db0f435	0.08640329
210	0x3dec562c	0.115398735
211	0x3e3dc1a1	0.18530895
212	0xbad8da32	-0.001654452
213	0x3cdabf8b	0.026702663
214	0xbb81f211	-0.003965624
215	0xbdba912c	-0.091097206
216	0x3d4297e6	0.047508143
217	0x3d1e8de1	0.038709525
218	0xbdea50b0	-0.11441171
219	0xbc8aafcb	-0.016929528
220	0xbe11fcd8	-0.14256608
221	0xbd0a1ac5	-0.033716936
222	0xbd92e5c4	-0.071727306
223	0xbd810f17	-0.06301706
224	0x3dacbff2	0.08435048
225	0x3e07362a	0.13204256
226	0x3e85ae1c	0.26109397
227	0xbcccb27a	-0.024987448
228	0x3da8467e	0.0821657
229	0xbdcbaba6	-0.09944849
230	0x3cac340a	0.021020908
231	0x3e0f0859	0.13968028
232	0x3e1b63c7	0.15174781
233	0x3d38d29c	0.045122728
234	0xbd76b6ca	-0.060232915
235	0x3e55672b	0.20840137
236	0xbb87ff33	-0.004150295
237	0xbf2ed70b	-0.6829688
238	0x3e7b5c14	0.24546844
239	0x3e275c11	0.16343714
240	0x3ceb6b9e	0.02873784
241	0xbe2b8e9c	-0.1675362
242	0xbea1ef09	-0.31627682
243	0xbede5167	-0.4342148
244	0xbbc25fb9	-0.005931821
245	0x3ddfcd2a	0.10927804
246	0x3d004ef4	0.031325296
247	0xbd96b1fb	-0.07358166
248	0x3d04fb58	0.032466263
249	0xbdc3199f	-0.09526371
250	0x3ba911c5	0.005159589
251	0xbd00b24a	-0.03142003
252	0xbe1674d5	-0.14693005
253	0x3d966067	0.07342606
254	0x3d0748b9	0.033028338
255	0xbdc89083	-0.097931884

fc3.bias f4 [4]
0	0x3bb9774c	0.0056599732
1	0x3dc1dbfa	0.09465785
2	0xbccdaea5	-0.025107691
3	0x3d0b015e	0.03393685
