Martti/Graphs/MarttiWeights-5x5x1-b128-lr0.001000.pt (torch, 106903 bytes, 6 tensors)

fc1.weight f4 [128, 50]
00000000: 0f47 d73c e221 0ebf b5f9 243e e192 33bd
00000010: 466e 513e d877 7fbe 54e2 09bf 3514 943e
00000020: 52e9 3d3d 74ca 823d 95d9 08be d57d 5a3e
00000030: 0fc9 453e d22d dc3d 86e9 c53d 726a bb3d
00000040: d414 043f 098b bc3c f134 903e 3e3c bcbc
00000050: a58e 2e3e 0f0b 683e 0693 6a3e 1e53 eb3d
00000060: d54d 773e d77d 003e 7480 1b3f 5ee8 5cbf
00000070: fd79 973f 9343 c5be adb2 8d3f 9f14 8b3f
00000080: a676 35bf 079b ba3e d598 3abf 27f2 e23e
00000090: 2677 58be 66ab d1bb d00b 01bf c202 36bd
000000a0: c042 ea3d a225 37bf 1739 d8be 6f83 6cbf
000000b0: 19f4 c0bd d6b0 24bf aa68 2abd 3bc0 11bf
000000c0: a877 35bf e494 34bf 9a0f 9ebc da61 34be
000000d0: 571a fabd b13c 01be f566 503c adc0 d8be
000000e0: a778 463e 196f 48be a93d 18bd e117 46be
000000f0: 8269 743e dc53 2b3e e809 4e3e 7b21 f93a
00000100: c9f5 1fbd 9147 703e 348d 8c3e 0dc5 4e3e
00000110: fe33 523e 1061 8c3e a6b4 d63d 0516 7d3e
00000120: 9471 ea3d 1779 1f3e 3e75 5e3d 9257 cf3d
00000130: 8d71 533e 450c bc3e 2747 3f3f b012 fe3d
00000140: 4139 863f d8fe 113e e23a 2b3f 90ab 223f
00000150: a74b 203f b85c 22bf e7a4 8cbe 6198 0e3e
00000160: 479b 5b3e b821 ce3e d1dd 9cbe 9a41 9bbe
00000170: 3334 50be 4182 b7be d690 2cbe 5441 e2bc
00000180: 7840 cabe 6ae3 343c a1a0 0cbe 2d1b 27bd
00000190: 26e4 4dbd adc0 50bd 57f5 62bd 1cd3 f5bd
000001a0: ef00 debd 3f64 dfbd 19dd eabd 3ac7 393d
000001b0: 756e 71bd 4521 993d 84d4 153d 18db e7bd
000001c0: 0807 32bd 8677 1dbd 39a2 a9bd 25b9 7cbd
000001d0: b1ae 83bd 99c4 0dbe 860b 3d3a 90de c23d
000001e0: 5ddd 043e 5304 c13d 6cc3 03be 0f89 fdbd
000001f0: a048 043e c08b 843d 8638 fbbd a533 fc3d
00000200: 44b6 cdbd 2cf0 f73b 2611 04be 46ef a5bd
00000210: 20bc c4bd 50f1 ecbd f32f eebd ac44 3f3c
00000220: 3617 70bd 20be b73d 0393 b4bd ed3e 0b3e
00000230: 326a db3c 4ae2 0d3e 363a 51bd 9087 023e
00000240: 6de3 a13d 0b9d 0e3e dbb1 ccbd 6b7c 0dbe
00000250: f9c0 9f3c 894f d2bb ef58 1b3e de66 3cbf
00000260: f5b3 1e3e 3daf 8abe 0d28 593c 144c ebbd
00000270: 5a3a 583e b64c 25bd 9c2e 083e 1dbc 38bd
00000280: 6775 383e 5d38 2d3e 7bed 473d 776c 4dbe
00000290: a22a d9bc 8e32 d53d 4f93 423e 3627 fd3d
000002a0: 8d81 743e 0be0 a43d 9e23 593e ba92 b03b
000002b0: 71ba 503d 1899 4b3e ff2a 383c 35c3 90be
000002c0: a326 983f db7b 92be 8d62 ce3f 8795 083f
000002d0: f35b 603e d6db 74bf 82f2 de3e ab4f d7bf
000002e0: a44b bfbc 666e 1fbe 3156 1ebe 8ef7 c1be
000002f0: 0fb7 5f3f d966 ccbe 9233 9d3d 8533 13bf
00000300: dbe8 dabe 6479 e9be 9511 aabe a7a3 46be
00000310: f3ce 26bd f3a5 63be 71a2 22be e9c6 a7bd
00000320: b338 6dbe c5d9 60be 5cff a93e 7ebf c9bd
00000330: e888 543e f910 883e 5b3e 203f 7a65 553e
00000340: a3b2 3b3e 7d0a 143e 21d6 a3bd d5b9 973b
00000350: 1e62 49be 89f9 dd3d 0ddf 4dbd 1691 073e
00000360: 428d a03e 4bac 6c3e f340 d13d 68fb 8b3d
00000370: 4717 913e 7f9f 69bd 26cc a73d e717 303e
00000380: e6f6 d8bc 68fe f53e 1731 1f3f 8971 adbf
00000390: 8d2e 253f 39a3 86bf 5274 babe bac3 94bf
000003a0: ca02 423d d5e1 8dbf c5c2 56be 9c88 b23e
000003b0: 2914 293e f668 2e3f 4da4 0dbf bb13 05bf
000003c0: 026b d23b 244c bfbe 9881 0dbf daee 1ebf
000003d0: 447f 65bd 7576 23bf 645a 353f 511d de3e
000003e0: 089a a1be b033 58bf d8b7 5d3e 97ab a3bd
000003f0: 5b2c 1f3e 7695 b33d 055a 873d f3bc 27bd
0.026279 -0.5552045 0.1611088 -0.043841247 0.20452222 -0.2494806 -0.53860974 0.28921667
0.04636509 0.06386271 -0.13364251 0.21337064 0.19314979 0.10750927 0.09663682 0.09151162
0.5159428 0.023015516 0.2816539 -0.022977944 0.17046602 0.22660469 0.22907647 0.11490463
0.24150784 0.12548004 0.6074288 -0.86292064 1.1834103 -0.38528118 1.1070153 1.0865668
-0.7088417 0.364464 -0.72889453 0.44325373 -0.21139202 -0.006398606 -0.5040865 -0.044436224
0.11438513 -0.715418 -0.42231056 -0.9238805 -0.09421558 -0.6433233 -0.04160372 -0.56933945
-0.70885706 -0.7053969 -0.019294549 -0.17615452 -0.12212055 -0.12620808 0.012719859 -0.423345
0.19381963 -0.1957363 -0.03716818 -0.19345047 0.23868373 0.16731209 0.20120966 0.001900717
-0.03905276 0.234648 0.2745148 0.20192356 0.20527646 0.27417803 0.10483675 0.24715431
0.114474446 0.15573536 0.05431103 0.101241246 0.20648785 0.3672811 0.74717945 0.12405908
1.0486223 0.14257371 0.66886723 0.63543034 0.62615436 -0.6342273 -0.2746956 0.13925315
0.21445952 0.402601 -0.30637982 -0.30323488 -0.20332412 -0.35841563 -0.16852126 -0.027619042
-0.3950231 0.011040548 -0.1373315 -0.0407974 -0.050266407 -0.050965 -0.055409756 -0.120031565
-0.10840022 -0.10907792 -0.11467952 0.045356013 -0.05894323 0.07477049 0.036579624 -0.11321086
-0.043463737 -0.038444065 -0.08282895 -0.061700005 -0.06429804 -0.13844527 0.0007211495 0.09515107
0.12975068 0.09424653 -0.12867516 -0.123796575 0.12918329 0.06471968 -0.1226664 0.12314538
-0.1004453 0.0075664725 -0.12897167 -0.081022784 -0.096061945 -0.11569464 -0.11630239 0.0116740875
-0.058615886 0.0897181 -0.08817103 0.13598223 0.026784036 0.13855854 -0.051080905 0.12747025
0.07904706 0.13927095 -0.09994861 -0.13816993 0.019501196 -0.0064181727 0.15170644 -0.7359446
0.15498336 -0.2708682 0.013254178 -0.1148912 0.2111601 -0.04035636 0.1329903 -0.045101274
0.18013535 0.16916032 0.048810463 -0.20060907 -0.026509587 0.10410033 0.19001506 0.123609945
0.23877545 0.08050545 0.21204993 0.005388585 0.050959054 0.1988262 0.01124072 -0.2827393
1.1886791 -0.2861012 1.6123825 0.5335316 0.21910076 -0.95647943 0.43544394 -1.6821188
-0.023351498 -0.15569457 -0.15462567 -0.37884182 0.873887 -0.39922217 0.07675852 -0.5750049
-0.4275578 -0.45600426 -0.3321654 -0.19398366 -0.040724706 -0.22231273 -0.15882279 -0.08192236
-0.2316616 -0.21958072 0.33202636 -0.09850977 0.2075535 0.2657545 0.62595147 0.20839491
0.18329863 0.14457126 -0.07999826 0.004630307 -0.19666335 0.10838611 -0.050261546 0.1323894
0.3135777 0.231126 0.10217466 0.06835061 0.28338072 -0.057036873 0.08193235 0.17196618
-0.026484918 0.4804566 0.6218428 -1.3550273 0.64524156 -1.0518562 -0.3641687 -1.1622231
0.04736594 -1.1084543 -0.20972736 0.3486985 0.16511597 0.6812891 -0.5532883 -0.5198323
0.0064214477 -0.37362778 -0.5527587 -0.6208321 -0.056029573 -0.63852626 0.7084105 0.43381742
-0.3156283 -0.8445387 0.21652162 -0.079917125 0.15544264 0.08768742 0.06608967 -0.04095168

fc1.bias f4 [128]
00000000: adc1 333d f677 373e 05eb e0bd b5c8 d83d
00000010: bcbb 61bd e0f3 70bd ffd5 9cbd d7b2 393d
00000020: 2554 debd 2bd5 d23a 42fc 17be c2f1 163e
00000030: f364 553c d25c 003e 3097 533d 447e 673d
00000040: 648b 773d 7101 0e3e 8611 a43d c24d 263e
00000050: 6d81 a83d 7c10 20bd 58ba 283e 82b7 183e
00000060: b44e 6c3e 1f93 b43d c897 b03c b695 d83d
00000070: c1c8 893a 6d29 03bd 662b 193e 7494 7ebd
00000080: f730 da3c 5a40 f23d 23f8 a4bc e753 513e
00000090: f8d2 d33d 92a4 a33c d331 263d 9b46 d0bd
000000a0: 89e4 f93d 503f 2b3d f105 25bd ce98 ac3c
000000b0: e449 e73d 65c9 07be d5a2 1c3d 5a77 adbc
000000c0: 2984 93bd ccce 2d3e acac ccbc 7856 b0bd
000000d0: cdc9 0bbd 0c5f 163e 15ae cd3c 7f0a 493e
000000e0: 003a e83d 9f2a 6e3d 1927 0dbc d8a1 323d
000000f0: 5de5 ca3d 4063 86bd 7b61 e13c 0459 9dbd
00000100: cfe1 033e e5b0 08bd e6ad 7ebd 6c10 3e3e
00000110: c32e 8bbc d795 aa3d c38c b53d d268 f9bc
00000120: 2448 f63b 42f9 b63d e99f 453e b4b4 2fbe
00000130: 0a4d 123e de12 60bd 68f0 ddbd e1bc 033e
00000140: 203a 583d 673c d8bd 96df 62bc 70c4 013e
00000150: d252 253e 90ea 5d3e bf7b ab3d c95d b9bd
00000160: 1357 1d3e cd5e f63d ab62 65b7 90c1 153e
00000170: f1e1 3cbd 8c82 db3d e69d bfbc dc6e 623e
00000180: b2f8 fabc 748f 6fbd 7853 c23d c233 c3bd
00000190: c4f9 b23d aacd a2bd 7cc0 073e a590 003e
000001a0: b2b5 25bd cf2c 003b 3286 2c3e 7420 53bd
000001b0: fc52 cc3d 6ed9 c7bd ce17 83bd 1a00 653d
000001c0: 9a2f ab3d 0a96 b4bd 9051 9a3d fa25 0bbe
000001d0: f13e 27be 9629 e13b 93e4 f83d a10b c93d
000001e0: ad68 503d 1903 33bd 7758 613d ce07 a9bd
000001f0: 9cfe 653d 9687 053e 9bf7 fc3d 3b11 2c3e
0.043885875 0.17916855 -0.109823264 0.10585157 -0.055110678 -0.058826327 -0.07658004 0.04533657
-0.10855893 0.0016085258 -0.14842322 0.14740661 0.013024556 0.12535408 0.051657856 0.0565169
0.060435668 0.13867737 0.08011155 0.162406 0.08227811 -0.03907822 0.16477334 0.14913753
0.23076898 0.088171236 0.02155675 0.1057543 0.00105121 -0.03202193 0.14957961 -0.062153295
0.026634676 0.1182868 -0.020137852 0.20442162 0.103429735 0.019975934 0.04057486 -0.10169717
0.12201793 0.041808426 -0.04028887 0.021068957 0.112933904 -0.1326042 0.038241226 -0.021175075
-0.07202942 0.16973418 -0.02498468 -0.086102426 -0.034128 0.14684695 0.025107423 0.1963291
0.113391876 0.058146115 -0.008615279 0.043611377 0.09907029 -0.06561899 0.027512303 -0.07682994
0.12879108 -0.033371825 -0.06217756 0.18560952 -0.016990071 0.08329361 0.08864739 -0.03044549
0.007515924 0.08934261 0.19299282 -0.17158777 0.142872 -0.054705493 -0.108368695 0.1286502
0.052789807 -0.10558396 -0.013847252 0.12672591 0.16144875 0.2167151 0.08373212 -0.09051091
0.15365247 0.120298006 -1.3672437e-05 0.1462462 -0.046113912 0.10718259 -0.023390722 0.22112602
-0.030636165 -0.058486417 0.09488577 -0.095313564 0.08739045 -0.079493836 0.1325702 0.12555178
-0.04045648 0.0019557958 0.16848066 -0.05154462 0.099767655 -0.09758268 -0.06401025 0.0559083
0.08358689 -0.0881768 0.07535088 -0.13588706 -0.16332604 0.0068714125 0.12152972 0.09816671
0.050881077 -0.043704126 0.055016007 -0.08253442 0.056151018 0.13040003 0.123519145 0.16803448

fc2.weight f4 [128, 128]
00000000: 84aa fbbd 823a 02bc b5fc 62bc eaf1 77bd
00000010: 13e6 a9bd 8e3c 04bd 6d49 333d 0726 4b3a
00000020: c2c9 6bbd 0f5a d6bc 1a1e 38bd 9279 2f3c
00000030: b51e 80bd a9f0 c93b 6a6c b93b c466 53bd
00000040: 32ed 4ebc dd69 0dbd 5302 3d3d 4f33 adbd
00000050: 1e94 b3bd 6ff1 ecbc 5046 abbd f7e3 7bbd
00000060: 206e a5bd 6647 593d 85a6 7abc d63f 233d
00000070: 468f cabd 72e8 263d 3063 68bc 4365 793d
00000080: c564 b3bd 640a 97bc 1982 913d e1a5 8b3c
00000090: 3d53 d0bd 8590 1bbd 2e94 cd3c ef2b 473d
000000a0: 30e4 69bd 7460 cb3c 3e4d ff3b 640c 03bc
000000b0: 4621 13be 010f 2d3d b8b5 693c 7b4c 263d
000000c0: 25d9 dbbd e662 243d 1c2e 813c cd10 81bd
000000d0: f71a 3bbd 326f b6bd cb67 bcbd 2059 9fb7
000000e0: 7800 6bbd fcc1 bbbd 5992 5abd 0582 87bd
000000f0: a828 593c 181b ad3c 52d1 f8bd da77 8abd
00000100: 3474 663d 7967 12bd 9431 39bd b632 17bd
00000110: 115d 73bd 4567 43bd 69f7 173d be3c 87bd
00000120: d1ad 063d 15fa ed3b bbcb e73c e1b5 53bd
00000130: d717 c3bd 5fb6 03be 74d9 89bc 2951 123d
00000140: fe9d acbd 940f 883c a1c7 57bd 0c80 00be
00000150: 51f4 33bd 87b6 efbd 1ca3 c43c 3ae0 5a3c
00000160: bf8c 5f3d 8ca5 1abd 43e2 babc 309c f43b
00000170: 0314 543d 4657 633d 4d71 81bd aabb 873b
00000180: 41e3 86bd 84ee 88bd 8cf4 0e3d fceb 0bbe
00000190: c6c9 26bd e5bd a63d 3278 653d 6c9b 133d
000001a0: 9aa5 113d 4b19 66bd c8e5 033d 3f06 3cbd
000001b0: 9a3b e4bc 8d90 cbbb 56e7 923c 77a5 d0bc
000001c0: 7770 7fbd 9309 963d b2fb d5bd b5de 98bd
000001d0: a9ea 343d ec13 bd3c a190 f53c 7fae 853c
000001e0: 596a 2dbd 3361 10be 2e83 a0bd 38ae debd
000001f0: ee9b f8bd 5695 2fbb 44f7 09bc 7008 b7bc
00000200: 870b 803d aed2 e03c 40ce adbc f071 69bd
00000210: 8df0 a6bd fee1 cd3c 71dd 0c3d 64d5 9a3b
00000220: 5594 c7bd 71fc 0cbd 8e4a afbd 178c cfbd
00000230: 738a 8dbd 0ca4 8bbd c130 b0bd 17b6 703d
00000240: 7d15 08bb e22f 5f3c 1e7a b8bd d447 77bc
00000250: 32ac 583d 5f87 d8bd 7651 8c3c 8dd7 4a3d
00000260: dd27 893d 6229 4c3d 4d67 b33c 55a8 2e3d
00000270: b64b aebd ccd2 3e3c 95e6 8e3d ab9e 613d
00000280: aa27 adbc 961d a13d 8bb4 44bd 9a01 c93c
00000290: be51 b8bd 48e8 573d be94 aa3b c79a 42bd
000002a0: 3901 003d f9d2 8dbd dd47 f5bb 1fb8 b5bd
000002b0: fc29 dabd af13 cdbd f187 0f3c 2bea 943d
000002c0: a324 2dbd e783 29bd 08e0 26bd 4a50 12bd
000002d0: a2cb d0bd 5732 9abd 2c69 f1bd 115b 2fbd
000002e0: 5ac5 563c fa79 87bd b637 bebc 666c b2bd
000002f0: 10d8 5abd 43cb ad3c fee3 833c c0dd 90bd
00000300: 6da5 783d 1992 32bd 89c3 aa3c 1cb2 8d3d
00000310: 963b 78bd 7729 a5bd 7e54 34bd 6c9b 80bd
00000320: 36f8 70bd a997 9f3d b30c 92bd cf6d 403d
00000330: b5b3 8dbb f2fd cfbd d90b 9f3b bbc1 7abc
00000340: d83f a8bd a2ce 94bd 4784 7a3d d263 85bd
00000350: 5cc9 6d3d 131f 92bd 6057 05be 0d15 98bd
00000360: fb88 7fbd d883 593d 9f97 48bd 8c98 6e3c
00000370: 848a 913d 5777 0abd 06cb 3fbd ae42 363c
00000380: aa55 adbc 0d2d af3c 9add 85bd a6c6 ecba
00000390: 01aa eabd 142d 8abc d993 6c3d fa1c ad3c
000003a0: 5956 e9bd 88d7 083d 5118 723d daaa 143d
000003b0: 6638 733d 0861 b7bd 24a0 403d 0f6c a0bd
000003c0: 69fe c33c 7739 db3b 9aa8 e03c c01b 573d
000003d0: 0c9e 163d f431 d9bd f7d6 b5bd 4b86 69bd
000003e0: 19b9 e83c 7c56 05be e2c9 393d dac2 aebd
000003f0: 660a f53c 1e94 77bd f8b7 bd3b e217 a03c
-0.12288383 -0.00794852 -0.013854195 -0.06053344 -0.08295836 -0.032284312 0.043771196 0.0007749502
-0.057565458 -0.02616599 -0.044950582 0.010710137 -0.06255857 0.006162722 0.005658676 -0.051611677
-0.012629794 -0.034524787 0.046144795 -0.08457052 -0.087684855 -0.028923718 -0.083630204 -0.0614967
-0.08077645 0.053046606 -0.01529849 0.0398558 -0.098906085 0.04074902 -0.014183804 0.060887586
-0.08759455 -0.018437572 0.07104892 0.01704687 -0.101721264 -0.03797962 0.025095072 0.048625883
-0.057102382 0.024826266 0.0077911904 -0.00799856 -0.14368162 0.042250637 0.0142645165 0.04060028
-0.107347764 0.04013338 0.015769057 -0.063020326 -0.045680013 -0.089079276 -0.091994844 -1.899578e-05
-0.057373494 -0.09167859 -0.053362224 -0.06616596 0.013254322 0.021131083 -0.121493 -0.06761141
0.056263164 -0.03574321 -0.045213297 -0.036913596 -0.059414927 -0.047705907 0.037101183 -0.066033825
0.032880608 0.007262478 0.028295388 -0.051687125 -0.095260315 -0.12862538 -0.016827323 0.03572193
-0.08428572 0.01660899 -0.052680615 -0.12548846 -0.04393417 -0.11704736 0.024003558 0.013359124
0.054577585 -0.037755534 -0.022812968 0.007464908 0.051776897 0.055503152 -0.063204385 0.0041422443
-0.06586314 -0.06686118 0.034901187 -0.1366424 -0.04071977 0.08141688 0.05602283 0.036036894
0.03555832 -0.056176465 0.03220156 -0.045904394 -0.027860451 -0.0062123 0.017932575 -0.025469525
-0.062363114 0.07326045 -0.10448398 -0.07464353 0.044169102 0.023080789 0.029976191 0.016318558
-0.04233775 -0.14099579 -0.078375205 -0.10873073 -0.12139116 -0.0026791892 -0.008420769 -0.02234289
0.06252199 0.02744421 -0.021216512 -0.056993425 -0.0815135 0.025132176 0.03439087 0.004725145
-0.09745089 -0.034420434 -0.08559142 -0.10134142 -0.06911173 -0.06818399 -0.08603049 0.058767404
-0.002076476 0.013622256 -0.09007667 -0.015092809 0.052898593 -0.10572695 0.017128687 0.04952197
0.066970564 0.049844153 0.021899844 0.042641003 -0.085105345 0.011646938 0.06977574 0.05508296
-0.021137077 0.07866971 -0.04802374 0.024536896 -0.08999966 0.052711755 0.0052057197 -0.04751089
0.031251166 -0.069250055 -0.0074853734 -0.08873009 -0.10652539 -0.1001352 0.008760438 0.072712265
-0.042271268 -0.041385558 -0.040740997 -0.0357211 -0.1019509 -0.07529133 -0.11787638 -0.042811457
0.013108576 -0.06615062 -0.023219924 -0.087120816 -0.05342871 0.021215087 0.016099926 -0.070735455
0.060704637 -0.04359636 0.020845192 0.06918737 -0.0606037 -0.080645494 -0.04402589 -0.06279644
-0.058830462 0.07792599 -0.071313284 0.04697972 -0.0043244013 -0.10155858 0.0048537073 -0.015304978
-0.08215302 -0.072659746 0.061161306 -0.0651318 0.05805336 -0.07134833 -0.13021612 -0.0742589
-0.062386494 0.05310425 -0.048972722 0.014562737 0.07106498 -0.033805218 -0.046824478 0.011124296
-0.021159012 0.021383787 -0.06536408 -0.0018064573 -0.11458207 -0.016867198 0.057758186 0.021131981
-0.11393423 0.03340867 0.05910522 0.03629575 0.059379958 -0.08954054 0.047027722 -0.078331105
0.023925023 0.0066902 0.027424145 0.0525167 0.03677182 -0.10605231 -0.08878892 -0.057012837
0.028408574 -0.13021272 0.045358546 -0.08533259 0.029912185 -0.06044399 0.005789753 0.019542638

fc2.bias f4 [128]
00000000: 02e4 56bd 0a84 89bd e063 153e d1b0 3a3d
00000010: 36a4 013e 7f6a 6d3d c70e 493e 74a8 88bb
00000020: 1765 00be 3ae3 f03d 0016 0a3d 7d4b ae3d
00000030: 86c4 8fbd e90f 073e 5384 323e 63f6 ef3c
00000040: e67c ee3d b6ab 443e 021a a03d 14a4 0cbd
00000050: d8e4 8a3d b75c 82bd f714 7b3e f582 a9bd
00000060: 436a 703d f796 c43d 0a45 3d3e 8132 673e
00000070: 60be 693d b365 d8bc 65b1 773d 025d a23e
00000080: b7f9 d13b dbde 863d 33d2 74bb 2fe9 35bd
00000090: 3be7 ddbc a330 fa3d 3235 b83d 484d 3abc
000000a0: bb63 363e a26e c13c ba31 73bd 3479 c83d
000000b0: 6dad ec3b 863e 93bd 01ba 3bbd 2424 863d
000000c0: 2e36 923d 9c26 78bb c629 81bb 6e0d 8a3d
000000d0: ee4c c63c 0d9c 193e 1603 193d 793e 2a3e
000000e0: 8177 053e 14f0 f83c e53e babd 5c35 153c
000000f0: 0f45 de3d 8c02 e9bc 3a2e 1b3e 52f3 d7bd
00000100: 9b40 dabd 0a09 99ba 957f a03c abf7 51bc
00000110: 4a5e 803e 332c 48bd 4c9e 7bbd 9c18 573d
00000120: f42f 273d ea5f 4dbd 1d50 8f3d efc6 7c3c
00000130: 90f7 0b3e 1d35 5abd 1034 023e 8411 973c
00000140: 42cc 10bd 148e 17b9 cb11 c0ba 5e6a 9ebd
00000150: 11be 22bd 60d3 2dbe 3fe6 073e 47f4 7bbd
00000160: bdfd 773d 55f4 a93d 7cf9 b3bd b5ca bfbc
00000170: 276b 03be 5468 74bc 4682 993e 645d 083e
00000180: 2dee 9fbc 4321 203c 273a f7bd b203 773c
00000190: 1cf6 aebc 682d edbc 04a2 733d 9571 393d
000001a0: ec91 5fbd dedb 3d3d 7af1 263e 16e1 b8bc
000001b0: eb5c a7bd 16b7 c7bc b4af 6c3d 6dd0 99bd
000001c0: 9eb5 9e3d a222 73bd 506f 553e b9b5 c2bc
000001d0: 66b0 15bd 49cb ce3b 0f02 143e c080 c93d
000001e0: e643 103d 3580 ef3d 90d9 583c ac5c 1a3e
000001f0: 257b a93d 7ad6 653e 3fbc 013d 56c5 96bd
-0.05246354 -0.067146376 0.1458888 0.04557878 0.12660298 0.05796289 0.19634543 -0.004170472
-0.12538563 0.1176209 0.033712387 0.08510492 -0.07019906 0.13189663 0.1743329 0.029292291
0.11644916 0.19206128 0.078174606 -0.034336165 0.0678193 -0.0636534 0.24519716 -0.08276931
0.05869509 0.09599107 0.18483368 0.2257786 0.05706632 -0.026415681 0.06047191 0.31711584
0.006407942 0.06585475 -0.0037356734 -0.044411834 -0.027087798 0.12216308 0.08994521 -0.011370964
0.17811482 0.023612324 -0.059373595 0.09788743 0.0072228224 -0.0718966 -0.045831684 0.06549862
0.0713924 -0.003786481 -0.0039417474 0.06740843 0.024206605 0.15000935 0.03735646 0.16625394
0.13033868 0.030387916 -0.090940274 0.00910696 0.10853016 -0.028443597 0.15154353 -0.105444565
-0.10656854 -0.0011675667 0.019592086 -0.012815396 0.25071937 -0.048870277 -0.06143026 0.052513704
0.040817216 -0.0501403 0.06997702 0.015428289 0.13668656 -0.05327331 0.12715173 0.01844097
-0.035351045 -0.0001445341 -0.001465374 -0.07735132 -0.039732043 -0.16975164 0.13271426 -0.061512258
0.060544718 0.08298556 -0.0878782 -0.023412088 -0.12833844 -0.014917452 0.29982203 0.13316876
-0.01952275 0.009773555 -0.120716386 0.015076565 -0.021357588 -0.028952315 0.059480682 0.045274336
-0.05458252 0.04635226 0.16303053 -0.022568267 -0.081720196 -0.024379294 0.05778475 -0.07510457
0.077494845 -0.0593592 0.20843244 -0.023768293 -0.03654518 0.0063108546 0.1445391 0.0983901
0.035221003 0.116943754 0.013235465 0.15074414 0.08275441 0.22445098 0.031673666 -0.073618576

fc3.weight f4 [25, 128]
00000000: 78fc b43c 787f 843d 49b0 223d 8cac adbd
00000010: 0806 0e3e ae2c 3b3e 625c 073e 4b27 4c3d
00000020: da93 ef3b c4c9 133e b270 1ebd 2dde b3bc
00000030: 76bd 3c3d 719d 143e 7bb3 1cc0 f8bd 04be
00000040: 220d cebb fcdd c93e 2676 593e f007 c6bc
00000050: 4793 a73c 8e79 4d3d 5abf 193d 1841 933d
00000060: 1444 b9bd b9c6 95be 224a 023e db30 7a3e
00000070: 3b87 9a3d 4a5d be3c aa04 ad3d 1f3c 9f3e
00000080: eab0 23bd 4164 843e c1d3 3c3d 621f 9b3d
00000090: 5733 abbd 27d4 afbd 1a85 55bc e558 04c0
000000a0: e9e4 22bd 78cc 4dbd 157e 49bd 0ba8 14be
000000b0: 4116 77bd 23dc 0d3c 26c7 943d fbcb fbbc
000000c0: 2378 ee3b 223f 193d 2164 90bd f979 3b3d
000000d0: 3dfc 733d 0732 063e 5a0d 81be 754d 453e
000000e0: 9d1d 343e 979d b23c f594 e33c 4957 eabc
000000f0: e19e 1a3e 2fc5 73bd 7505 ae3e 2be9 0cbc
00000100: d5dc 3b3d 8f00 f4bf d4db e93d 0898 12bf
00000110: 549d 5f3e e598 a73d 8280 86bd b615 2abe
00000120: 51bd 3b3e 0841 533c 9643 08bd 778c 573e
00000130: 9c01 db3e b208 213d 99f7 debb 22c6 053d
00000140: c505 773e 1a1e 203c d1b0 013e 828f 623e
00000150: d8d0 3fbc 19a7 49bd d7be 4a3e 5a2a af3d
00000160: 6729 0e3e 7b96 bf3e 6498 313d f307 acbc
00000170: 5619 b0bd 658b e2bb a543 1e3f 163f c2bc
00000180: 19be 733d 3547 ae3d 0600 693d 5427 d0bd
00000190: 0c71 b8bc d630 27be 71b8 25bd c411 613e
000001a0: 7796 dabe ce0a 39bd aec8 d13e 884c aebe
000001b0: 2f65 4ebc 1e45 8cbc 56c5 44be 290c 303d
000001c0: 487a 2d3d 4c1d a63d bf8a 5b3d 3124 393e
000001d0: 0dd9 ccbc f01f 533d f769 ca3e 5ffd 243e
000001e0: 201d 2dbe fa40 7d3d cb28 9d3c a73e 213e
000001f0: fa58 9fbd 9f91 b13d 0882 993d ebe8 073d
00000200: 797e fe3c 501a 6dbd 9ba0 0a3c 6695 8abc
00000210: 6850 cf3e 86a2 12bf 0f8f 5d3e f9d0 493d
00000220: ff11 df3c 9c92 b6bd 5aa4 73bc 40fe 10bd
00000230: d54f 653d 6ad0 ce3d 8b47 8a3d 14db 60be
00000240: 7631 9a3e b164 31b7 88a0 7ebe baa2 3bbe
00000250: 2b7b 52bd 195c 97bd a6e9 7a3e bb8f 06be
00000260: 801d 273e 8b7c bcbd 34fa 4d3e 4de6 f3be
00000270: 726e 863d eb1c a6bd e4e6 173d 8e97 cd3d
00000280: e374 59bf 57f2 8a3e f99a e63b afb3 73be
00000290: 877e 36bd 9b2d 4dbe 04a2 77bd a482 b4bb
000002a0: 5e1a 07ba 8478 e3bc 7699 66be 4c48 01be
000002b0: aa0f 6abd 19cb 003e 1ea2 35bd f3bb f23c
000002c0: 49cf 103d f71d 57bb e140 11bd e057 6a3c
000002d0: cd90 c73c 2724 a7bd 54c1 10be 9838 a13a
000002e0: f57d d73d a8d2 80bc b144 963d fa71 a0b8
000002f0: d233 673d 67ed 9cbb 7e85 5fbf 5de1 253c
00000300: c089 45bd ba1e 7abf 73bb cb3c fd8d afbd
00000310: 83f3 103f 6774 403d 4740 8bbd eba9 60be
00000320: b815 043e fbf6 4ebd 5530 8fbd 8e5b 533e
00000330: 73db a93e a5f2 9fbd 7b35 52be 5e94 22bd
00000340: f023 0dbe 4d02 acbd c5ed 543e 9c98 0c3d
00000350: a244 ae3c d3b7 64be 4bfd 4dbf 4dae 1c3b
00000360: e734 c0be 94cc 1a3f 1990 a4bc 9744 2fbd
00000370: 0887 903d 69e7 8e3d 3df5 343f bc8e 84bc
00000380: 7ef8 d73c 2a7d d73d 4c3f a6bd fcb7 e83c
00000390: d967 9ebc 378a 363d 077d 3f3d 53ad 733e
000003a0: dd3e 75be 31ee 113e 67c7 253f 107a 06bf
000003b0: a0cc 973d a0b9 b7bc c3dc 8fbd bbd1 9e3d
000003c0: bac5 fd3b 350a 64bd fd59 8fbd bfb2 9cbc
000003d0: adec 243e ac95 143d 92bd 4b3f b81d a43e
000003e0: f21d 153c 3091 123e 7dad 4bbc a364 5c3e
000003f0: 44da 183e 40ee 0bbc 7efe 843d 5843 953c
0.022093043 0.06469625 0.0397189 -0.08480176 0.13869488 0.18278763 0.13218835 0.04984216
0.0073113265 0.14432436 -0.038681693 -0.021956528 0.04607912 0.14513184 -2.4484546 -0.12963092
-0.0062881866 0.39427173 0.21236476 -0.024173707 0.02045597 0.05016475 0.037536003 0.0719015
-0.09046188 -0.29253176 0.12723592 0.244327 0.075453244 0.023237843 0.08448155 0.31100556
-0.03996364 0.25857738 0.04610038 0.07574345 -0.08359402 -0.08585387 -0.013032222 -2.0679257
-0.039769087 -0.050243825 -0.049192507 -0.14517228 -0.060323957 0.008658442 0.07264547 -0.030736914
0.007277505 0.037413724 -0.07050348 0.04577062 0.059566725 0.13105021 -0.252055 0.19267829
0.17589422 0.02180366 0.02778099 -0.028606074 0.1509967 -0.05951422 0.33988538 -0.008600513
0.0458649 -1.906267 0.11418882 -0.5726323 0.2183736 0.08183459 -0.0656748 -0.16609845
0.18333937 0.012893923 -0.03326758 0.21049677 0.42774665 0.039314933 -0.0068044183 0.032659657
0.24123295 0.009772802 0.12665106 0.22125056 -0.011707507 -0.049231622 0.19799362 0.08553
0.13882981 0.37419495 0.04335822 -0.020999884 -0.085985824 -0.00691359 0.6182197 -0.023711722
0.059507463 0.085096754 0.056884788 -0.10163751 -0.022514842 -0.16327223 -0.0404591 0.21979433
-0.4269292 -0.04517632 0.4097342 -0.34042764 -0.012597366 -0.017122801 -0.19215903 0.042980347
0.042352945 0.08111057 0.053599115 0.18080212 -0.025005842 0.05154413 0.3953397 0.16112278
-0.16905642 0.061829545 0.01918449 0.15746556 -0.07780643 0.08670353 0.074955046 0.033181112
0.031066166 -0.05788642 0.008461143 -0.016916942 0.40491033 -0.5727924 0.21636604 0.049271557
0.02723026 -0.08914682 -0.014870727 -0.03539872 0.055984337 0.100983456 0.06751927 -0.21958572
0.3011586 -1.0573466e-05 -0.24865925 -0.18323794 -0.051386993 -0.07390613 0.24503192 -0.13140766
0.16319847 -0.09203442 0.20114976 -0.47636643 0.065640345 -0.081109844 0.03708543 0.100386724
-0.8494398 0.27138016 0.007037517 -0.23799013 -0.04455426 -0.20036928 -0.060457245 -0.0055087376
-0.00051537703 -0.027767427 -0.22519478 -0.12625235 -0.057143845 0.12577476 -0.04434406 0.029630637
0.035353933 -0.0032824257 -0.035462264 0.014303178 0.024361039 -0.081611924 -0.14136249 0.0012300191
0.10522071 -0.015725449 0.073373206 -7.650624e-05 0.056445904 -0.0047890428 -0.8731307 0.010124532
-0.04822707 -0.97703135 0.024869656 -0.08572004 0.5662157 0.04698601 -0.06799369 -0.21939819
0.1289891 -0.050528508 -0.069916405 0.20640394 0.3317524 -0.07809953 -0.20528214 -0.039692275
-0.1378324 -0.08398876 0.20793827 0.034325227 0.021272961 -0.22335748 -0.8046462 0.0023907602
-0.3754036 0.6046841 -0.020088242 -0.04279002 0.07057005 0.06977732 0.70686704 -0.016181342
0.026363607 0.1052192 -0.08117542 0.028408043 -0.019336628 0.044565406 0.046750095 0.23796587
-0.23949762 0.14251019 0.6475739 -0.5253 0.07412076 -0.02242738 -0.07024529 0.07754847
0.007744518 -0.055673797 -0.06999586 -0.019128202 0.1610591 0.03627555 0.79586136 0.32053924
0.009101378 0.14313197 -0.0124315 0.21522765 0.14927012 -0.00854069 0.06493853 0.018220589

fc3.bias f4 [25]
00000000: 8866 773e e262 223d e998 5abe 2c44 18be
00000010: f1d0 333e 893d 163e 7bd8 e43d eba1 a6be
00000020: 6341 503e c523 033e a8a9 c2bd 5b6a b4bc
00000030: 6884 2b3d 5a56 b03d 52e1 0e3e bf74 433e
00000040: c111 2c3c 76e5 cbbe 66e6 0bbe 2226 f73d
00000050: 4b15 b03d 73e0 e93d 3ec4 c43d 1df1 403e
00000060: 82d9 a63e
0.24160206 0.039645083 -0.21347393 -0.14869756 0.17560174 0.14671911 0.11174103 -0.3254541
0.20337443 0.12806614 -0.095050156 -0.02202337 0.04187432 0.0861022 0.1395314 0.19087504
0.01050228 -0.39823502 -0.13662109 0.1206782 0.08597811 0.114197634 0.09607743 0.18841977
0.3258782
