Martti/Graphs/MarttiWeights-2x2x2-b128-lr0.001000.pt (torch, 74583 bytes, 6 tensors)

fc1.weight f4 [128, 8]
0.2853653 0.13927858 0.10146484 -0.23429942 -0.19347385 0.10791236 0.3605904 0.30062455
0.14009598 0.21591759 0.4889481 0.25884867 0.045928143 -0.017999506 -0.2618203 -0.4484863
0.501823 -0.035171084 -0.13598688 0.5753616 0.21790482 -0.06135681 -0.20289554 0.17204148
-0.25497958 -0.30648804 0.42955717 -0.35735655 0.027198886 -0.051505204 -0.20787567 0.29407573
-0.07935376 -0.8110966 0.045820586 0.24646738 -0.28755805 0.72127676 -0.26723194 -0.27445588
-0.038210124 -0.39327854 -0.0841062 -0.08451797 -0.18739736 0.44679666 -0.008161704 -0.13976187
-0.16269043 -0.21734215 -0.21326964 0.27846283 0.099391304 0.07752275 0.18402836 0.12019542
-0.14011902 -0.10760978 -0.022578508 -0.063652426 0.5414217 -0.10750575 0.04232295 -0.0953799
0.24442849 -0.19299285 -0.015375753 -0.071072586 0.3035053 0.3982423 -0.14757493 0.2059534
0.06445713 0.34933236 -0.27286232 0.08628011 -0.21424763 -0.1709169 0.10481355 0.37602884
0.22905214 0.23144527 0.35343164 0.20170924 0.4618229 -0.27333546 -0.3040766 0.016957978
-0.13250881 0.14019953 0.3235841 0.2890834 0.28840578 0.16184586 -0.067505985 0.32449046
0.04846019 -0.02887258 -0.45427105 -0.14313775 0.19402286 -0.16831401 0.53191453 -0.22675909
-0.10197875 0.111005954 0.21169728 0.13162075 0.25030988 0.3004148 -0.28523874 0.1912544
-0.18828492 -0.0021519768 0.0890664 -0.15734857 0.28013504 0.3826669 0.17815216 0.1038498
0.031376477 -0.34868103 -0.06981748 0.35983145 -0.14701281 -0.10739981 0.4004648 -0.31119755
0.68686455 0.27600414 0.48294935 -0.16226849 -0.23828588 -0.11846122 0.03658644 0.22919461
0.46352658 -0.31241944 0.27040744 -0.24045767 0.24549288 0.053079393 0.3436016 -0.15141355
0.22134829 -0.28353405 -0.3259846 0.41356513 0.19116649 0.25085634 0.3049784 0.137184
0.061216295 -0.046954807 -0.10174716 -0.4309864 -0.28443506 0.029580574 -0.33136803 0.4641052
0.26632 -0.26274595 0.023913153 -0.2798917 0.23699485 -0.19873247 -0.24215278 -0.091010764
-0.29485017 -0.07360652 -0.3441133 -0.28083473 0.05341426 -0.2938448 0.0674181 -0.31770626
-0.072148055 -0.12739359 0.18658538 -0.21491764 0.23872705 -0.2600981 0.2019579 0.27390856
0.47678646 -0.047078863 0.519679 -0.153114 -0.29403606 0.03529532 0.25105363 0.30817538
0.47538662 -0.19591291 -0.21838742 0.2663699 0.103327945 0.33582 0.07266559 0.17046122
0.6157372 0.18017069 -0.3230649 0.18186954 -0.1917743 0.32214406 0.37211087 -0.04703301
0.17488983 -0.31359547 -0.39516908 0.055477526 -0.27172586 0.29676276 0.22921348 -0.24363732
-0.46513063 -0.18044393 -0.012938554 -0.015998878 0.48834527 -0.37693977 -0.09410818 -0.17064247
-0.097885296 -0.3398563 0.049600434 0.07071879 -0.00843409 -0.17670533 -0.2506923 -0.119520955
-0.2225659 -0.4401761 0.47773913 -0.07613554 0.0858245 0.43882966 0.21738744 -0.18409878
0.2294238 0.48533702 0.5829345 0.21968533 0.318816 -0.42159525 0.017323175 -0.09833126
0.33991385 -0.06169049 -0.17999782 -0.85179555 -0.04827069 -0.32674572 -0.38895062 0.626496
00000000: 671b 923e 0b9f 0e3e cccc cf3d 30ec 6fbe
00000010: 021e 46be 2801 dd3d 4e9f b83e 76eb 993e
00000020: 5275 0f3e 8019 5d3e 6857 fa3e d087 843e
00000030: 261f 3c3d b373 93bc 4f0d 86be ff9f e5be
00000040: 7977 003f 8e0f 10bd 2540 0bbe e64a 133f
00000050: 7122 5f3e 4751 7bbd d9c3 4fbe a42b 303e
00000060: af8c 82be 00ec 9cbe ebee db3e 70f7 b6be
00000070: 33d0 de3c 1ff7 52bd 5cdd 54be 1891 963e
00000080: 3984 a2bd 07a4 4fbf 5eae 3b3d f261 7c3e
00000090: cf3a 93be 98a5 383f a0d2 88be 7b85 8cbe
000000a0: 3882 1cbd ce5b c9be df3f acbd c217 adbd
000000b0: 18e5 3fbe 88c2 e43e abb8 05bc bc1d 0fbe
000000c0: 5298 26be f18e 5ebe 5b63 5abe ae92 8e3e
000000d0: ab8d cb3d 3fc4 9e3d ee71 3c3e 0429 f63d
000000e0: 5c7b 0fbe 8462 dcbd 90f6 b8bc 345c 82bd
000000f0: 9d9a 0a3f fa2b dcbd d45a 2d3d 8956 c3bd
00000100: 764b 7a3e eb9f 45be 95ea 7bbc 818e 91bd
00000110: 0c65 9b3e 6ae6 cb3e e21d 17be 73e5 523e
00000120: 1a02 843d b1db b23e 9cb4 8bbe a0b3 b03d
00000130: bb63 5bbe d704 2fbe 7da8 d63d da86 c03e
00000140: a58c 6a3e fdff 6c3e fef4 b43e de8c 4e3e
00000150: 0d74 ec3e a0f2 8bbe eeaf 9bbe 75eb 8a3c
00000160: 64b0 07be 7790 0f3e d1ac a53e bd02 943e
00000170: eca9 933e ecba 253e 9440 8abd 9d23 a63e
00000180: 317e 463d 3086 ecbc 3796 e8be b492 12be
00000190: eead 463e 825a 2cbe 8d2b 083f 8933 68be
000001a0: 3cda d0bd 1757 e33d 2cc7 583e 97c7 063e
000001b0: 9e28 803e f8cf 993e d00a 92be 32d8 433e
000001c0: c3cd 40be 2e08 0dbb 7268 b63d fc1f 21be
000001d0: dc6d 8f3e eaec c33e 856d 363e 34af d43d
000001e0: 9f84 003d 5286 b2be 78fc 8ebd d43b b83e
000001f0: 878a 16be 6ef4 dbbd b909 cd3e 4955 9fbe
00000200: 5bd6 2f3f 6a50 8d3e 2345 f73e b629 26be
00000210: 3701 74be cc9b f2bd aadb 153d feb1 6a3e
00000220: 5b53 ed3e 71f5 9fbe d872 8a3e 893a 76be
00000230: 7c62 7b3e c769 593d 8dec af3e 270c 1bbe
00000240: 20a9 623e 602b 91be 74e7 a6be cfbe d33e
00000250: 26c1 433e 3e70 803e 2126 9c3e f679 0c3e
00000260: f0bd 7a3d af53 40bd d160 d0bd 40aa dcbe
00000270: 79a1 91be f652 f23c 12a9 a9be 329f ed3e
00000280: 185b 883e a386 86be 84e5 c33c f74d 8fbe
00000290: c7ae 723e 8680 4bbe e6f6 77be da63 babd
000002a0: 9af6 96be 04bf 96bd 9e2f b0be 92c9 8fbe
000002b0: e9c8 5a3d d372 96be 8012 8a3d 65aa a2be
000002c0: 5cc2 93bd 7773 02be 3d10 3f3e 5f13 5cbe
000002d0: dd74 743e 942b 85be 0dce 4e3e be3d 8c3e
000002e0: 5b1d f43e c4d5 40bd af09 053f ebc9 1cbe
000002f0: e58b 96be d391 103d 1a8a 803e 2ac9 9d3e
00000300: e065 f33e 659d 48be f4a0 5fbe a361 883e
00000310: 9a9d d33d 99f0 ab3e b2d1 943d 638d 2e3e
00000320: f4a0 1d3f aa7e 383e c368 a5be 023c 3a3e
00000330: 7b60 44be 11f0 a43e 5185 be3e afa5 40bd
00000340: 5216 333e 968f a0be 9a53 cabe 673c 633d
00000350: a71f 8bbe 4af1 973e f0b6 6a3e 107c 79be
00000360: 9a25 eebe 4bc6 38be 3bfc 53bc 1410 83bc
00000370: 6408 fa3e 40fe c0be cabb c0bd e6bc 2ebe
00000380: 1678 c8bd a501 aebe d329 4b3d 03d5 903d
00000390: 232f 0abc 3ef2 34be be5a 80be 67c7 f4bd
000003a0: 51e8 63be c35e e1be 399a f43e f3ec 9bbd
000003b0: c1c4 af3d 48ae e03e d09a 5e3e 6484 3cbe
000003c0: 13ee 6a3e 187e f83e 323b 153f 31f5 603e
000003d0: da3b a33e 55db d7be 55e9 8d3c e661 c9bd
000003e0: 3009 ae3e 2baf 7cbd 5951 38be 460f 5abf
000003f0: 7db7 45bd 374b a7be 8924 c7be 0b62 203f

fc1.bias f4 [128]
-0.3005417 -0.04207572 0.28290933 0.10794031 -0.031484097 0.15754502 -0.30330035 -0.22642645
0.03629367 0.47278202 0.49547395 -0.2790877 0.22085124 0.4257131 0.26457635 0.043541815
0.63143057 -0.17557167 0.08819289 0.12227101 -0.12022772 -0.25416264 0.24288657 0.2715132
0.06528914 0.45697975 0.16739468 0.25731358 -0.1516015 0.3248262 0.41947314 0.32013047
0.11656287 0.07260697 0.2938108 0.055531986 0.33740622 -0.10234383 -0.04064797 0.26922327
-0.053370126 -0.21480753 0.045981012 0.059617106 0.22648491 0.10257295 0.56185955 0.16646153
0.30842406 0.23152402 -0.23530002 -0.057969645 -0.19328395 -0.050226297 0.076809675 -0.13599555
0.32417905 0.36786714 0.20544265 -0.28741103 0.35401762 0.2815335 0.5954007 0.37116054
0.26801953 -0.19049759 -0.071584806 -0.012138056 0.2500855 0.07274423 0.19063564 -0.096583515
0.027357124 0.024273526 0.04615255 -0.10690565 -0.17378494 0.23192404 -0.2184861 0.09446763
0.37435046 0.41992465 0.44535437 0.059099052 -0.28640863 -0.103006564 0.3168037 0.056618445
-0.28615275 -0.22097552 0.49151888 -0.12129704 0.48687065 0.39398128 -0.12573281 0.40284884
-0.32775185 0.23882243 -0.18438095 0.04302704 0.31582627 -0.13344108 0.275652 0.3171022
0.17953578 -0.094683304 0.43257606 0.20674683 -0.22045524 -0.17522041 0.018613035 -0.10495344
0.13275383 0.4243799 -0.06379876 0.3211119 -0.28559354 -0.22266741 0.18522273 -0.19106726
-0.101226345 -0.031851243 0.15491714 0.16769464 -0.26890326 0.49320734 -0.1418175 0.40275615
00000000: 9ae0 99be 9757 2cbd 7ed9 903e cf0f dd3d
00000010: 78f5 00bd 7b53 213e 2f4a 9bbe 56dc 67be
00000020: aca8 143d 7c10 f23e c3ae fd3e 95e4 8ebe
00000030: d426 623e 11f7 d93e 8d76 873e e758 323d
00000040: 6fa5 213f 0fc9 33be 799e b43d 3969 fa3d
00000050: f339 f6bd 9b21 82be 42b7 783e c703 8b3e
00000060: 50b6 853d 40f9 e93e 8369 2b3e 9bbe 833e
00000070: 6c3d 1bbe 9f4f a63e 2fc5 d63e 24e8 a33e
00000080: 84b8 ee3d f7b2 943d 5f6e 963e 8275 633d
00000090: 82c0 ac3e a499 d1bd 7c7e 26bd a2d7 893e
000000a0: a29a 5abd 81f6 5bbe 9656 3c3d 1131 743d
000000b0: a9eb 673e c411 d23d 07d6 0f3f e474 2a3e
000000c0: c2e9 9d3e a214 6d3e 7df2 70be 9471 6dbd
000000d0: 3aec 45be 17ba 4dbd 644e 9d3d 6b42 0bbe
000000e0: ccfa a53e 1559 bc3e 8f5f 523e 8a27 93be
000000f0: cc41 b53e 2925 903e 2e6c 183f c108 be3e
00000100: db39 893e cd11 43be 0e9b 92bd b2de 46bc
00000110: 350b 803e edfa 943d fd35 433e 94cd c5bd
00000120: 0c1c e03c 46d9 c63c 750a 3d3d 59f1 dabd
00000130: aef4 31be 7f7d 6d3e d2ba 5fbe 3f78 c13d
00000140: ddaa bf3e 5d00 d73e 7d05 e43e d911 723d
00000150: 27a4 92be 1bf5 d2bd 1834 a23e bee8 673d
00000160: 9d82 92be 6847 62be 5da8 fb3e 956a f8bd
00000170: 1c47 f93e eab7 c93e 1ac0 00be 3442 ce3e
00000180: 17cf a7be de8d 743e 5cce 3cbe 1f3d 303d
00000190: fbb3 a13e c7a4 08be 4222 8d3e 385b a23e
000001a0: 3ad8 373e 52e9 c1bd 9c7a dd3e 71b5 533e
000001b0: 05bf 61be fb6c 33be 5d7a 983c d4f1 d6bd
000001c0: 9ff0 073e 5248 d93e eda8 82bd c768 a43e
000001d0: 5139 92be ed02 64be 07ab 3d3e 23a7 43be
000001e0: c24f cfbd 7376 02bd 99a2 1e3e 25b8 2b3e
000001f0: b0ad 89be ac85 fc3e 9b38 11be 0e36 ce3e

fc2.weight f4 [128, 128]
0.16818233 -0.20517719 0.05876351 -0.08617907 -0.004594183 0.040318746 0.06280902 0.19771813
-0.09842257 0.17306118 -0.13401783 -0.085174434 0.4621953 -0.13967657 -0.07259491 0.21213125
-0.02375212 0.046774104 0.14602908 0.049186554 0.07977259 0.0125827305 -0.006305097 0.064420834
0.034617364 0.038155578 0.23266697 0.07372289 -0.028250821 -0.037383 0.0408117 0.07721924
-0.022180032 0.14461166 -0.023753325 -0.23501338 0.053599264 0.14006343 0.059035815 0.07321845
0.48095605 0.036108345 0.3532133 -0.27399725 -0.00339454 0.09006066 -0.11840217 -0.12200068
0.20427968 0.08525211 0.20383662 -0.14500019 0.06409813 -0.09591174 0.0056372504 -0.058737285
-0.0126259625 0.05820487 0.2055596 -0.02845693 -0.30317274 -0.00029092433 0.31668177 -0.03454605
0.08465702 -0.014116128 0.5833189 0.024406057 -0.060854465 -0.1251281 -0.12316376 -0.26923314
-0.05422271 0.18545552 0.029568586 0.083965585 0.054325696 0.0930793 0.009458738 -0.1539488
0.14700077 0.043272186 -0.06697943 -0.1763114 -0.05376949 -0.038250208 0.13265549 0.060712878
0.010456611 -0.08811744 -0.16259171 -0.21241695 -0.18415092 0.08952115 -0.039343778 0.5639815
0.05250446 -0.13056205 -0.085515775 0.23316889 0.4640606 0.2710417 0.45848885 -0.08438936
0.0038865132 -0.3450765 0.16568205 0.066931255 -0.2214872 -0.0472186 -0.0017791954 0.40929544
0.07931518 0.058800705 0.06728205 -0.09235946 0.027646456 -0.108502395 0.08459518 0.04570521
0.13202071 0.041731354 0.1203966 0.17051193 0.0073276195 -0.09980513 0.019456927 -0.024871204
0.07472407 -0.15704338 -0.10550953 -0.16716339 0.0028401308 0.015400211 0.10998417 0.04647458
-0.06251139 0.12547427 -0.09999843 -0.14724912 0.21909906 -0.10940755 0.057885084 0.21977201
0.0475278 -0.003845756 0.14925769 0.13093443 0.043749027 0.06371888 0.005064151 0.055628523
0.03886532 0.10885382 0.23545313 0.21932241 -0.055577606 0.02360687 0.04976896 0.10161911
0.010742966 0.11877264 -0.030774295 -0.013612504 0.073047996 0.24765466 -0.08516894 0.16823354
0.2125231 -0.0074916193 0.36868593 -0.13454248 -0.057229575 0.20504688 -0.07765848 -0.046902385
0.19496948 0.14941625 0.1307379 -0.050560456 -0.026531566 -0.060389973 0.06583253 -0.0542118
0.09235314 -0.08026332 0.010833405 -0.0630054 -0.2827732 -0.07448839 0.15261292 -0.008615651
-0.0056283637 0.022073431 0.20098592 0.04999678 0.26056355 -0.12156202 -0.079608664 0.0017912203
0.103539184 0.08691022 0.20640127 0.04371486 0.0729599 0.040164907 0.04938002 -0.07273263
0.14128302 -0.03497317 -0.12559967 -0.16561823 -0.13072863 -0.076981276 0.19741663 0.06287409
0.014153681 -0.0844569 -0.17419386 0.016825022 0.03812222 -0.06972081 0.024685452 0.3895764
0.09061782 -0.12837009 0.048128825 0.05767556 0.35048985 0.34179738 0.41054025 0.036462616
0.11709513 -0.19718252 0.087777905 -0.022318758 0.004890315 -0.029814932 -0.10367977 0.19768925
-0.029450618 -0.119695745 0.0059262123 -0.022494772 0.03215107 0.04414225 0.1875886 0.18314445
-0.011088914 0.111612745 0.087891184 0.08715487 0.069592476 -0.20024651 0.009319329 -0.043688063
00000000: fd37 2c3e f819 52be 02b2 703d a77e b0bd
00000010: cd8a 96bb 4525 253d 04a2 803d 9f76 4a3e
00000020: c691 c9bd f336 313e f83b 09be ef6f aebd
00000030: dda4 ec3e 6007 0fbe a4ac 94bd ef38 593e
00000040: ce93 c2bc 3496 3f3d a688 153e d777 493d
00000050: d05f a33d cc27 4e3c fd9a cebb 12ef 833d
00000060: f0ca 0d3d 0649 1c3d 4040 6e3e 07fc 963d
00000070: 446e e7bc eb1e 19bd 2b2a 273d 1f25 9e3d
00000080: e6b2 b5bc 1415 143e 5596 c2bc 59a7 70be
00000090: e78a 5b3d ca6c 0f3e 8acf 713d 8ef3 953d
000000a0: df3f f63e 58e6 133d 60d8 b43e 5e49 8cbe
000000b0: ee76 5ebb b971 b83d d67c f2bd 7edb f9bd
000000c0: b12e 513e a998 ae3d 8cba 503e ee7a 14be
000000d0: e145 833d 606d c4bd afb8 b83b 8296 70bd
000000e0: 20dd 4ebc 3b68 6e3d 377e 523e 821e e9bc
000000f0: 7539 9bbe 3487 98b9 1d24 a23e 2980 0dbd
00000100: a960 ad3d 5547 67bc 6354 153f 36ef c73c
00000110: 8842 79bd 9521 00be 483d fcbd edd8 89be
00000120: a218 5ebd 0de8 3d3e d239 f23c 26f6 ab3d
00000130: 9f84 5e3d 5ca0 be3d d3f8 1a3c c1a4 1dbe
00000140: 5f87 163e 2d3e 313d 832c 89bd fa8a 34be
00000150: 663d 5cbd 40ac 1cbd d7d6 073e 11ae 783d
00000160: 3552 2b3c eb76 b4bd 717e 26be d483 59be
00000170: 0f92 3cbe dd56 b73d f126 21bd 1761 103f
00000180: eb0e 573d 0fb2 05be e522 afbd d3c3 6e3e
00000190: 5a99 ed3e fac5 8a3e 0dbf ea3e 54d4 acbd
000001a0: dfb4 7e3b dead b0be 8ea8 293e 4113 893d
000001b0: 8acd 62be 4a68 41bd e433 e9ba 2c8f d13e
000001c0: ff6f a23d 02d9 703d 2ccb 893d f526 bdbd
000001d0: d27a e23c 8136 debd 3d40 ad3d 6335 3b3d
000001e0: 7030 073e 7fee 2a3d 7e92 f63d ae9a 2e3e
000001f0: 871c f03b a266 ccbd 2264 9f3c b2be cbbc
00000200: ef08 993d fbcf 20be 6115 d8bd e12c 2bbe
00000210: 7d21 3a3b 2b51 7c3c 613f e13d 215c 3e3d
00000220: f905 80bd 547c 003e facb ccbd 79c8 16be
00000230: 815b 603e 1111 e0bd e918 6d3d ea0b 613e
00000240: 83ac 423d 1409 7cbb 02d7 183e ad13 063e
00000250: 2e32 333d 0b7f 823d 2df1 a53b bcda 633d
00000260: 3e31 1f3d c0ee de3d a01a 713e 0e96 603e
00000270: 58a5 63bd 3263 c13c 89da 4b3d ae1d d03d
00000280: 4403 303c 123f f33d 601a fcbc fb06 5fbc
00000290: 309a 953d 2f99 7d3e 0e6d aebd 6a45 2c3e
000002a0: a89f 593e 427c f5bb 67c4 bc3e 81c5 09be
000002b0: 8f69 6abd cff7 513e 690b 9fbd b71c 40bd
000002c0: 14a6 473e 9300 193e 28e0 053e 7b18 4fbd
000002d0: ba58 d9bc 7a5b 77bd 35d3 863d 310d 5ebd
000002e0: a523 bd3d 1861 a4bd 987e 313c fa08 81bd
000002f0: a6c7 90be 5e8d 98bd 9046 1c3e a928 0dbc
00000300: 236e b8bb 57d3 b43c 41cf 4d3e 6cc9 4c3d
00000310: 9668 853e 82f5 f8bd de09 a3bd 61c7 ea3a
00000320: 5a0c d43d fcfd b13d db5a 533e 5a0e 333d
00000330: 006c 953d f583 243d b442 4a3d d8f4 94bd
00000340: 7fac 103e 0740 0fbd 339d 00be d397 29be
00000350: badd 05be 5ca8 9dbd 9627 4a3e 22c4 803d
00000360: d7e4 673c bdf7 acbd e05f 32be a1d4 893c
00000370: 0c26 1c3d c9c9 8ebd 2539 ca3c 8f76 c73e
00000380: d695 b93d 7373 03be bb22 453d 353d 6c3d
00000390: 6873 b33e 1100 af3e 5532 d23e d359 153d
000003a0: 92cf ef3d 37ea 49be e7c4 b33d d4d5 b6bc
000003b0: ef3e a03b 723e f4bc 0f56 d4bd 0d6f 4a3e
000003c0: 6c42 f1bc 0b23 f5bd ac30 c23b f546 b8bc
000003d0: d7b0 033d 81ce 343d 3a17 403e 388a 3b3e
000003e0: 47ae 35bc 3995 e43d 4b00 b43d 417e b23d
000003f0: 8086 8e3d 6c0d 4dbe 19b0 183c 41f2 32bd

fc2.bias f4 [128]
-0.016148865 0.12029978 -0.024034748 0.09867334 0.102699056 0.036777254 0.025146445 0.084323235
-0.03152505 0.034863345 -0.06623177 0.11567523 -0.08718162 0.22016856 -0.059871357 0.11260138
-0.010751558 0.1058475 0.0031762733 0.07026848 0.099729404 0.08053942 0.03478265 -0.02101095
0.21374835 -0.07995081 -0.031605255 -0.04906973 0.03118677 0.09396631 0.0202981 0.14977609
0.091009684 0.006654273 -0.02823239 0.15094143 -0.015951797 -0.03935661 0.078358136 0.08712432
0.07778619 0.14106397 -0.042370852 0.11491779 0.07312444 0.107927136 -0.014437458 0.15519388
0.009457056 0.07755907 0.11314154 0.020256251 0.15651415 0.13945602 -0.0039022653 -0.022197543
-0.09613066 0.10378508 -0.039054114 0.082579285 0.014013696 0.039697725 0.078162454 0.098091625
-0.021837285 0.022610558 0.08621579 0.061300963 0.042796955 0.01696882 0.08357024 0.03654126
-0.030211637 -0.0013009651 0.08713266 0.06725737 0.10331202 -0.0129733905 0.03668744 0.117966
-0.05247009 0.11010808 -0.056512114 0.0648188 0.040595286 0.05092961 0.04327819 0.05604835
-0.0074018613 0.050390024 0.21262297 0.11261996 -0.07778531 -0.00016099693 0.014778993 0.06389264
0.025242403 0.0018861808 -0.03468034 0.0048113433 -0.015073372 -0.034971807 0.14689845 0.007941131
-0.002269679 0.0039988533 -0.08743585 0.09168347 -0.031616565 -0.023385938 -0.09221075 -0.02255588
0.09404338 0.0939596 0.0114095975 0.29156306 -0.026196202 0.11986069 -0.015811186 -0.04411154
0.16851945 0.14754023 0.10150455 0.03621936 -0.004977921 -0.036446255 -0.043284237 0.062369466
00000000: a04a 84bc bb5f f63d 85e4 c4bc 4015 ca3d
00000010: e253 d23d bfa3 163d ebff cd3c a9b1 ac3d
00000020: 6920 01bd decc 0e3d 86a4 87bd 23e7 ec3d
00000030: 478c b2bd de73 613e ab3b 75bd 8d9b e63d
00000040: 4d27 30bc 93c6 d83d 0629 503b ece8 8f3d
00000050: ee3e cc3d daf1 a43d 4178 0e3d 281f acbc
00000060: d9e0 5a3e 40bd a3bd 8374 01bd 57fd 48bd
00000070: 667b ff3c 6971 c03d 3348 a63c e75e 193e
00000080: 4963 ba3d 160c da3b 9d47 e7bc 6490 1a3e
00000090: 58ad 82bc 6634 21bd 3b7a a03d 3c6e b23d
000000a0: 5e4e 9f3d 1373 103e 0f8d 2dbd 055a eb3d
000000b0: 44c2 953d e708 dd3d 168b 6cbc 25eb 1e3e
000000c0: c5f1 1a3c 4ad7 9e3d c0b6 e73d 70f0 a53c
000000d0: 3f45 203e 8fcd 0e3e 26bd 7fbb 9fd7 b5bc
000000e0: 27e0 c4bd 468d d43d 35f7 1fbd 541f a93d
000000f0: b499 653c 159a 223d a313 a03d 43e4 c83d
00000100: 1be4 b2bc c739 b93c e791 b03d b816 7b3d
00000110: dc4b 2f3d 3202 8b3c e026 ab3d 4aac 153d
00000120: 657e f7bc 2585 aaba 9c72 b23d 3bbe 893d
00000130: 4195 d33d 588e 54bc 9245 163d 2998 f13d
00000140: e1ea 56bd 5880 e13d 3f79 67bd b8bf 843d
00000150: 3e47 263d 919b 503d 7944 313d f492 653d
00000160: 508b f2bb c565 4e3d d6b9 593e 4ba5 e63d
00000170: e84d 9fbd 49d1 28b9 9723 723c 25da 823d
00000180: 28c9 ce3c ba39 f73a f90c 0ebd 79a8 9d3b
00000190: 4ef6 76bc 993e 0fbd 8c6c 163e 841b 023c
000001a0: e5be 14bb d008 833b 9111 b3bd 8bc4 bb3d
000001b0: 5f80 01bd de93 bfbc fdd8 bcbd 1cc7 b8bc
000001c0: d199 c03d e46d c03d 52ef 3a3c c147 953e
000001d0: 6b99 d6bc 8579 f53d 7686 81bc 4dae 34bd
000001e0: 5d90 2c3e c914 173e 9ee1 cf3d c05a 143d
000001f0: d41d a3bb ab48 15bd d04a 31bd 2077 7f3d

fc3.weight f4 [4, 128]
0.18584682 0.094098926 -0.09967589 -0.050900713 0.2647126 -0.03948247 -0.021056987 -0.018467106
-0.29415217 -0.1044916 0.018032119 -0.16116704 -0.048066005 0.24248628 0.05934014 0.27559176
-0.059661046 0.28741884 -0.06707451 -0.11174353 -0.12309383 -0.6576097 -0.013612698 -0.08952027
0.18765639 0.076241635 0.0699503 -0.14672741 -0.056470707 -0.004417309 -0.06946689 0.21596046
0.16243255 -0.084754646 0.008230949 0.18551339 -0.08348933 0.012961725 -0.07030372 -0.032809287
0.05673031 0.20233679 -0.14034685 0.20654993 0.0020467355 -0.1608521 -0.059988756 0.27595186
-0.045748007 0.033626705 0.00901391 0.023832852 0.2524013 0.2701731 0.028564053 0.05898033
-0.020862658 0.012051221 -0.0054652304 -0.116287544 0.059007533 -0.17347282 0.15628564 -0.097740866
-0.11255179 0.015542818 -0.15895301 -0.05047419 -0.030151857 -0.014570647 0.16413052 -0.26583102
-0.09311613 0.022099383 -0.017381834 -0.124323994 0.022516271 -0.09630931 -0.02088099 -0.6132427
0.04600703 0.2910993 -0.03914595 -0.18838082 -0.07657671 -0.028272709 0.057031997 -0.005618743
-0.06279363 0.22639857 0.34856787 -0.046648674 0.03615362 0.13309509 0.0079983715 -0.019953053
0.0516153 -0.0012809159 0.09629535 -0.020963268 -0.014934346 0.07178845 0.32734123 -0.41363618
0.037138566 0.08171311 -0.004083667 0.29027823 0.07048348 -0.0068862415 0.010095857 -0.08547717
0.07094366 0.07991492 0.08023349 0.17062405 -0.07672793 -0.19831245 0.05665042 -0.11544694
-0.09607435 0.21644877 -0.084187925 0.063062124 -0.030556286 0.013769064 -0.08245626 0.015489814
0.10321784 0.07326607 -0.16545175 -0.15502319 0.30668792 0.021781448 -0.12692505 -0.4069645
-0.012289871 0.07650372 0.05300842 0.09370742 0.003409406 0.17949632 0.07436641 0.195965
-0.047031127 0.15968098 0.12675665 0.16343796 0.046750132 0.08336829 -0.059481952 -0.007138644
0.22367465 -0.040309664 -0.0675211 0.13778098 -0.0028615708 -0.0905664 -0.07672632 0.22391854
0.2544483 -0.14404562 -0.06747491 0.004234695 0.05712456 -0.052907087 -0.11712042 -0.02009431
-0.5860072 0.07849504 -0.014785305 -0.48595345 0.1779935 -0.042450733 -0.01663287 0.34456518
-0.09837851 0.10838298 -0.12132334 -0.034624975 0.16438635 0.248303 0.065465055 -0.040783197
-0.07754834 -0.12959063 -0.0022999938 0.038648125 0.15023072 -0.021191204 0.3347676 -0.055057425
0.0865151 -0.03216392 0.22855712 0.06850557 -0.11562316 0.067842744 -0.116153695 0.13406892
-0.051446244 0.055597052 -0.10507769 0.0025486422 -0.11959165 -0.104863726 -0.030908963 0.15931149
0.07344367 0.25521576 -0.080507 0.11197016 -0.05768882 -0.09770123 0.08299492 0.07815298
0.06361163 -0.42945084 0.060185798 -0.12043977 0.032815598 -0.25174102 0.0004442241 0.076783925
-0.09387673 -0.05177682 0.01342646 -0.091323584 -0.024321202 -0.017277822 0.34029567 0.03046003
0.10380364 0.14676239 0.030026201 -0.40585864 -0.016307374 0.058152582 0.063070364 -0.17141904
-0.44228294 -0.07273948 -0.09109027 0.2734852 -0.044625103 0.31257105 0.09199642 -0.092662625
0.29480708 0.05583381 -0.08202778 -0.0029807214 0.025485806 -0.17027496 -0.10323804 0.015983135
00000000: a14e 3e3e f0b6 c03d df22 ccbd 447d 50bd
00000010: 6988 873e 5fb8 21bd b47f acbc 5448 97bc
00000020: 1d9b 96be b1ff d5bd 18b8 933c f908 25be
00000030: dce0 44bd 534e 783e a60e 733d 5d1a 8d3e
00000040: 245f 74bd 9028 933e 5c5e 89bd cbd9 e4bd
00000050: 9e18 fcbd 1c59 28bf cb07 5fbc 6756 b7bd
00000060: ff28 403e 9324 9c3d 1a42 8f3d b63f 16be
00000070: d44d 67bd 13bf 90bb a844 8ebd bd24 5d3e
00000080: b854 263e d893 adbd 1adb 063c 39f7 3d3e
00000090: 74fc aabd 6a5d 543c 66fb 8fbd 0863 06bd
000000a0: 0b5e 683d 6031 4f3e 16b7 0fbe d381 533e
000000b0: 8622 063b 6ab6 24be c5b6 75bd 9049 8d3e
000000c0: 4362 3bbd 28bc 093d 14af 133c 1d3d c33c
000000d0: be3a 813e 2154 8a3e 29ff e93c 5c95 713d
000000e0: 2ae8 aabc 7c72 453c ad15 b3bb 2a28 eebd
000000f0: e2b1 713d dca2 31be 5809 203e 5d2c c8bd
00000100: 8e81 e6bd 4ea7 7e3c 94c4 22be 06be 4ebd
00000110: 0701 f7bc b9b9 6ebc d511 283e 011b 88be
00000120: abb3 bebd c409 b53c 5964 8ebc 949d febd
00000130: 0b74 b83c d13d c5bd 9c0e abbc 79fd 1cbf
00000140: de71 3c3d f80a 953e 8157 20bd e7e6 40be
00000150: 40d4 9cbd 2b9c e7bc 629a 693d 6f1d b8bb
00000160: f299 80bd 07d5 673e 7d77 b23e ae12 3fbd
00000170: d115 143d 144a 083e 9a0b 033c 9674 a3bc
00000180: 916a 533d 68e4 a7ba 7f36 c53d 29bb abbc
00000190: 30af 74bc d305 933d 4599 a73e 1fc8 d3be
000001a0: 9c1e 183d 3459 a73d 48d0 85bb 599f 943e
000001b0: a559 903d fba5 e1bb 1869 253c a80e afbd
000001c0: e94a 913d 6faa a33d 7551 a43d 12b8 2e3e
000001d0: 8823 9dbd 6b12 4bbe 450a 683d 726f ecbd
000001e0: a1c2 c4bd bfa4 5d3e b86a acbd b726 813d
000001f0: 2d51 fabc a497 613c d4de a8bd fdc8 7d3c
00000200: e063 d33d 850c 963d 2f6c 29be 66be 1ebe
00000210: 3306 9d3e 026f b23c a4f8 01be a75d d0be
00000220: 755b 49bc fbad 9c3d 5b1f 593d ade9 bf3d
00000230: 5770 5f3b e2cd 373e 6b4d 983d 0dab 483e
00000240: b6a3 40bd 6983 233e 7fcc 013e 485c 273e
00000250: 117d 3f3d febc aa3d 59a3 73bd 49eb e9bb
00000260: f80a 653e bf1b 25bd 8148 8abd 7516 0d3e
00000270: 3189 3bbb e07a b9bd b022 9dbd e74a 653e
00000280: 0c47 823e b280 13be 4930 8abd 32c3 8a3b
00000290: 71fb 693d 1ab5 58bd d5dc efbd d39c a4bc
000002a0: 9104 16bf 02c2 a03d 103e 72bc e4ce f8be
000002b0: ee43 363e d2e0 2dbd a841 88bc d96a b03e
000002c0: ac7a c9bd e5f7 dd3d 5f78 f8bd ebd2 0dbd
000002d0: e554 283e 2443 7e3e 8b12 863d 480c 27bd
000002e0: aad1 9ebd 68b3 04be 7ebb 16bb 7f4d 1e3d
000002f0: 15d6 193e 2d99 adbc a966 ab3e e583 61bd
00000300: d42e b13d 51be 03bd e10a 6a3e a64c 8c3d
00000310: d6cb ecbd 23f1 8a3d fde1 edbd 5d49 093e
00000320: 4cb9 52bd bcb9 633d f932 d7bd 1f07 273b
00000330: 78ec f4bd cbc2 d6bd cb34 fdbc 8d22 233e
00000340: a369 963d a4ab 823e dbe0 a4bd 9c50 e53d
00000350: 1d4b 6cbd 9517 c8bd 3ef9 a93d ab0e a03d
00000360: d046 823d fbe0 dbbe 6285 763d 20a9 f6bd
00000370: a669 063d 33e4 80be c0e6 e839 e440 9d3d
00000380: 7142 c0bd ee13 54bd a8fa 5b3c dc07 bbbd
00000390: 423d c7bc 388a 8dbc 3c3b ae3e 5087 f93c
000003a0: 0197 d43d e148 163e 82f9 f53c b4cc cfbe
000003b0: 0b97 85bc 6731 6e3d 092b 813d 7988 2fbe
000003c0: e972 e2be 70f8 94bd 898d babd 4106 8c3e
000003d0: d0c8 36bd 5009 a03e 9e68 bc3d e7c5 bdbd
000003e0: f4f0 963e feb1 643d 2efe a7bd 3558 43bb
000003f0: 9cc7 d03c 8f5c 2ebe 776e d3bd 10ef 823c

fc3.bias f4 [4]
0.083191484 0.01881253 -0.08399534 0.08372863
00000000: 4c60 aa3d bc1c 9a3c c005 acbd ea79 ab3d
