Martti/Graphs/MarttiWeights-3x3x1-b128-lr0.001000.pt (torch, 82263 bytes, 6 tensors)

fc1.weight f4 [128, 18]
000000 66 64 89 3c 97 6e 78 be 7e ff a0 3e 2c 02 12 be
       0.016771507 -0.24260937 0.31444925 -0.14258641
000010 27 76 f0 be b1 6a 50 3d 7c 53 6c 3e f8 b9 23 3e
       -0.46965143 0.050883 0.23078722 0.1598891
000020 d6 87 77 3b 2a 1d 07 be 3a 31 d9 3e f3 d8 62 bb
       0.0037770174 -0.13194719 0.4242037 -0.0034614175
000030 b6 35 b7 bc 30 38 32 3f 83 d4 a5 3e a9 8b 5e be
       -0.022364479 0.69616985 0.32388696 -0.21732964
000040 9b 94 98 bd c3 74 9f be c0 9a c2 3d 2e 4d 7f be
       -0.07450219 -0.3114377 0.095021725 -0.24931785
000050 21 2f de bc b6 8a ee 3d 48 6f 05 bd 36 07 17 3e
       -0.027122082 0.11647551 -0.03257683 0.14748845
000060 db 39 e8 3c 60 96 ef bd 3e 1d 43 be 7c 75 3b 3e
       0.0283479 -0.11698604 -0.19054124 0.18306535
000070 8f e0 0c 3f e1 51 28 3e 24 e9 ed 3d 09 a8 d9 bc
       0.5503015 0.16437484 0.11616734 -0.026569383
000080 ac f9 93 3e 04 17 bf bb b0 d9 2b be e1 2a d1 3e
       0.28901422 -0.005831601 -0.1678226 0.40853027
000090 9e 5e 21 be c0 48 34 bd 42 c9 1b be 31 9a 1e 3e
       -0.1575875 -0.044014692 -0.15213493 0.15488507
0000a0 be d7 40 3e de 39 a9 be 56 b3 99 be 65 da 3a be
       0.18832299 -0.33051962 -0.30019635 -0.18247373
0000b0 f4 e3 ff bd 66 1e b5 3e 84 0d b6 3e 55 90 7b 3e
       -0.124946505 0.35374755 0.35557187 0.24566777
0000c0 c4 61 19 3e 2f 01 9d be 73 b4 0f 3f 59 7c f0 3e
       0.14978701 -0.30664966 0.5613472 0.4696987
0000d0 1e 68 ae 3e 51 2c 76 3e ee e3 84 be 85 c7 24 be
       0.3406381 0.24040343 -0.25955147 -0.16091736
0000e0 c2 3f 12 bd ef 98 bc be f7 f7 60 bd 84 d8 43 3e
       -0.035705335 -0.3683543 -0.054923978 0.19125563
0000f0 d0 48 e8 3d de bc c3 3d c8 d2 9e 3e 99 c6 74 bd
       0.11342013 0.09557508 0.31020188 -0.05975971
000100 ea 3c af 3e 55 b9 83 3e c4 ed fa 3e a8 07 cd 3d
       0.3422616 0.25727335 0.49009526 0.10011226
000110 c9 a2 09 bf ea 47 a6 be 99 dc 1a be 19 51 c4 3d
       -0.53764015 -0.3247674 -0.15123214 0.09585781
000120 29 32 4b ba e3 df 90 bd 7f dc 4c be b5 2f 73 be
       -0.000775131 -0.07073953 -0.20005988 -0.23748668
000130 00 0c 33 be 47 29 82 3e e7 44 90 3e 89 87 af 3e
       -0.17485046 0.25422117 0.28177568 0.34283093
000140 a1 b0 99 3e 6c 73 03 3d 31 05 5a 3e 43 d8 c8 3e
       0.3001757 0.032092497 0.21291043 0.39227495
000150 b1 d5 d0 3c 77 1c d7 3e 13 dc 06 3e f4 6f cc be
       0.025492521 0.42013904 0.13169889 -0.39929163
000160 d6 af 63 be 15 02 87 bd 52 28 11 bc 5e c4 05 bd
       -0.22235045 -0.06592194 -0.008859711 -0.032657973
000170 6c d9 27 bd b6 32 e7 3d 88 42 2c 3e a0 6b b9 3e
       -0.040978834 0.11288969 0.16822255 0.36214924
000180 4f c4 1b 3e c9 07 04 bf ca d2 a5 3e 19 2c 5e 3d
       0.15211605 -0.5157438 0.32387382 0.054241274
000190 51 44 34 3c 98 64 42 be c0 bc d5 be 08 86 0e 3e
       0.011002616 -0.18983686 -0.41745567 0.13918316
0001a0 e1 7e 8f be 6e 41 47 be 30 e4 56 3f 21 17 5c 3e
       -0.28026488 -0.19458553 0.83941936 0.21493198
0001b0 bf 4b b4 3e 4a 78 45 be 64 5a d2 be dc 94 4a 3e
       0.3521404 -0.19284168 -0.41084588 0.19783348
0001c0 41 85 2b 3e 6e 2d 0c be c0 17 30 bd 75 b6 0d be
       0.16750051 -0.13689205 -0.0429914 -0.13839133
0001d0 46 88 b4 3e 34 91 42 bf f6 92 7f 3e 1c 99 be 3e
       0.35260218 -0.7600281 0.24958405 0.37226188
0001e0 2e 59 14 3e b5 be 23 3e e3 ce e0 3d c6 6b 75 3b
       0.14487144 0.15990718 0.109769605 0.0037448271
0001f0 7d 05 51 be e8 1d 2c be 77 58 e9 3d 28 96 a9 be
       -0.2041225 -0.16808283 0.113938265 -0.33122373
000200 42 ca 6d 3d 33 0f 2f bc e4 f0 d9 3e 5d 92 f7 bd
       0.058054216 -0.010684776 0.42566597 -0.120884635
000210 b1 4a 01 be d2 0c 12 3e 6d 46 80 3e 35 16 48 be
       -0.12626149 0.14262703 0.2505373 -0.19539721
000220 e7 1f 16 3f 82 ad fc bc 9b 9a ea 3e ae 48 22 3b
       0.5864243 -0.030844454 0.4582108 0.0024762559
000230 c8 b3 b6 3e 60 6b 20 3e c5 a2 6c be cd 89 a6 3b
       0.35684037 0.1566596 -0.23108967 0.005082345
000240 05 9b 79 3d 61 08 f7 3d ee ea a2 bd 8c 81 ed 3d
       0.060938854 0.12062145 -0.079549655 0.11596975
000250 dd af 5c 3e d1 2e 30 3d 4a d2 b4 be 8d e7 29 bf
       0.21551462 0.043013398 -0.35316688 -0.66368943
000260 d4 4b d7 3e b7 49 f2 3c b4 f9 40 3d 5f 3c 70 bd
       0.4205004 0.029576166 0.047113135 -0.058651324
000270 6c 96 fd 3d 40 8e 37 bd 07 fa 89 be 45 90 06 3f
       0.12382206 -0.044813395 -0.26948568 0.5256389
000280 63 4a 29 3f cb 58 35 bf d0 8a 47 3d 02 c6 71 3e
       0.6612913 -0.7083861 0.048716366 0.2361069
000290 f1 8e 67 be 00 97 c9 bd 2f 5a 37 be b7 fc 42 3e
       -0.22613122 -0.09843254 -0.17905496 0.19041716
0002a0 8e 28 bb bc 9b 95 51 3e ee a5 39 be a0 a9 d4 3e
       -0.022846486 0.20467226 -0.18129703 0.41535664
0002b0 ca 7f 29 be ab 73 75 3e 5e d1 47 be c2 b9 cc 3e
       -0.16552654 0.23969905 -0.19513461 0.39985472
0002c0 ba 99 ef 3d bd 30 b1 3e fb 64 6c bc df b4 8f 3e
       0.11699243 0.34607497 -0.0144283725 0.2806768
0002d0 8a 5d 97 3e 00 73 a4 bd 60 e0 51 3e 43 d6 26 3e
       0.29563552 -0.08029747 0.20495749 0.16292672
0002e0 2a 0c ab be 53 07 c1 bd 13 3a a9 bd e6 78 85 3e
       -0.33407718 -0.09425225 -0.0826303 0.260688
0002f0 18 6b 56 3c ca d5 8f be bd 7b 6f 3e fc f7 16 bd
       0.013087057 -0.28092796 0.23387046 -0.03685759
000300 b0 05 08 3c 37 5f d5 3e ca f7 88 3d f0 1f 0f 3e
       0.008302137 0.41674206 0.06687887 0.13977027
000310 d7 4f 62 3e dc 34 8d 3d 66 6a 28 3e f9 11 a6 bc
       0.22100769 0.06894848 0.16446838 -0.020272242
000320 72 11 3c 3e 3b 6f 4e 3e ad 3a 6d 3e 60 77 4c be
       0.1836603 0.20159619 0.23166914 -0.19967413
000330 8d 5d 7a 3e 3e cd 94 3d 7e f9 21 bf 50 60 bc 3d
       0.2444975 0.07265709 -0.6327132 0.09198058
000340 75 34 f0 bd c5 e4 27 3c ad f3 94 3e 2b d1 14 3e
       -0.117287554 0.010247414 0.2909216 0.14532916
000350 74 b3 22 3e fe 9f 58 bf 06 67 35 be 38 b7 40 3f
       0.15888768 -0.8461913 -0.17715082 0.7527957
000360 31 6c 93 3e 78 a4 49 bd 2c 49 84 3e 53 75 99 bc
       0.2879348 -0.049229115 0.25837076 -0.018732702
000370 dd 1b d0 3d 94 26 ac 3d 9e b2 06 bf bf ad 7d 3e
       0.101615645 0.08405796 -0.526163 0.2477331
000380 bd 38 4f be 7c d8 4c be f4 14 a2 be 8e 90 46 be
       -0.20236488 -0.20004457 -0.3165661 -0.1939108
000390 e3 57 84 be bf bb fd 3d 56 4f 06 be ed 79 d0 3e
       -0.25848302 0.12389325 -0.13116202 0.40718022
0003a0 e2 b9 d9 3c a3 59 17 3f b1 97 79 3d 86 b2 7c 3c
       0.026577894 0.5912115 0.06093568 0.015423423
0003b0 d0 55 c6 bd 77 fa 19 3e e3 08 05 be fa 12 48 bd
       -0.09684336 0.15036951 -0.12991671 -0.048846222
0003c0 65 01 f2 bd ea cd 85 3e 15 c5 8d be 64 00 8e be
       -0.11816672 0.26133662 -0.27689424 -0.27734673
0003d0 ae 3b 56 bd 19 ec 5b be a9 56 08 3e 95 e1 db 3e
       -0.05230301 -0.21476783 0.13314308 0.42945543
0003e0 33 51 15 bd 22 8e bd 3d 29 a2 f1 bd cd 8b d8 3e
       -0.03645439 0.09255625 -0.11798508 0.4229416
0003f0 2b 3e c3 3d 14 d6 4d 3c 85 49 ed 3d f5 3f 0e 3d
       0.09533342 0.012563247 0.11586288 0.034728963

fc1.bias f4 [128]
000000 6a f2 df 3d 4f fd 8c 3e 67 71 1a 3e 60 58 5e 3e
       0.10934909 0.2753701 0.15082322 0.217134
000010 25 32 51 3d 4b 13 ef 3d ff 9c 36 be 12 b3 8b 3c
       0.051073212 0.11673602 -0.17833327 0.01705316
000020 ea 88 e4 bd fc 9a e2 3d b0 04 6c 3e 1f f6 f5 bd
       -0.11158927 0.11064717 0.23048663 -0.120098345
000030 ce e6 ec bd 84 5e 59 3e 4f df d0 3d 85 87 df bc
       -0.1156746 0.21227461 0.10198843 -0.0272863
000040 00 e0 1f 3e d0 06 4e bd 9b 9c be 3d 35 26 10 3d
       0.15612793 -0.050299466 0.09307214 0.035192687
000050 24 1e 50 3e 87 87 1f 3e a2 5e 23 be da 28 87 3d
       0.20323998 0.15579043 -0.15954068 0.06599589
000060 87 8f 7b bc 65 66 96 3c 20 47 fe 3d 27 1e 38 3e
       -0.015354044 0.018359372 0.1241591 0.17980252
000070 63 a7 2e be f3 39 1a 3e c0 5f f8 bd d0 f3 87 3e
       -0.1705604 0.15061168 -0.12127638 0.26553202
000080 6a d4 d4 3d b3 e3 8d 3d 27 b3 59 3d 6d 55 9e 3c
       0.10392077 0.06928196 0.05314937 0.019327844
000090 43 58 08 be ee 82 15 3d 84 3e 75 3e 7a da 58 3d
       -0.13314919 0.036501817 0.23949629 0.05294273
0000a0 fa 27 84 3e 2c 72 27 bc fb 26 44 bd 0c 8a b5 bb
       0.2581175 -0.010220092 -0.047888737 -0.005540138
0000b0 67 02 07 3e 9c 26 2c 3e ec a8 90 3e 4f 72 89 3d
       0.1318451 0.16811603 0.28253877 0.06711256
0000c0 2c 4e a5 3e c5 64 f0 3e 2e 98 87 3e 85 8d 3a 3e
       0.32286203 0.4695188 0.2648329 0.18218048
0000d0 15 f7 18 be 6d 6b 2f bd 51 e5 13 3f 14 b0 b3 bd
       -0.14938004 -0.04282706 0.57771784 -0.087738186
0000e0 27 f4 07 3e 5f 0b b2 bd f4 1f 77 3e 46 e0 c4 3d
       0.1327673 -0.08693575 0.24133283 0.09613089
0000f0 71 73 49 3e b5 c5 3f 3d 8d c2 ac 3d 86 d0 6c bd
       0.19672944 0.046819407 0.08435545 -0.05781605
000100 1f 62 43 3e 2f 50 8a bd 84 fc 57 3e 33 3d 36 bd
       0.19080399 -0.06753575 0.21092421 -0.044491958
000110 6b 3e 60 3d d6 b4 b5 3e 28 bf 78 3b 20 32 92 bc
       0.054747026 0.3548953 0.0037955735 -0.017846167
000120 d5 8b 0c be 8f cc fd 3e a6 6c ea bd c4 7f a5 3d
       -0.13725217 0.49570128 -0.11446504 0.0808101
000130 45 b1 81 3d 6c 94 3c 3e d9 81 da bd 68 19 f0 3d
       0.063326396 0.18415993 -0.10669298 0.11723596
000140 2f 5e b5 bd 68 e8 6b 3d 56 95 4e 3e 10 ce 89 3e
       -0.08855855 0.057594687 0.20174155 0.26915026
000150 4e 57 4d 3c 75 a1 d0 3d 49 8a c5 3d 5a 51 32 3e
       0.012533022 0.101870455 0.096455164 0.17413846
000160 64 87 5a 3e 7b 02 71 bd ad e6 bb bd 96 aa a2 bd
       0.2134071 -0.058840256 -0.09174857 -0.07942693
000170 c7 bc 95 3e 77 c0 71 3e ed c2 9a 3e 05 9b 8d 3e
       0.29245588 0.23608576 0.30226842 0.27657333
000180 71 88 09 3e 28 23 c0 3d c6 4c 39 3e a6 86 19 bd
       0.13430955 0.093817055 0.18095693 -0.037481926
000190 9e 17 47 bd 39 6b 7b 3e 53 78 de bd e0 a8 ec bc
       -0.048606507 0.24552621 -0.10862794 -0.02888912
0001a0 0f 42 0a be 93 4e 18 be 95 28 92 3d 44 06 70 3e
       -0.13501762 -0.14873724 0.07136647 0.2343989
0001b0 90 76 31 3e be e1 87 3e 72 79 dd 3d b8 20 ea bd
       0.17330384 0.26539415 0.108141795 -0.11432022
0001c0 bb 74 14 3e 02 f8 1b 3e 53 5e d5 bd e5 ef 86 3e
       0.14497654 0.15231326 -0.104183815 0.263549
0001d0 b0 c7 80 3e c4 8e 1a be cb e6 91 3e c7 4d da 3d
       0.2515235 -0.15093523 0.28496394 0.10659366
0001e0 6a 30 b1 bd d8 05 bd 3d 09 d5 9c 3d 21 0e 2a 3e
       -0.086518124 0.0922963 0.07657821 0.16606952
0001f0 87 3f f5 3d f9 e4 81 3e 55 22 15 bd 6b 92 62 3d
       0.119750075 0.25370005 -0.036409695 0.055315416

fc2.weight f4 [128, 128]
000000 82 7b 0c 3e 5b 2b 9e 3c aa ed 74 3d de 5e ac bd
       0.1371899 0.019307783 0.059796967 -0.08416532
000010 1c cd a9 bd 44 58 89 be 84 b7 8f bb 74 a4 e0 3d
       -0.08291075 -0.26825154 -0.0043858904 0.10968867
000020 2a 96 fc bb 7d 62 37 3d 04 85 d6 3d f7 3f 46 3e
       -0.0077083306 0.04477166 0.104745895 0.19360338
000030 e1 b5 c2 3e 47 70 e0 3d 33 b0 24 be 44 a9 12 3e
       0.38029388 0.10958915 -0.1608284 0.14322382
000040 1e 3d 54 3c d6 40 d7 3e d2 79 dc bd a2 2e 28 3e
       0.012954025 0.42041653 -0.10765423 0.16424039
000050 34 35 7e bc 1f dc 75 bc 4d 3a b9 3e 28 81 e2 bb
       -0.015515614 -0.015006094 0.36177292 -0.0069123693
000060 49 9f aa 3d 57 97 b8 3c 82 5f 08 bc 87 fe d3 bc
       0.083311625 0.022533102 -0.008323552 -0.025878204
000070 a6 44 8f 3d ca d3 47 3c 37 ef c1 3c e4 f2 04 3e
       0.069955155 0.012196491 0.023673637 0.1298328
000080 05 45 8f 3d f0 36 1d 3d 5d a6 68 bd e4 b8 71 bd
       0.06995586 0.03838247 -0.05679928 -0.059014216
000090 95 b1 cb 3d c4 c6 4d 3e 8e e4 72 3c c4 39 85 bd
       0.099459805 0.20095354 0.0148249995 -0.065051585
0000a0 17 82 c5 bc 83 1c 4c 3d 05 f2 b3 3d b9 3e e3 3d
       -0.024109883 0.04983188 0.08786396 0.11095948
0000b0 53 2d ba 3c 2b ad be 3d cf 98 4c 3d 99 cc ba 3d
       0.02272669 0.09310373 0.049950417 0.09121055
0000c0 1b 31 12 3d cb 54 86 3d 3f f9 f9 3c 71 97 76 bd
       0.035691362 0.06559142 0.030514358 -0.06020302
0000d0 e4 fd 1e 3d ed e5 fd 3e 09 d3 1b bd fd c1 1d 3d
       0.038816348 0.49589482 -0.038043056 0.03851508
0000e0 73 70 75 3d f0 2a 3d bd 17 a7 88 3c 82 4f de 3d
       0.059921693 -0.046183527 0.016681237 0.10855009
0000f0 0a a8 b0 3d 76 e9 6c bb b5 6c 82 be 83 2a 3a 3c
       0.08625801 -0.0036149896 -0.25473562 0.011362675
000100 60 ba 39 be 68 01 7c 3e a5 39 21 bd e1 90 29 3e
       -0.18137503 0.24609911 -0.039361615 0.16559173
000110 34 32 08 be c8 0e 33 bc 8b f0 76 3e 37 cb 73 3d
       -0.13300401 -0.010928817 0.24115197 0.059519973
000120 2c 33 cc bc 4c 3a 9c bd f4 f1 02 be 38 c0 8a 3e
       -0.024926744 -0.07628307 -0.1278761 0.27099776
000130 81 9c 40 be 4a dc 4b be e1 7b 74 bd 3a 96 57 3e
       -0.18809702 -0.19908252 -0.059688453 0.210534
000140 29 f7 ea 3b 59 ae 06 bd 56 a8 ad 3e be 3c c1 3b
       0.007170577 -0.032881115 0.33917493 0.0058971336
000150 92 29 94 bc 5e 24 8a bd a9 f8 b8 bc a8 e3 45 be
       -0.018086229 -0.06745218 -0.022579508 -0.19325125
000160 d3 95 ce 3d ab 27 14 3d 07 a7 82 3d 60 3c c3 3d
       0.100871705 0.036170643 0.06379514 0.09533
000170 dc c0 9a 3d 06 50 bc 3d ce 1a 31 3e d1 a3 90 3e
       0.07556316 0.09194951 0.17295381 0.28249982
000180 ee 46 f2 bd 3f 60 af 3d 1e 3f 9c 3d 8a bc 6e 3d
       -0.11829935 0.08563279 0.07629226 0.058285274
000190 f0 b1 ae 3c 4d b1 bb 3b b2 7d 26 3d 34 c2 9c bd
       0.021325082 0.005727923 0.040647216 -0.07654229
0001a0 74 36 e9 bd fb 77 d1 3d 76 9e 84 3d d7 4d 1f bd
       -0.11387339 0.102279626 0.064755365 -0.038892593
0001b0 c0 e3 05 3e a1 a0 57 bb 32 4b a8 3e f3 98 ca 3d
       0.13075161 -0.0032902139 0.3286987 0.09892454
0001c0 a4 b1 0f 3d 4d dc cf bd 63 71 6b 3d 8d 47 63 bc
       0.03508152 -0.10149441 0.05748118 -0.0138720395
0001d0 6b ed 63 bd 72 3c 57 be fa 5c 28 3d f0 ff 44 3b
       -0.05564634 -0.21019152 0.041104294 0.0030059777
0001e0 09 fc 91 3d 69 b0 d7 bc eb 2f 4b bd d6 24 a8 3e
       0.0712815 -0.026329236 -0.049606245 0.32840604
0001f0 17 a2 3b 3d 8b 90 ad 3d 09 fd 14 3e 5e 9d b4 bd
       0.045808878 0.08474835 0.1454965 -0.08819078
000200 b1 4b 96 3a a8 c7 dd 3c 85 93 a0 bd 57 fd 39 3d
       0.001146665 0.027072743 -0.07840637 0.04540762
000210 ac 71 87 bc aa d1 06 3e 13 46 54 be 03 26 ed 3b
       -0.016533695 0.13165918 -0.20729856 0.0072371974
000220 b4 9d 54 3d 47 71 93 3d 58 c8 c9 bd d4 62 8f 3d
       0.05190821 0.0719934 -0.09852666 0.07001272
000230 03 c0 8a 3e d0 9c 75 3d dc 00 b0 3c d0 0e bd 3d
       0.27099618 0.059964 0.021484785 0.09231341
000240 6e 16 3b 3e 4c da ca 3d 44 3c 96 bc a2 cb 62 bc
       0.18270275 0.09904918 -0.018339284 -0.013842495
000250 aa cd e0 3d fa 1e 1e 3e 90 12 ca 3e 1b a6 1b 3e
       0.10976727 0.15441504 0.39467287 0.15200083
000260 ef da 4e 3d f3 1b db 3d 6b 23 71 3e 09 9f 48 bd
       0.05050176 0.1069869 0.23548667 -0.048979793
000270 44 c2 59 bc d1 77 d5 3d ad b0 ce bd 3e d3 58 3e
       -0.013290945 0.10423244 -0.10092292 0.21174332
000280 de 04 0a 3e 6c c8 42 3e cb e0 66 3d 0c c4 8f 3c
       0.13478419 0.19021767 0.056366723 0.017549537
000290 4b 0a cb 3d b0 47 fd 3c 9d 54 82 be 82 04 e2 3d
       0.099140726 0.030917972 -0.2545518 0.11036016
0002a0 63 07 b3 3d b4 07 74 3d ae 18 11 3e b1 1c 05 3e
       0.08741643 0.05957766 0.14169571 0.12999226
0002b0 bc 73 dc 3c 57 68 67 3d 8b 3d c8 3c 3c 49 80 3d
       0.026910655 0.05649599 0.024443408 0.06263968
0002c0 18 9e a7 bc f0 4f d9 bd 45 fa af 3d f3 32 00 be
       -0.020461127 -0.1061095 0.08592657 -0.12519436
0002d0 92 a6 30 3d 42 8f da 3e c2 c2 89 bd f3 78 23 bd
       0.043127604 0.42687422 -0.067266 -0.039910268
0002e0 24 1c 36 3d 30 e5 12 3e 41 b2 d4 3b d7 85 87 bc
       0.04446043 0.1434524 0.006490976 -0.016543312
0002f0 d2 35 7d 3d df 79 1f 3e 8c b9 f2 bd e5 b0 4e 3d
       0.061818905 0.15573834 -0.118517965 0.05046167
000300 b1 9a 54 3d c0 8b 78 3e 43 eb 06 3d 89 8e 70 3d
       0.051905338 0.2427206 0.032939207 0.058729682
000310 dc 8d 31 be a2 d1 81 bd cf 6c 5d 3e bc ab bc 3d
       -0.17339271 -0.063388124 0.21623538 0.09212443
000320 79 16 7d 3e 5e 65 a0 bd 50 1f 8f 3e cb f6 1e 3e
       0.24715604 -0.07831834 0.27953577 0.15523832
000330 8d e4 83 bc 83 09 2a 3d 08 58 23 be f0 05 54 3e
       -0.016100192 0.041512977 -0.1595155 0.2070539
000340 a8 12 cc 3d 96 30 36 3e cc e8 bd 3e 6c d8 91 bc
       0.09964496 0.17791972 0.37091672 -0.017803393
000350 3d 9b c2 3d 7b aa d1 3a 8e 27 66 3d f5 a2 44 3d
       0.095022656 0.0015996242 0.056190066 0.04800697
000360 40 9a e5 3c b1 d2 0e 3e e7 50 aa 3d 65 e4 5a bd
       0.028027654 0.1394756 0.08316212 -0.05344047
000370 f8 50 f9 3d 86 3a e0 3a 07 96 e2 bd c4 c7 c4 3c
       0.12173647 0.0017107285 -0.11063772 0.024021037
000380 0e 44 c1 3d 8b 11 ae 3d 98 4e 98 3a ac 24 08 bd
       0.094368085 0.0849944 0.0011620102 -0.033238098
000390 a3 97 44 bb c4 18 39 3c e3 67 9a bc 0b 99 ca 3c
       -0.002999761 0.0112974085 -0.018848365 0.02473118
0003a0 d0 97 28 3e 09 63 4c bd b2 a8 dd 3c 6d 46 20 3e
       0.16464162 -0.049899135 0.02705798 0.15651865
0003b0 8c 3b 34 3d 0b f3 2b 3e 08 bf a7 bc 96 db 55 3a
       0.0440021 0.16791932 -0.020476833 0.0008158026
0003c0 5e 69 59 bd a6 46 86 3e 62 ae 5e 3d 0b 3c 26 3d
       -0.053079 0.26225775 0.054365523 0.040584605
0003d0 2d 39 f4 3d 0a cf d6 3c 08 d6 b5 3c 51 52 d3 bc
       0.11924968 0.02622177 0.022196785 -0.025796087
0003e0 4f 21 4b 3e c3 39 84 bd b9 ba dc 3b 38 59 aa 3d
       0.19836925 -0.0645633 0.0067361263 0.083177984
0003f0 68 4b 92 3d ec 24 1b bd c5 fc f0 3c 6e 38 4e 3d
       0.07143289 -0.03787701 0.029417405 0.050346784

fc2.bias f4 [128]
000000 6b 72 95 3c bb 95 14 3c 95 af b5 3d 1b f1 08 3d
       0.018243035 0.009068902 0.0887138 0.03343306
000010 d5 a5 ae 3d d5 d3 a1 bb 96 6d e7 38 78 41 57 3d
       0.08527724 -0.0049385824 0.0001103535 0.05255267
000020 17 72 7f 3e 20 2e 14 3d 01 45 1c 3d 8b 63 20 bd
       0.24945866 0.0361768 0.038151745 -0.03915743
000030 37 a2 0e bc 2d c4 1d bc 46 db c3 bc 08 a8 9d bd
       -0.008705667 -0.0096292915 -0.023908269 -0.07698065
000040 31 6a 36 3d 1a 27 a8 bd 72 79 b5 3d d5 99 8a 3d
       0.044534866 -0.08210583 0.088610545 0.067676224
000050 13 b1 84 3d 6d 53 e9 bc ad 01 fa 3a 61 80 68 bc
       0.06479087 -0.028482163 0.0019073986 -0.014190764
000060 4e 89 98 bd 82 ef cf 3c 31 c8 19 bd 22 83 41 3d
       -0.07448064 0.02538276 -0.037544433 0.0472442
000070 3a 00 39 bc 6b f2 1d bd 58 d2 f2 3c 1e c5 47 bd
       -0.011291558 -0.038561266 0.029641315 -0.04877197
000080 e2 28 d2 bd 64 64 ca 3d 0e d6 82 bd 2a fc 8d 3a
       -0.10261704 0.09882429 -0.06388484 0.0010832597
000090 ab dc a3 bd bb af b4 bd 04 13 56 3d 37 09 c3 bd
       -0.080010734 -0.088225804 0.05226423 -0.09523242
0000a0 a9 be a9 3d ce b0 ee 3c 0c ee 49 bd ac 77 f6 bc
       0.08288319 0.029137041 -0.049299285 -0.03008636
0000b0 ff b5 e2 3d 8d d5 a4 3c 76 9a 82 bd ce b3 87 3d
       0.11069869 0.02012136 -0.06377117 0.06626092
0000c0 a4 1b 72 3d 58 f1 81 3c 5a 18 35 3d cc ea 2a 3c
       0.05910839 0.015862152 0.044212677 0.0104319565
0000d0 7b 4f 25 3e 82 0f 90 3d b9 86 ca 3c 02 25 b5 bd
       0.161436 0.07034208 0.024722444 -0.08844949
0000e0 21 4d 63 3d b4 b6 02 3d 9c cb 05 3d 80 74 17 bd
       0.055493478 0.03191252 0.03266488 -0.036976337
0000f0 0d c1 00 3e 98 03 8e 3d d8 2c e7 3d f4 7b cb bd
       0.12573643 0.06934279 0.1128785 -0.099357516
000100 16 2c 21 3d ff 11 b3 ba 3b 54 c4 bc c5 68 fa bc
       0.039348684 -0.001366198 -0.023965945 -0.030567536
000110 5a 1c e2 3d a5 3b f7 3c 3a ad a1 3c 42 a5 ca bd
       0.11040564 0.030179808 0.019735921 -0.09894802
000120 a7 df 45 3e 8c f3 f3 3c 82 8a b9 bd 4e ef 1a 3d
       0.19323598 0.029779218 -0.090596214 0.037825875
000130 21 a9 45 3d 87 05 b9 bc 17 18 16 3e 09 82 b8 bc
       0.048256997 -0.022585643 0.14657627 -0.022522943
000140 fe ae ad 3c f2 b6 38 3d d2 45 d8 bd 14 9d 83 3c
       0.021201607 0.045096345 -0.10560192 0.016066112
000150 84 86 e2 3b b2 e6 49 3d dc aa 9c 3d f4 fa 6f bd
       0.006913008 0.049292274 0.07649776 -0.058588937
000160 5e 02 99 3b 62 7f 23 3d 90 aa 07 3c 1e 37 ee 3b
       0.0046694716 0.039916404 0.008280411 0.007269754
000170 48 52 37 3d 84 e4 6c 3d 3d 20 86 bd 0c e4 ce 3d
       0.044756204 0.057835117 -0.06549118 0.1010209
000180 2e 7d 26 3d 66 0a 81 bd ca 03 35 bd 2c f9 5b bd
       0.040646724 -0.063008115 -0.044193067 -0.053704426
000190 c3 14 74 bd 9b 9a b7 bc ae 7d ce bc 31 63 86 3d
       -0.059590112 -0.022412589 -0.025206413 0.06561888
0001a0 e5 42 86 3d af 5f 1e bc 6a 0d 52 bc 47 f0 f0 3c
       0.06555728 -0.009666367 -0.012820581 0.029411448
0001b0 96 b3 09 3d 4c d6 60 3d d4 2f 8d ba 54 e6 57 bd
       0.033618532 0.05489187 -0.00107717 -0.052709892
0001c0 ae c4 93 bd ba 31 1d 3c a6 73 0e bd 4d 1f c4 bd
       -0.07215248 0.009594375 -0.03477826 -0.09576283
0001d0 81 d0 be bd fe 2f 66 3d 98 a6 a0 bd 41 17 16 3d
       -0.09317113 0.056198113 -0.07844275 0.03664327
0001e0 2d b8 8a 3d 34 11 85 bb 52 c7 22 bd 17 53 7f 3d
       0.0677341 -0.0040608887 -0.039740868 0.0623351
0001f0 75 a7 36 bd fd 04 31 3d 5d 46 a9 3d 6a 28 59 3e
       -0.044593293 0.043217648 0.08265374 0.21206823

fc3.weight f4 [9, 128]
000000 44 e4 b3 3d 37 43 14 be 1b 5a 3d be 0a 11 eb 3d
       0.087837726 -0.14478765 -0.18491404 0.11477859
000010 7b d4 b4 bd c8 7d 3b bd c1 e0 03 3e 13 e2 61 3e
       -0.0882959 -0.04577425 0.12878706 0.22058897
000020 3f e6 3d be 55 94 fd bd fe 50 db bd f2 78 fe bd
       -0.18544863 -0.12381808 -0.107088074 -0.12425412
000030 fa 21 50 bd e5 ee a4 3d 88 a2 3f 3c 9d 03 cf bd
       -0.050813653 0.08053378 0.011696465 -0.10108111
000040 57 9f 3e 3c 09 87 89 be 38 e8 f3 3e 70 f5 46 3c
       0.011634669 -0.26860836 0.47638106 0.012143478
000050 a4 68 c0 3b f4 c4 07 be b1 95 86 3d 5a 06 c3 bc
       0.005871849 -0.13258725 0.0657152 -0.02380674
000060 ab 8f 72 bd 95 a5 0e be a8 f7 e7 3e f9 94 6d bd
       -0.059219044 -0.13930352 0.45306134 -0.0580034
000070 95 61 cc 3d 85 c1 07 3e 86 07 05 3d b1 da f7 3c
       0.0997955 0.13257416 0.032477878 0.030255647
000080 f8 3d 4f 3d fe fe 00 3e 33 d6 bd bc 8b 40 01 bd
       0.050596207 0.12597272 -0.023173427 -0.031555694
000090 48 17 a6 bd 01 5b 81 3d fb 36 5f 3d 68 f4 86 3d
       -0.08109909 0.06316186 0.054495793 0.065895855
0000a0 c1 a7 96 3e 3c 4b dc bd fc 09 ed bc dc f1 02 3e
       0.2942486 -0.10756537 -0.028935425 0.12787575
0000b0 a5 00 c5 3e 19 e0 24 be b1 57 20 3d 62 c7 05 3d
       0.38477054 -0.16101111 0.03914613 0.03266085
0000c0 09 b9 69 bd 17 a7 0d be 4e c9 23 3e 4d 87 59 be
       -0.05706123 -0.13833271 0.1599476 -0.2124302
0000d0 8b ac 3a 3f c2 c0 60 bc c4 85 53 be 13 90 d2 3c
       0.7291953 -0.013717832 -0.20656496 0.025703466
0000e0 d7 0f 3e bf 51 f0 f1 3b 8d 22 69 3c be 6f 80 3d
       -0.7424292 0.0073833843 0.014229429 0.06271313
0000f0 53 2b 52 3d 72 cb e7 bd f0 c5 25 bf 62 db fb 3c
       0.05131085 -0.11318101 -0.64755154 0.030744258
000100 37 34 a0 3d 16 c4 0c be f8 ae 00 3e 53 95 1a 3d
       0.07822459 -0.13746676 0.12566745 0.037740063
000110 bf 80 fb 3e 97 12 6e 3d 5e 8a 2b bd 1a f2 de bc
       0.49121663 0.058123197 -0.041880004 -0.027215052
000120 7e 90 dc 3e 14 78 1e 3d 78 9a 5d 3d 13 a3 21 3e
       0.4307899 0.038688734 0.05410239 0.15784864
000130 83 ef d5 bd b8 c0 57 3d 5e f8 ed bd 9e c7 71 bd
       -0.10446074 0.052674025 -0.11619638 -0.05902826
000140 4b 88 49 bc 45 e5 9a bd ba 63 53 bc 79 4b d8 bc
       -0.012300561 -0.07563261 -0.012902195 -0.026403176
000150 85 13 f0 bd 0a 0d 70 bd ce 40 79 bd 2b 5f 83 3c
       -0.11722473 -0.058606185 -0.06085282 0.01603659
000160 e5 81 d4 bd a7 c4 d8 bd b5 10 bf bd c8 be 0d be
       -0.10376338 -0.105843835 -0.093293585 -0.13842309
000170 cc 32 bd 3d 7a 62 35 3e cf 38 61 be 3a ce aa bd
       0.09238204 0.17713347 -0.21994327 -0.08340116
000180 a1 61 e2 bd 13 26 01 be 24 a9 48 bd f0 bf d3 3d
       -0.110537775 -0.1261218 -0.04898943 0.103393435
000190 7c 15 31 3d 3e 99 44 bd 19 6b 43 bd 16 0b 32 3e
       0.04323338 -0.047997706 -0.04770956 0.17387041
0001a0 28 0f b7 3d 7e fe ff 3c 2c ee 39 3e ac 39 5b 3d
       0.08938438 0.031249281 0.18157262 0.053521797
0001b0 bc 62 61 bd 15 ba db bd 65 34 34 bd 33 95 d5 bc
       -0.0550258 -0.10728852 -0.04399528 -0.02607212
0001c0 f9 13 4f be 4b 25 ce bd 41 41 ef 3a 00 fc 34 bd
       -0.20222463 -0.10065707 0.00182537 -0.04418564
0001d0 6c de 2c bd 50 fd c3 3d f3 85 3e be 89 11 3d be
       -0.042204306 0.095698 -0.18605785 -0.1846372
0001e0 98 f6 5b be 48 59 8c bd d4 d5 ce bd 87 ae 54 be
       -0.21480787 -0.068529665 -0.10099378 -0.20769702
0001f0 1d d6 d0 3c 21 8a 14 be 82 56 89 be f6 23 e7 3e
       0.025492722 -0.14505817 -0.26823813 0.45144624
000200 34 de 0f 3d d0 3e 9f ba 48 c0 f7 3d e7 a2 15 3d
       0.03512402 -0.0012149457 0.120972216 0.03653231
000210 01 ca 4d 3c e8 2a 03 be 4e 92 af bc 4f 3c 28 be
       0.0125603685 -0.12809336 -0.021432068 -0.16429256
000220 88 7d 0d 3f cc e1 ab 3c cd 1b 27 be 42 44 e6 3b
       0.5526967 0.020981692 -0.16319199 0.00702718
000230 a5 3f f1 3c 29 39 69 bd 32 76 ca bd 7a 2e c6 bd
       0.029449293 -0.056939278 -0.09885825 -0.096768335
000240 2f bf f2 bd 2d 47 50 3d e6 03 2a 3e 3a 8d 0c be
       -0.118528716 0.05084913 0.1660305 -0.13725749
000250 25 55 18 3a 83 a2 bc bd 07 0f 35 bd f7 11 76 3d
       0.00058110274 -0.09210684 -0.044203784 0.060075726
000260 0f ff 30 bb 22 82 f5 bd 6f 55 b8 3e c2 1d 9c 3d
       -0.0027007496 -0.119877115 0.3600268 0.07622863
000270 60 24 34 be 43 b9 c6 3c f4 92 a3 3b 98 84 4f bc
       -0.17592001 0.024258262 0.0049918834 -0.01266589
000280 db 3e a8 3d 30 2b 82 3e 60 45 86 bd 66 83 a3 bd
       0.08215114 0.25423574 -0.06556201 -0.07984047
000290 62 60 ae bd 2f c0 4f bb 49 cf 93 be c0 4c 28 bd
       -0.08514477 -0.0031700244 -0.28869084 -0.04108882
0002a0 75 37 9a 3e 15 61 ff bd b8 18 84 3a 72 e4 0d be
       0.30120435 -0.12469689 0.0010078168 -0.13856676
0002b0 e9 95 ab 3e 85 b0 1d 3d 58 8d b8 bd fa 1c 95 bd
       0.3351281 0.03849842 -0.09011334 -0.072809175
0002c0 c4 a0 aa bd 19 6f ea bd 39 2c e9 3d d1 5b 4f bd
       -0.08331445 -0.114469714 0.11385388 -0.050624672
0002d0 0a a7 2a 3f 68 5e 86 3d ce 84 8b bd 10 af c0 bc
       0.6666113 0.06560975 -0.0681244 -0.023520976
0002e0 ea e5 b9 3e 75 6e 9e bc 6b 99 14 3e 04 8d be 3c
       0.36308223 -0.01933978 0.1451165 0.0232606
0002f0 5f 7f 19 3a f6 42 f1 3c 53 67 86 3e c0 91 6b 3d
       0.00058554666 0.029450875 0.26250705 0.057512045
000300 51 e2 02 bf 13 0c fe bd b2 7a aa 3c e2 f6 47 3d
       -0.5112658 -0.12404647 0.020810459 0.04881943
000310 01 b0 b2 3e 67 8a 26 be 82 f3 98 bd 6b d5 87 3b
       0.34899905 -0.16263734 -0.074683204 0.0041453145
000320 fe cf 0f bf ed 31 05 bb f1 4e c4 3c ca c4 4d 3d
       -0.56176746 -0.0020323948 0.023963423 0.0502365
000330 17 93 3e bd be c8 f6 bd 4c 53 86 bf 30 1b 0d be
       -0.046526995 -0.12050007 -1.049417 -0.13779902
000340 81 f0 53 3d fc 31 a7 3c c2 bf 8f bd c2 7a ca 3d
       0.051743034 0.020409577 -0.07018997 0.098866954
000350 3b cd 13 3a 18 15 46 3d e4 7f 6d 3d 51 0b 05 3d
       0.00056381867 0.04835996 0.057983294 0.032481495
000360 b7 84 84 bd f3 b9 93 bd 61 06 c7 3d 86 b3 bb bc
       -0.06470626 -0.072132014 0.097180136 -0.022912752
000370 70 c7 28 3d 8e 3b fa 3d 8e 62 a3 3d cd 22 7f 3d
       0.041205823 0.122183904 0.07977782 0.062289048
000380 50 e8 07 be 18 f1 47 be 94 c3 2f bd ef 95 17 bc
       -0.13272214 -0.19525564 -0.042911127 -0.009252056
000390 98 e3 64 3d 16 3a cb bc 30 fe 42 bd 9f 92 6d 3e
       0.055881113 -0.024807971 -0.047605693 0.23200463
0003a0 25 24 31 bd ea 76 69 bd 15 a1 e4 3d 08 5c ec 3c
       -0.04324736 -0.05699817 0.111635365 0.028852478
0003b0 56 f3 1f 3e 3d 9e 4d bd 5d 6e d4 bc b0 22 c7 3c
       0.15620169 -0.050199736 -0.025931532 0.024308532
0003c0 39 ba 8f 3c b2 65 6b 3d 33 12 9c 3d 52 84 84 bd
       0.017544853 0.05747003 0.07620659 -0.064705506
0003d0 30 16 78 3d 66 75 f5 bd 3c 9d 15 3d 9f 31 85 bd
       0.060568035 -0.119852826 0.036526904 -0.06503605
0003e0 70 f4 1c 3d cf 95 b2 bd a8 25 aa bd 3c ee ef bd
       0.03831905 -0.0871998 -0.083079636 -0.117153615
0003f0 66 62 8f bd ef 86 69 3d c8 5e 86 bc a9 51 c0 3e
       -0.0700119 0.05701345 -0.016402617 0.37562302

fc3.bias f4 [9]
000000 48 4f 5c bb b7 3d 0f bc 31 fb dc 3d 94 20 6f bc
       -0.0033616591 -0.008742741 0.107900985 -0.01459517
000010 2e 04 c7 bd 91 21 48 3b 02 8a a7 3d b5 8a 20 39
       -0.09717594 0.0030537585 0.0818062 0.00015310461
000020 97 66 5d 3d
       0.054052915
