Martti/Graphs/MarttiWeights-3x3x5-b128-lr0.001000.pt (torch, 82263 bytes, 6 tensors)

fc1.weight f4 [128, 18]
0.09346566 -0.51999676 0.49198312 0.35807195 -0.27887553 -0.47648382 -0.33544186 -0.30473226
-0.50058603 0.471283 -0.02444333 0.29163802 0.179246 -0.013189731 -0.6557525 0.40359885
-0.09996688 -0.25340018 -0.16126862 0.118845455 -0.07418537 0.18294114 0.917467 0.015337239
-0.021784892 -0.3836392 0.12083795 -0.14568038 -0.050249483 0.15578134 -0.06995645 0.090526536
0.6163718 0.2192979 -0.0047876816 0.10051815 -0.13444264 0.504698 -0.016594732 0.07072133
-0.23288581 -0.17410144 -0.1097534 0.6928743 -0.03456006 -0.13301207 -0.012287457 -0.060993817
-0.2876587 0.13197896 0.50247425 0.4120334 0.08178822 -0.21774316 0.4747968 -0.7242454
-0.09013652 0.09590592 -0.22377694 -0.0019357741 -0.012730891 0.31097287 0.1328196 -0.10838377
-0.14211243 0.22456247 -0.009702411 0.028216187 -0.18229856 0.1686445 0.18920456 0.018056527
0.09718883 1.0098414 -0.078443445 0.30738306 1.1445912 -0.22014076 -0.39024493 0.7893011
-0.256534 -0.06858663 0.08259311 0.25744796 0.2788207 0.052562784 0.27752832 0.2159543
0.02286508 -0.0072004646 0.056122318 0.21728536 0.073644914 0.06291718 -1.0401452 0.2544968
0.41926527 0.5023372 0.1581158 -0.15627335 -0.059681993 -0.33453503 -0.10154493 -0.22980121
0.18606058 -0.1924606 0.100182705 -0.022605209 -0.014077451 0.26024234 0.2294866 0.1655871
-0.7774581 0.3961818 -0.06497354 -0.78611994 0.1143433 -0.0712845 -0.023837993 0.11822575
0.0887549 0.25838298 0.13466822 -0.11660023 0.29183596 0.12964642 0.21094802 0.28163892
0.39097378 0.29810527 0.678453 0.20738228 0.50567496 -0.58188814 0.013197871 0.05108063
0.09727816 -0.2115477 -0.21870083 -0.016202733 -0.5398351 -0.2695146 0.3541552 -0.07953691
0.3615162 -0.88899124 0.26309055 0.3474532 1.0801275 0.34603012 0.47240373 -0.5304592
-0.094785616 -0.11592192 -0.038611647 -0.11975844 -0.0065968386 -0.01469286 -0.30248192 -0.051125888
0.060640953 -0.071354255 0.27905163 0.7366517 0.16516554 0.24092494 -0.17277898 0.3348238
0.103290334 0.8237299 0.33400992 -0.3433113 -0.11081867 -0.4102395 0.09120385 0.07080594
0.0159918 -0.20029707 -0.29636884 -0.23555233 0.34185788 -0.08863184 0.19188201 0.32669666
-0.7175155 0.12939414 0.3235851 0.6142967 0.22802827 0.06294069 -0.031022629 -0.014871005
-0.04011621 -0.07063158 -0.24635336 0.0406996 -0.102098085 0.103493184 -0.09965392 0.06279231
0.09385318 -0.28003064 -0.32871687 -0.11985672 0.0006956494 0.39684698 0.37262976 -0.2092189
0.049613867 -0.6880076 0.27589908 0.1579184 0.4310495 -0.16885023 0.0027155872 0.2061306
-0.50001234 -0.1354273 0.2418857 0.37936363 0.04657593 0.12954351 -0.16558015 -0.23612331
0.1234144 0.051624708 -0.14560908 0.09312505 0.32340205 -0.109852746 0.058901634 0.2415261
-0.15275265 0.09435028 0.46430963 -0.08053242 0.17751428 0.082222 -0.3604524 -0.2031508
-0.2698988 0.38241234 -0.21592174 0.19280289 -0.16629757 0.13300106 -0.031356364 -0.034788705
0.3960873 0.1514758 0.019556407 0.042484682 0.3270757 -0.38273257 0.20183621 -0.042333324
00000000: ed6a bf3d 821e 05bf 36e5 fb3e 3555 b73e
00000010: c6c8 8ebe b0f5 f3be 09bf abbe de05 9cbe
00000020: 6826 00bf 014c f13e 613d c8bc 9451 953e
00000030: 438c 373e be19 58bc 65df 27bf 82a4 ce3e
00000040: 70bb ccbd abbd 81be 9a23 25be 3f65 f33d
00000050: 80ee 97bd ec54 3b3e 1edf 6a3f 0b49 7b3c
00000060: 3b76 b2bc 5b6c c4be e379 f73d 3d2d 15be
00000070: 67d2 4dbd 2585 1f3e 5445 8fbd fa65 b93d
00000080: 8bca 1d3f a18f 603e fce1 9cbb 76dc cd3d
00000090: 55ab 09be e333 013f adf1 87bc 58d6 903d
000000a0: 9e79 6ebe a647 32be 64c6 e0bd 3660 313f
000000b0: d98e 0dbd 5134 08be 5451 49bc a7d4 79bd
000000c0: 0048 93be 7e25 073e 27a2 003f 0bf6 d23e
000000d0: 9580 a73d 10f8 5ebe 9118 f33e 2668 39bf
000000e0: 7f99 b8bd 536a c43d c825 65be cdb9 fdba
000000f0: 3a95 50bc d637 9f3e dc01 083e 4ff8 ddbd
00000100: ec85 11be b4f3 653e dcf6 1ebc a225 e73c
00000110: 79ac 3abe 25b1 2c3e d7be 413e 48eb 933c
00000120: f00a c73d 7c42 813f f5a6 a0bd 5061 9d3e
00000130: f781 923f 946c 61be 2fce c7be a30f 4a3f
00000140: 6d58 83be 2677 8cbd 9426 a93d 38d0 833e
00000150: 96c1 8e3e 134c 573d 3118 8e3e 2023 5d3e
00000160: 8c4f bb3c e0f1 ebbb 84e0 653d 0e80 5e3e
00000170: 25d3 963d b9da 803d 7a23 85bf 684d 823e
00000180: f0a9 d63e 2c99 003f 1ce9 213e 1f06 20be
00000190: 1b75 74bd 2d48 abbe caf6 cfbd 0251 6bbe
000001a0: aa86 3e3e 6414 45be 972c cd3d 8f2e b9bc
000001b0: 1ca5 66bc 7c3e 853e 89fe 6a3e aa8f 293e
000001c0: 7e07 47bf 57d8 ca3e d910 85bd 283f 49bf
000001d0: d22c ea3d 9cfd 91bd e547 c3bc 5820 f23d
000001e0: 21c5 b53d c64a 843e 77e6 093e 1acc eebd
000001f0: 866b 953e 08c2 043e c202 583e fa32 903e
00000200: b72d c83e 41a1 983e 19af 2d3f 055c 543e
00000210: ea73 013f 9ff6 14bf e23b 583c ec39 513d
00000220: c639 c73d f69f 58be 1cf3 5fbe 98bb 84bc
00000230: a232 0abf d1fd 89be d553 b53e 3fe4 a2bd
00000240: a718 b93e ee94 63bf ceb3 863e 63e5 b13e
00000250: 9e41 8a3f dc2a b13e e7de f13e 2dcc 07bf
00000260: f61e c2bd 7968 edbd 3f27 1ebd ea43 f5bd
00000270: 4b2a d8bb 52ba 70bc e9de 9abe 6169 51bd
00000280: a662 783d 2e22 92bd dbdf 8e3e 3595 3c3f
00000290: 2821 293e 07b5 763e f9ec 30be 066e ab3e
000002a0: e289 d33d f6df 523f 5903 ab3e 80c6 afbe
000002b0: e6f4 e2bd e90a d2be 16c9 ba3d b402 913d
000002c0: 3c01 833c ad1a 4dbe a8bd 97be a134 71be
000002d0: ff07 af3e 9c84 b5bd b87c 443e c944 a73e
000002e0: 19af 37bf e67f 043e f2ac a53e 8c42 1d3f
000002f0: 3e80 693e 0ce7 803d 2b23 febc 84a5 73bc
00000300: e550 24bd 4aa7 90bd 0e44 7cbe a0b4 263d
00000310: cd18 d1bd 3cf4 d33d 5b17 ccbd 4199 803d
00000320: 1936 c03d 2d60 8fbe 944d a8be 7177 f5bd
00000330: 3e5c 363a 872f cb3e 54c9 be3e 7b3d 56be
00000340: e937 4b3d 4421 30bf a542 8d3e 5cb5 213e
00000350: 85b2 dc3e 13e7 2cbe fef7 313b e613 533e
00000360: cf00 00bf 74ad 0abe e3b0 773e f33b c23e
00000370: 67c6 3e3d 0ea7 043e d88d 29be 4fca 71be
00000380: b0c0 fc3d 6e74 533d 8c1a 15be 59b8 be3d
00000390: f494 a53e 7afa e0bd d742 713d 9e52 773e
000003a0: 316b 1cbe b83a c13d feb9 ed3e 2eee a4bd
000003b0: 4ec6 353e 0264 a83d 388d b8be c306 50be
000003c0: 2d30 8abe 8dcb c33e 971a 5dbe 1f6e 453e
000003d0: e949 2abe 6e31 083e 886f 00bd 9a7e 0ebd
000003e0: f4cb ca3e 791c 1b3e c234 a03c 6b04 2e3d
000003f0: 7776 a73e 86f5 c3be 27ae 4e3e b565 2dbd

fc1.bias f4 [128]
-0.014883528 -0.20066048 -0.036675844 -0.01686224 -0.0825879 0.38943315 0.4079299 0.44206882
0.07766798 0.21273331 0.31654954 0.14979638 -0.17194533 0.115466 0.09762079 0.36703208
-0.020785132 0.048649505 -0.118140906 0.32535425 0.40103185 0.017705675 -0.17242011 0.2320738
0.068568885 -0.06844959 0.78300315 0.5917043 0.049788598 0.34286213 -0.081489556 -0.28976637
0.36117852 -0.31400564 0.18031785 0.4256268 0.5382604 -0.102238715 -0.01078602 0.04344711
0.21532145 0.23840727 -0.1422342 0.13876279 0.6402002 0.2333872 0.09095559 0.35529053
0.45229736 0.3929965 -0.09876072 0.0064690826 -0.02442756 -0.11852479 0.02497321 0.04456216
-0.18170373 0.61996776 0.24452767 0.1949462 0.003484905 0.3349116 0.53478515 -0.1499547
-0.10867861 0.05626402 0.797429 -0.06866064 0.23446955 0.049929827 0.12631506 0.07204557
-0.022198627 0.14713953 -0.32829204 0.33579165 0.15499903 -0.012402637 0.1643827 0.1486132
0.1424238 -0.17852896 0.042197764 -0.045004766 0.6173829 0.67890424 -0.3153869 0.29115298
0.06468844 -0.40575686 0.52827406 -0.12364186 -0.17832641 -0.21457024 -0.19394821 -0.03401321
0.23682626 0.15656057 0.30718786 0.50272924 0.3441481 0.39559492 -0.13148946 0.38378656
0.52725255 0.610416 0.28955248 -0.21693371 -0.08347653 0.5843713 0.2942424 -0.24961224
0.3876618 0.18206137 0.3856698 0.047901165 0.13620202 0.52059174 0.277264 0.55915093
0.11019811 0.6919473 0.28898725 0.066584826 0.55892754 0.16737895 0.38246757 0.112348735
00000000: 0bda 73bc f179 4dbe 6939 16bd ae22 8abc
00000010: d823 a9bd c863 c73e 30dc d03e d856 e23e
00000020: 6410 9f3d c3d6 593e c812 a23e 3964 193e
00000030: 7012 30be 7079 ec3d 69ed c73d a1eb bb3e
00000040: 9545 aabc b444 473d dcf3 f1bd d594 a63e
00000050: 0c54 cd3e 7e0b 913c e68e 30be c1a4 6d3e
00000060: d86d 8c3d 4c2f 8cbd e572 483f ef79 173f
00000070: 21ef 4b3d a08b af3e ffe3 a6bd 425c 94be
00000080: 64ec b83e 59c5 a0be 3ea5 383e c2eb d93e
00000090: 6fcb 093f 8862 d1bd d9b7 30bc 99f5 313d
000000a0: 3a7d 5c3e 0921 743e d8a5 11be d517 0e3e
000000b0: 29e4 233f 0efd 6e3e ed46 ba3d a4e8 b53e
000000c0: 8593 e73e d636 c93e 0f43 cabd 99fa d33b
000000d0: 4e1c c8bc 20bd f2bd 9e94 cc3c d086 363d
000000e0: 8b10 3abe 35b6 1e3f 7665 7a3e fa9f 473e
000000f0: 0163 643b 8979 ab3e aee7 083f ba8d 19be
00000100: e492 debd 1a75 663d 4f24 4c3f f39d 8cbd
00000110: c918 703e 3883 4c3d bc58 013e a18c 933d
00000120: e5d9 b5bc bfab 163e e515 a8be e2ec ab3e
00000130: 11b8 1e3e 6e34 4bbc f053 283e 0f2e 183e
00000140: 8bd7 113e 4cd0 36be 90d7 2c3d eb56 38bd
00000150: ce0c 1e3f abcc 2d3f 647a a1be 0112 953e
00000160: 5f7b 843d 5dbf cfbe f83c 073f f237 fdbd
00000170: 339b 36be 4db8 5bbe 5c9a 46be 7051 0bbd
00000180: 9582 723e 6a51 203e ba47 9d3e ddb2 003f
00000190: 2e34 b03e 6b8b ca3e 2ca5 06be ac7f c43e
000001a0: 06fa 063f 3944 1c3f 3940 943e df23 5ebe
000001b0: bef5 aabd 5c99 153f f1a6 963e 5a9a 7fbe
000001c0: 9c7b c63e 4c6e 3a3e 8376 c53e 0334 443d
000001d0: 8b78 0b3e 8045 053f 8cf5 8d3e 8424 0f3f
000001e0: 8caf e13d 7523 313f 23f6 933e a05d 883d
000001f0: e015 0f3f 6365 2b3e cad2 c33e 1817 e63d

fc2.weight f4 [128, 128]
0.0328228 -0.113603264 -0.058228917 0.07526992 0.015045728 0.4028403 0.013099511 0.03646306
-0.27786162 0.1364554 0.1147593 0.027323782 0.068662696 0.08530111 0.27059272 -0.04788358
-0.07277063 -0.0034953763 0.4173223 -0.3539315 0.071976736 -0.013732481 -0.031445593 0.085038304
0.13572489 0.0070565543 0.18493932 -0.02737899 -0.11776214 0.1420212 -0.097272456 0.010674397
-0.03331705 0.14933167 0.42780733 0.3095024 -0.004513554 -0.12454255 0.14672504 -0.12345418
-0.19636537 0.009465467 0.034380842 0.13682695 -0.04756655 0.026114319 0.17733116 -0.0076581337
-0.09498491 0.11152162 -0.108233154 -0.02563881 0.14016898 -0.03538564 -0.04502959 -0.10514909
0.4794245 0.006751311 0.097542085 0.047730196 -0.08004928 0.100284375 0.37417614 0.10225103
0.33348674 0.1525546 -0.060573947 -0.063696206 0.09616023 -0.08242683 -0.02420601 -0.04741529
-0.15794733 -0.030618321 -0.013019723 0.018438691 -0.07340837 0.023443963 0.053055834 -0.1918016
0.011575665 -0.0033316663 0.2296661 0.14250447 -0.14977024 -0.09099762 0.059463743 0.011773453
0.017992541 0.12189753 0.028098056 0.16660815 0.03421776 0.0798649 -0.14386916 0.20984356
0.015923899 -0.059499677 -0.0031737261 -0.07650018 -0.81458884 -0.02995735 0.029724611 0.03451158
0.011328238 0.16140439 0.04643332 0.047429975 -0.047314327 -0.019841406 -0.1215405 0.03825999
-0.09931946 0.28044486 0.24332818 -0.14007011 0.025632221 0.0731297 -0.05828069 0.23507538
-0.04497748 -0.023770439 -0.0652206 0.035806023 0.02112967 -0.1152639 -0.011170391 0.0829113
0.082957886 0.0625855 0.19772142 -0.098216124 -0.13658047 0.42274833 0.08375985 -0.038972724
0.0038695394 0.12950467 0.055853046 0.22852747 -0.043997437 -0.033864286 -0.40421152 0.023595134
0.0058510317 0.1871687 -0.22688049 -0.08580574 0.031361416 -0.10923463 0.12488968 0.104509376
-0.13199385 0.09875018 -0.007979465 0.03319304 -0.06198379 0.09102211 0.061168734 -0.0029482576
0.11789448 0.09433085 0.5331268 0.48214224 0.08209652 -0.030093163 -0.19780196 -0.09327402
0.30552936 -0.064963266 0.09296272 -0.08729513 -0.07116851 -0.03130224 0.11932158 -0.09274479
-0.044270784 0.11880386 0.14918369 -0.027791915 -0.020359902 0.093462974 0.039608274 0.13678499
-0.09431251 -0.12950505 0.0134705845 0.032557514 -0.026896678 -0.015018634 0.59138334 0.0029201964
-0.14562994 0.053854525 -0.038115475 -0.07884823 0.06040745 -0.14818028 0.036415044 -0.099644035
-0.09249282 0.052903235 0.07295708 -0.054478493 -0.1384095 0.083062805 0.07093599 0.27064604
0.013641208 -0.08953904 0.17413352 0.12090329 0.023198001 -0.062089212 0.11336654 -0.074267164
0.07902793 0.2031702 0.053980026 -0.05626727 -0.11542293 0.13290465 -0.24405102 0.18468349
-0.10922181 -0.06296657 -0.15344991 -0.14740871 0.21089227 -0.24250719 0.011933335 -0.1519971
0.023808964 0.08289927 -0.012518658 0.15889204 -0.05039374 0.17901638 -0.13194169 0.10623581
0.26612785 -0.10816771 -0.044502962 0.03118952 0.22423193 0.00226934 -0.103452556 0.10401674
-0.0092693195 0.037093963 -0.007636758 -0.17451614 0.03126063 -0.1028655 -0.07647867 0.08031161
00000000: 3371 063d d4a8 e8bd 7281 6ebd 1e27 9a3d
00000010: 5b82 763c 1541 ce3e 559f 563c 4a5a 153d
00000020: e143 8ebe f7ba 0b3e ed06 eb3d 20d6 df3c
00000030: 079f 8c3d 59b2 ae3d 218b 8a3e 9321 44bd
00000040: c508 95bd af12 65bb 45ab d53e 8236 b5be
00000050: 8a68 933d 33fe 60bc 18cd 00bd 9028 ae3d
00000060: 77fb 0a3e ab3a e73b bc60 3d3e e749 e0bc
00000070: 472d f1bd 016e 113e c836 c7bd abe3 2e3c
00000080: 7677 08bd 67ea 183e 9009 db3e 1977 9e3e
00000090: 6fe6 93bb 2a10 ffbd 173f 163e 8cd5 fcbd
000000a0: 0114 49be 0c15 1b3c edd2 0c3d 5d1c 0c3e
000000b0: 25d5 42bd b2ed d53c 4d96 353e 15f1 fabb
000000c0: 7387 c2bd 7265 e43d 58a9 ddbd 7b08 d2bc
000000d0: 7588 0f3e 88f0 10bd f370 38bd 6858 d7bd
000000e0: 2177 f53e 1a3a dd3b 25c4 c73d bd80 433d
000000f0: e0f0 a3bd e561 cd3d 0494 bf3e fd68 d13d
00000100: c6be aa3e 4637 1c3e 631c 78bd 2873 82bd
00000110: a8ef c43d 66cf a8bd af4b c6bc 8936 42bd
00000120: f2bc 21be 46d3 fabc ad50 55bc bd0c 973c
00000130: 2157 96bd 8e0d c03c 1351 593d a367 44be
00000140: dca7 3d3c 1658 5abb 972d 6b3e b1ec 113e
00000150: 5f5d 19be f65c babd 4190 733d 71e5 403c
00000160: 1865 933c 6aa5 f93d e52d e63c 549b 2a3e
00000170: ec27 0c3d 3590 a33d 7052 13be 3be1 563e
00000180: d672 823c efb5 73bd 4afe 4fbb 20ac 9cbd
00000190: e588 50bf 1e69 f5bc 0781 f33c 045c 0d3d
000001a0: 139a 393c 3147 253e dd30 3e3d ef45 423d
000001b0: abcc 41bd 728a a2bc 3aea f8bd 82b6 1c3d
000001c0: 0068 cbbd 7896 8f3e 062b 793e 8a6e 0fbe
000001d0: aafa d13c 06c5 953d bcb7 6ebd 9ab7 703e
000001e0: 4e3a 38bd 39ba c2bc 6192 85bd 56a9 123d
000001f0: 2118 ad3c 7b0f ecbd 0404 37bc 66cd a93d
00000200: d3e5 a93d d42c 803d 7c77 4a3e 8925 c9bd
00000210: c0db 0bbe 7872 d83e 498a ab3d dda1 1fbd
00000220: 1998 7d3b df9c 043e 2ac6 643d 1b03 6a3e
00000230: a836 34bd 47b5 0abd d0f4 cebe 954a c13c
00000240: 03ba bf3b 27a9 3f3e 5c53 68be ebba afbd
00000250: d474 003d 68b6 dfbd 29c6 ff3d 0309 d63d
00000260: 6529 07be 893d ca3d 4dbc 02bc 6df5 073d
00000270: b7e2 7dbd cd69 ba3d 118c 7a3d 8e37 41bb
00000280: a972 f13d 8830 c13d ff7a 083f 59db f63e
00000290: 3822 a83d f085 f6bc 998c 4abe 7306 bfbd
000002a0: 586e 9c3e 760b 85bd 3d63 be3d cac7 b2bd
000002b0: ccc0 91bd c736 00bd df5e f43d fbf0 bdbd
000002c0: 4855 35bd 704f f33d 9cc3 183e dfab e3bc
000002d0: cfc9 a6bc 8469 bf3d 493c 223d 5d11 0c3e
000002e0: eb26 c1bd f99c 04be bab3 5c3c 075b 053d
000002f0: 6c56 dcbc b710 76bc e664 173f c460 3f3b
00000300: 0420 15be 9096 5c3d f91e 1cbd 2e7b a1bd
00000310: cd6d 773d 92bc 17be f127 153d 2c12 ccbd
00000320: e06c bdbd 10b1 583d 866a 953d d724 5fbd
00000330: 38bb 0dbe d51c aa3d e346 913d 1e92 8a3e
00000340: 607f 5f3c 3f60 b7bd 0f50 323e 259c f73d
00000350: bc09 be3c 4251 7ebd b72c e83d 6219 98bd
00000360: 65d9 a13d d90b 503e 291a 5d3d 8278 66bd
00000370: db62 ecbd 2818 083e 83e8 79be ab1d 3d3e
00000380: afaf dfbd 9ef4 80bd f921 1dbe 4ff2 16be
00000390: 25f4 573e ce53 78be 0984 433c 21a5 1bbe
000003a0: 040b c33c 18c7 a93d 0f1b 4dbc 98b4 223e
000003b0: ab69 4ebd 1250 373e b91b 07be 2992 d93d
000003c0: e941 883e 0887 ddbd bd48 36bd 2a81 ff3c
000003d0: 0e9d 653e 35b9 143b efde d3bd bb06 d53d
000003e0: 58de 17bc d7ef 173d c53d fabb 5cb4 32be
000003f0: 250b 003d 26ab d2bd d9a0 9cbd 6a7a a43d

fc2.bias f4 [128]
-0.0005998054 -0.049799096 -0.007572714 0.06284622 0.01607583 0.06475382 -0.032098494 -0.06531938
-0.061220005 0.4876338 -0.06813744 -0.039831698 0.34561536 -0.023633078 0.012273051 0.12735547
0.105913244 -0.0993881 -0.10000197 -0.13825545 -0.09197358 0.1545683 0.0629409 0.047170322
-0.0018571469 -0.070682 -0.012449741 -0.008482002 0.0757125 -0.031950273 -0.011147436 -0.03969855
-0.031978752 0.024522018 -0.07358891 -0.02444222 -0.09891411 0.026317257 0.018130485 -0.07042699
0.028761737 -0.038475417 0.026025744 -0.078061685 0.17208414 0.017077945 0.18045852 0.10627356
0.04987858 0.16532889 0.075202174 0.04755376 0.046956632 -0.022492634 -0.03999983 0.012227681
-0.049734402 0.017711163 -0.084607646 0.1630165 -0.10879184 -0.0052056555 -0.08108154 0.05391225
0.13909024 0.10608646 0.07406907 0.09957105 -0.045166723 -0.07098398 0.052342154 -0.11009162
-0.09799419 0.052822404 -0.06365586 0.054208223 0.044660803 0.22847018 -0.09049906 -0.00978654
0.18097082 0.35365957 0.00711491 0.10377846 -0.033884104 0.050434582 0.2015667 0.0045285225
-0.018779531 0.07735551 0.19903648 0.04830295 0.20314108 0.010860416 -0.040570088 -0.052053362
0.028785497 -0.050342396 0.058217313 -0.017584559 0.52793807 0.014581532 -0.017603492 0.21899118
0.6877302 -0.11689672 0.050705455 -0.057265885 -0.029495945 0.009808513 -0.0131806955 0.45708188
0.019190785 -0.018007442 -0.12090531 0.12756048 -0.019465094 0.011685314 0.190389 0.13390508
0.059401866 -0.06276087 -0.010438657 -0.09573156 0.05294913 -0.06871481 -0.097585484 0.2040637
00000000: 423c 1dba 23fa 4bbd 8724 f8bb 85b5 803d
00000010: 76b1 833c a79d 843d b679 03bd 2bc6 85bd
00000020: d4c1 7abd 23ab f93e a48b 8bbd 9026 23bd
00000030: 7ff4 b03e 289a c1bc e814 493c 7969 023e
00000040: 0be9 d83d fd8b cbbd d5cd ccbd d692 0dbe
00000050: a55c bcbd 2747 1e3e 29e7 803d ab35 413d
00000060: 826b f3ba b9c1 90bd 00fa 4bbc 18f8 0abc
00000070: 280f 9b3d 4ade 02bd bca3 36bc f29a 22bd
00000080: 27fc 02bd 66e2 c83c c8b5 96bd 0d3b c8bc
00000090: 7b93 cabd 4a97 d73c 6286 943c 073c 90bd
000000a0: bc9d eb3c 6698 1dbd f133 d53c cede 9fbd
000000b0: d336 303e 0ce7 8b3c 1eca 383e f4a5 d93d
000000c0: 7b4d 4c3d fa4b 293e 9903 9a3d bbc7 423d
000000d0: 9955 403d 7942 b8bc ddd6 23bd 9d56 483c
000000e0: 4db6 4bbd 0017 913c c646 adbd cced 263e
000000f0: 42ce debd 3494 aabb 140e a6bd 17d3 5c3d
00000100: ac6d 0e3e dc43 d93d 86b1 973d e8eb cb3d
00000110: be00 39bd 0d60 91bd ba64 563d b777 e1bd
00000120: 2eb1 c8bd 4e5c 583d 015e 82bd 7109 5e3d
00000130: 3fee 363d 16f4 693e 9257 b9bd b957 20bc
00000140: 6a50 393e de12 b53e 3124 e93b cd89 d43d
00000150: 0fca 0abd 7e94 4e3d 8067 4e3e 0064 943b
00000160: 88d7 99bc 916c 9e3d 38d0 4b3e 50d9 453d
00000170: 3704 503e e3ef 313c d22c 26bd e835 55bd
00000180: 90cf eb3c d433 4ebd 4775 6e3d 7e0d 90bc
00000190: f326 073f 61e7 6e3c 3335 90bc 393f 603e
000001a0: 160f 303f 8c67 efbd 86b0 4f3d a28f 6abd
000001b0: 7ba1 f1bc e3b3 203c d8f3 57bc a306 ea3e
000001c0: fe35 9d3c 5884 93bc 349d f7bd 379f 023e
000001d0: 4375 9fbc c273 3f3c 56f5 423e 6a1e 093e
000001e0: 5f4f 733d c588 80bd e706 2bbc e80e c4bd
000001f0: 30e1 583d 5aba 8cbd e6da c7bd 13f6 503e

fc3.weight f4 [9, 128]
-0.0012082651 -0.1475466 -0.011564873 0.36514038 -0.03364151 0.024921384 -0.07783997 0.014775305
-0.20755419 0.22303814 -0.015667362 0.065771274 0.2892414 0.050103534 0.0825478 0.15382484
0.18642373 0.013275996 0.034866694 -0.02730604 -0.13918462 0.19688155 0.051248748 0.04708111
0.061157 0.0150988875 0.08808609 -0.043767292 -0.09485604 0.07241698 -0.015853819 -0.0017581257
-0.084753685 -0.022853723 -0.041425988 -0.059305217 0.04885711 -0.1654337 0.21550319 0.091799505
0.020440474 0.056282956 -0.045213792 0.12726596 0.022796312 -0.09899879 0.4638175 0.09328839
0.26811716 0.33066827 -0.19731894 0.0629942 -0.026683133 0.029931026 0.023461318 -0.35845777
0.0031605256 -0.06637381 -0.029108942 0.21359001 -0.047677875 -0.08787001 0.0035480293 -0.075110644
0.008283036 0.27005813 0.06260773 0.23115906 -0.14021127 0.0032462033 -0.032507274 -0.16643584
0.03064934 -0.025597693 0.027163243 0.060586736 -0.06306049 0.29412106 -0.046616938 -0.06409024
0.11143581 0.2659144 -0.046550173 0.15667672 -0.029279942 0.0970751 0.22153282 0.091028094
-0.003378099 -0.09033685 0.3790295 -0.84611124 0.09453736 -0.08816785 -0.072441414 0.09886735
-0.01149768 -0.08810869 -0.06414082 0.004686582 0.2746783 -0.005382997 -0.059992675 0.36420888
0.25635093 0.06602227 0.024053052 0.0014489666 -0.0665166 -0.060095385 -0.004838071 0.24465367
-0.19178616 0.0057461187 0.033705 0.15545487 -0.0012209925 -0.038384326 0.10452246 0.3224622
0.15154344 0.030786276 -0.27113745 0.18306269 0.19410603 0.0573304 -0.022344204 0.23381889
0.072602004 -0.09746967 0.08613562 0.09449375 0.043903764 -0.15150207 -0.22476132 0.04381592
-0.17215887 0.11957051 -0.044229582 0.06427809 0.17392002 -0.029264344 0.52366084 0.15949014
-0.6243564 0.0522041 0.013485485 -0.1994964 0.0111075835 -0.26866454 0.023068942 0.04701187
0.030162895 0.056223333 -0.22886612 -0.05591757 -0.32473934 -0.04638094 0.07260582 -0.0069399117
0.014800355 0.06304574 -0.07514707 0.17137724 -0.0905241 0.033293545 -0.36933613 -0.0062008197
-0.033614818 -0.15416197 0.034603637 -0.13776222 0.105098575 -0.011184685 0.44034365 0.26199657
-0.39354876 -0.15589309 0.103744544 0.19066934 -0.0785183 -0.005749399 0.026797466 -0.15607147
-0.0971516 -0.06861826 -0.045303002 -0.029738152 0.00015452088 0.031247023 -0.11144122 -0.20020048
0.54249346 0.46829155 0.4669167 0.28341788 -0.24101238 0.002150973 -0.27307037 -0.1325304
-0.16006006 0.072844155 0.03313437 0.03919959 0.029230818 0.114665836 0.034014765 -0.19105846
0.12311154 0.21513177 -0.025333088 -0.03135137 0.07979428 0.27842012 0.64128023 -0.5196457
-0.0429943 0.1226179 -1.9267504 -0.08694926 0.19705309 -0.09797492 0.076812044 0.023479054
-0.42229813 0.012600911 0.16568229 -0.062722676 0.18510179 -0.053749293 -0.0120549295 -0.21828361
0.19549794 -0.04667368 0.0069300737 0.031418677 0.07795513 0.025316596 -0.0465678 0.22699568
-0.03882105 0.19830306 -0.042306054 -0.062331367 0.08176395 0.06610202 0.3455431 0.45182297
0.23792842 0.084842466 -0.10425182 -0.30075178 0.27558008 -0.09789146 0.03597261 0.48650944
00000000: a65e 9eba 7516 17be 987a 3dbc aef3 ba3e
00000010: aecb 09bd ee27 cc3c 906a 9fbd 1f14 723c
00000020: 1689 54be 1c64 643e d758 80bc 17b3 863d
00000030: 7317 943e 5d39 4d3d d20e a93d 4284 1d3e
00000040: dde5 3e3e 9083 593c 61d0 0e3d ebb0 dfbc
00000050: 6a86 0ebe 519b 493e 35ea 513d 1fd8 403d
00000060: c37f 7a3d 5361 773c 7b66 b43d 5545 33bd
00000070: e243 c2bd 5b4f 943d dedf 81bc e970 e6ba
00000080: 5793 adbd bb37 bbbc 4cae 29bd 07ea 72bd
00000090: 651e 483d 7467 29be deac 5c3e 6101 bc3d
000000a0: c872 a73c f588 663d 1932 39bd 0252 023e
000000b0: 55bf ba3c e1bf cabd 7d79 ed3e fc0d bf3d
000000c0: a746 893e 5a4d a93e fa0d 4abe 1a03 813d
000000d0: 9696 dabc e931 f53c f331 c03c c787 b7be
000000e0: d220 4f3b feee 87bd e075 eebc 57b7 5a3e
000000f0: e049 43bd 31f5 b3bd 0e86 683b 9cd3 99bd
00000100: 92b5 073c 0f45 8a3e 7b38 803d f6b4 6c3e
00000110: 8b93 0fbe 41be 543b 5926 05bd 286e 2abe
00000120: 5314 fb3c 41b2 d1bc 7385 de3c cc29 783d
00000130: dc25 81bd 0997 963e 67f1 3ebd be41 83bd
00000140: 7538 e43d ef25 883e 65ab 3ebd dd6f 203e
00000150: 7ddc efbc 4fcf c63d 80d9 623e f06c ba3d
00000160: 1963 5dbb 8702 b9bd 2810 c23e bf9a 58bf
00000170: ce9c c13d 5991 b4bd 2a5c 94bd f77a ca3d
00000180: c460 3cbc 5472 b4bd 435c 83bd e691 993b
00000190: a2a2 8c3e da63 b0bb e1ba 75bd 9679 ba3e
000001a0: 6e40 833e af36 873d e80a c53c 40eb bd3a
000001b0: db39 88bd 9426 76bd ae88 9ebb 7e86 7a3e
000001c0: 9763 44be f049 bc3b 410e 0a3d 902f 1f3e
000001d0: b609 a0ba e238 1dbd df0f d63d c419 a53e
000001e0: 342e 1b3e 8033 fc3c 87d2 8abe c974 3b3e
000001f0: bbc3 463e 48d3 6a3d 310b b7bc 386e 6f3e
00000200: 5cb0 943d 2e9e c7bd df67 b03d f085 c13d
00000210: 6fd4 333d 5c23 1bbe d527 66be 5278 333d
00000220: 6a4a 30be 62e1 f43d 142a 35bd 3ba4 833d
00000230: 1718 323e c7bb efbc a30e 063f 6251 233e
00000240: d2d5 1fbf f7d3 553d 39f2 5c3c c948 4cbe
00000250: 95fc 353c 668e 89be 14fb bc3c 858f 403d
00000260: 2d18 f73c 704a 663d e15b 6abe d209 65bd
00000270: 3c44 a6be f1f9 3dbd 5cb2 943d 3368 e3bb
00000280: 307d 723c 201e 813d b5e6 99bd 847d 2f3e
00000290: b364 b9bd d05e 083d a019 bdbe 3f30 cbbb
000002a0: b1af 09bd a3dc 1dbe 8bbc 0d3d 8a11 0dbe
000002b0: ec3d d73d f83f 37bc b974 e13e 6a24 863e
000002c0: 397f c9be 70a2 1fbe 0578 d43d d33e 433e
000002d0: 34ce a0bd 7465 bcbb 5c86 db3c 33d1 1fbe
000002e0: 6bf7 c6bd bb87 8cbd a48f 39bd 6d9d f3bc
000002f0: e206 2239 c2f9 ff3c 4b3b e4bd 5b01 4dbe
00000300: dae0 0a3f e9c3 ef3e b50f ef3e 261c 913e
00000310: f3cb 76be 57f7 0c3b e1cf 8bbe 0db6 07be
00000320: c9e6 23be 512f 953d e8b7 073d c08f 203d
00000330: 7875 ef3c ecd5 ea3d 1153 0b3d d4a4 43be
00000340: e721 fc3d 814b 5c3e 5687 cfbc 4b6a 00bd
00000350: 2f6b a33d 158d 8e3e f12a 243f 8007 05bf
00000360: cb1a 30bd 181f fb3d c29f f6bf 7412 b2bd
00000370: 49c8 493e 13a7 c8bd a24f 9d3d 2557 c03c
00000380: 7637 d8be 0d74 4e3c 9ea8 293e bf74 80bd
00000390: 538b 3d3e 3828 5cbd 0a82 45bc bd85 5fbe
000003a0: 9d30 483e e72c 3fbd ac15 e33b dfb0 003d
000003b0: f0a6 9f3d c064 cf3c e1bd 3ebd 8e71 683e
000003c0: d202 1fbd f50f 4b3e 1d49 2dbd 2d4f 7fbd
000003d0: dc73 a73d 7f60 873d 06eb b03e 5755 e73e
000003e0: 82a3 733e e3c1 ad3d fa81 d5bd 23fc 99be
000003f0: d518 8d3e 517b c8bd 0458 133d c417 f93e

fc3.bias f4 [9]
0.100312084 -0.07223727 0.027049927 0.12531437 0.061873138 0.04351084 0.14320606 0.04990356
0.0898926
00000000: 6c70 cd3d 22f1 93bd cf97 dd3c 6952 003e
00000010: b06e 7d3d 6c38 323d 9ca4 123e ad67 4c3d
00000020: 9d19 b83d
