Martti/Graphs/MarttiWeights-1x1x1-b128-lr0.001000.pt (torch, 69975 bytes, 5 tensors)

fc1.weight f4 [128, 2]
00000000: cc8f 303f 0d82 abbe fa0e abbe 18b9 d5b8
00000010: 3288 cebe 1baa d8be a3c0 f5be a6e2 9c3d
00000020: 5cbe 3c3f 2155 1bbf f614 cb3e 7d66 2cbf
00000030: 2783 213f 3026 453e 47fe fd3e 3f29 2e3e
00000040: 5da3 863e 8feb 34be 0991 18bf f35a ad3d
00000050: 1d89 cfbc 65ee 65be 6f79 8bbe d5ea 8cbe
00000060: 813d 3cbd d663 d0be a946 07bf c935 18bf
00000070: 08e9 83be de65 633e c854 c83e 688c 103f
00000080: b7ef c9be 8efd e1be 1917 7bbe c2ce b63d
00000090: e933 063e 2838 233f e23c 8ebe fc04 0dbd
000000a0: 688f 00bf b085 93bc 0ed1 f03b d877 133f
000000b0: f747 10be 7a05 03be 3b5f 18bf 0eec fabd
000000c0: ffc4 8f3e 34ee c4be a393 c83d 2387 4c3c
000000d0: 8609 ac3e 4086 1bbf 4c91 44be 8ea5 7cbe
000000e0: 1a6d f73e 245c 68be 2e32 86be 6bdc 0cbf
000000f0: 7d25 333f 6884 5fbe 6d95 203f ec45 983e
00000100: 95fa 2abf 96d3 c93d 9b01 30bf fb61 913e
00000110: bfb9 b9be a636 12bf 2210 f93e 651b 32bd
00000120: 4e05 c53e 6f10 fe3e f4f8 943e 5935 9b3e
00000130: c5dc bc3e d71a 503d e72e 163f 415f 7ebe
00000140: c9e2 c1be 3475 39be 40f3 1e3f 2ec3 ffbe
00000150: fe9f 2e3f e9e1 01bf c828 383f 905a a93e
00000160: 4b43 14bf 99c0 91be 2029 dabe 5c18 193f
00000170: f235 da3d 5ba5 bf3e a3a1 f73e 71ea ef3e
00000180: 6d63 6c3c 0e66 8f3e 6156 243f 901a 743c
00000190: afb0 f5be eebe 1cbf a132 bb3b de6e 12be
000001a0: 72c1 213f 4ecd d0be fba1 d5bd b397 123f
000001b0: 57f8 ed3e c546 693e 864b f7be 11a8 ff3e
000001c0: 5bd2 9d3e d2ca 16bf 864a a63e bb88 a1be
000001d0: 04a8 143f 5a49 02bf d74d 4a3e 6af7 dc3e
000001e0: 7b21 56be 46a7 a03e 0eee c3be 9e78 0fbf
000001f0: 637e 1b3f 5de0 fc3e bc24 fdbe 963a 833e
00000200: 7141 353f a06c 753e bbf4 1c3f 955a 663e
00000210: 9e3d 90bd 6231 a33e 9e04 063e 2a22 06bd
00000220: 787b fabe 9233 68be 60bf 1fbf 79ec c83e
00000230: 955b 69be de15 f63d 8467 3a3f d82e 05bf
00000240: e9e4 66be 9e3b 0bbe f314 00bf d909 e73e
00000250: 78d6 09bf 86bc ac3e cbfd 94be cfba 8bbe
00000260: f7ca d4be e908 0abf 37f8 30bf 0570 2e3f
00000270: 0b1b e73e 81f3 bcbe 5d3b 353f 15d9 e73e
00000280: 85fd 913e cfd4 fa3e 5512 0a3f aca7 dbbe
00000290: b8f9 213f 1c5d 7a3e 0472 96be 8137 fdbe
000002a0: 0f55 d03e 4cc1 a83e 634a 3cbe 2465 173e
000002b0: 0836 07bf 7453 163f f64b c3be 3b93 873e
000002c0: 67e6 673e 33ec 33bf 6358 2abf 8fd7 28bf
000002d0: 2ef7 51be 3404 563e 1f25 ddbe cb7d 47be
000002e0: 2c41 013e 9462 0a3e e5ca d83e 1c71 313f
000002f0: 1033 033f 11b6 2fbd 1e9a a8be 100d 3d3e
00000300: 2831 1b3f 4ce0 26be 2eb0 343e 552b ec3e
00000310: d20a ff3d cbba 9f3d 354f 3bbd be3d 2c3e
00000320: caa6 183d 179d 06bf 2b13 b7bd 837a b0be
00000330: 7a8b ae3e f042 27bf 27d0 05bf cb82 933e
00000340: 5a53 fcbd 1148 6a3e f6ba fd3d 3907 e83d
00000350: 8c74 fdbe d7bf 7e3d d315 c3be 4c76 8d3c
00000360: 5acf ebbd 619e 16bf 068d 9d3c 372f 1c3f
00000370: c866 0e3f 3a64 2fbf 68ca 983e a78a ed3c
00000380: 4d86 33bf 7025 063d 6805 1e3f 25e3 7b3e
00000390: 8bc7 06bf 2323 1abf b653 19bf 1c4a 573e
000003a0: c755 c93e 61e3 243f e270 c2bd 29f6 df3d
000003b0: 9739 b83d 9487 b73e f06e 363f cda7 f1be
000003c0: ea82 1c3f 0dbc 1d3f 79ab afbe b197 bebe
000003d0: 7ec9 9cbe 75d2 acbe 00e4 13bd 1633 143e
000003e0: 6a4e 1e3f 71bc ab3e 3c18 2c3f 9882 bd3b
000003f0: 0233 353f 48b9 283f e16c 8e3e 075a d63e
0.68969417 -0.33497658 -0.33409864 -0.00010191108 -0.40338284 -0.4231728 -0.47998533 0.07660417
0.73727965 -0.6067677 0.3966443 -0.67343885 0.6309075 0.19252849 0.4960806 0.17007922
0.2629651 -0.17667983 -0.59596306 0.08464613 -0.025333935 -0.22454222 -0.27241084 -0.27522913
-0.045957092 -0.4070117 -0.52842194 -0.5945707 -0.25763726 0.22206828 0.39127183 0.5646424
-0.394407 -0.4413876 -0.2452053 0.08926155 0.1310574 0.6375756 -0.27780825 -0.03442858
-0.5021882 -0.018008083 0.00734914 0.5760474 -0.14089952 -0.12795058 -0.5952031 -0.12252055
0.28079984 -0.38462985 0.097937845 0.012483391 0.33601016 -0.60751724 -0.19196051 -0.24672529
0.48325425 -0.22691399 -0.2621016 -0.5502383 0.6997908 -0.21827853 0.62728006 0.29740846
-0.6678861 0.0985481 -0.6875245 0.28395066 -0.36274526 -0.57114637 0.4864512 -0.043483157
0.3848061 0.49621913 0.29096186 0.3031414 0.36887184 0.050806846 0.5866532 -0.24841024
-0.37868336 -0.18111116 0.6208992 -0.49953598 0.6821288 -0.50735337 0.7193723 0.33076906
-0.5791518 -0.28467253 -0.426095 0.59802794 0.106548205 0.37430844 0.48365507 0.46858552
0.014428002 0.2800755 0.64194304 0.014898911 -0.4798636 -0.61228836 0.0057128225 -0.14300105
0.631858 -0.40781635 -0.10431286 0.57262725 0.4647853 0.22780903 -0.48299807 0.49932912
0.3082455 -0.5890323 0.32478732 -0.3154963 0.5806887 -0.50893176 0.19756256 0.43157512
-0.2091121 0.3137762 -0.3826756 -0.5604342 0.60739726 0.49389926 -0.4944209 0.25630635
0.7080298 0.23967218 0.6131093 0.22495492 -0.070430025 0.31873614 0.13087699 -0.032747425
-0.48922324 -0.22675923 -0.6240139 0.39242914 -0.22788842 0.120158896 0.728142 -0.520246
-0.2254826 -0.13596961 -0.50031966 0.451247 -0.5384288 0.33737582 -0.2909988 -0.2729096
-0.415611 -0.53919846 -0.69128746 0.6813968 0.4513782 -0.3690453 0.70793706 0.45282808
0.28513733 0.48990485 0.5393422 -0.4290136 0.63271666 0.24449581 -0.29383862 -0.4945641
0.40689895 0.32959974 -0.18387751 0.14784676 -0.5281682 0.5872109 -0.3814389 0.26479515
0.22646485 -0.70282286 -0.6654112 -0.65953916 -0.20504448 0.20900041 -0.43192384 -0.1948158
0.12622517 0.13514167 0.42342296 0.69313216 0.5124979 -0.04289824 -0.32930082 0.18462014
0.6062188 -0.162965 0.17645332 0.4612681 0.12453236 0.077993 -0.045729835 0.16820428
0.037268437 -0.5258345 -0.08939203 -0.3446847 0.34090787 -0.65336514 -0.5227074 0.28810725
-0.123205855 0.22879054 0.123891756 0.113295026 -0.4950298 0.06219467 -0.38102588 0.017268322
-0.115141585 -0.5883542 0.019232284 0.61009544 0.5562558 -0.6851231 0.29841924 0.028996779
-0.701268 0.032750547 0.61727 0.24598368 -0.5264823 -0.60209864 -0.5989336 0.21024364
0.39323255 0.6440945 -0.09494187 0.10935623 0.089953594 0.35845625 0.7126303 -0.47198334
0.6113726 0.6161507 -0.3431051 -0.37225106 -0.30622476 -0.33754316 -0.03610611 0.14472613
0.618384 0.33542207 0.6722448 0.0057833903 0.70780957 0.65907717 0.27817443 0.4186556

fc1.bias f4 [128]
00000000: a9e2 7dbd fb74 e83e 3821 21bf f240 e53e
00000010: 9fa8 303e 9bf1 ddbb 470a fe3e dd57 21bf
00000020: 56b8 143f 32b6 a53e 850c 0b3f 10e4 853e
00000030: a601 93be 1bd6 66be eb1b 833e a99c 8a3e
00000040: d0bc 043e bdec d43c 4961 2cbf 169d 07be
00000050: 75a2 78be ba35 fb3e afb4 413f 3a5f 763e
00000060: 6324 a1be 37b9 173e e281 48bd 432a 2c3f
00000070: 24d8 2fbf d272 ee3e 1c57 d0be f4d6 d63e
00000080: db8c 09bd 5699 c33e 2a43 303f c248 f93a
00000090: 6043 ac3e 3916 1dbf 02f9 debe 0e7d 2dbf
000000a0: 73f3 b2be 2da4 3d3f 8b6d b03e 0a93 3ebe
000000b0: eb48 81be b293 57be 2107 013d 869b 31bf
000000c0: 535f 353d e0a9 2e3f c364 c23e 42cf 193f
000000d0: 6cec 91be 775f c5bd 3eeb 07bf 540f 88bd
000000e0: a0cd ccbe 1171 a93e 53ef 98be 6646 233e
000000f0: ed74 1ebf b50f 12bf d13c b8be 2a20 913e
00000100: ff73 e33e 3770 15bf 804e f93e 6381 9d3e
00000110: 8979 0cbf 4990 e13c d243 f33d cc72 2b3f
00000120: 179e 6abe 7a20 1bbf 6f02 053f 5f00 083f
00000130: def1 acbe 42d6 1e3f 271f 973e f8f5 55be
00000140: 516c 893e 77a6 cf3e 730e 703e 99d0 bbbe
00000150: 5575 14be 2f60 f5be 0da5 d93e 3170 bb3e
00000160: 3f7f a4bd 1f51 283f fb62 b13e cdf9 47be
00000170: d854 91be eaec b03e 1d43 783e 2f50 84bd
00000180: 951d f03d dc1e d03e 0e4c 403c fb1e c8be
00000190: ee72 ee3e 6343 14bf aae4 f1bb dce7 8abe
000001a0: c639 dd3c 3eae 81be b01b f0bd b2a7 973c
000001b0: 2bd0 8c3e f521 4f3e 9f2b 173f a3b9 eebe
000001c0: adfd 2ebf 6cc9 82bc 40eb 413f c968 f4bd
000001d0: 2590 133f 111c fe3e d1e3 60be e2f8 313f
000001e0: 582a 80bd 3422 6c3e d1d1 84be 3f9f 0c3f
000001f0: 7cac d5be 04eb 8b3e e422 9a3e b8d3 14bf
-0.061983738 0.4540175 -0.6294131 0.44776112 0.17251824 -0.0067731864 0.49617216 -0.63024694
0.58093774 0.32365566 0.5431598 0.2615056 -0.28712195 -0.22542612 0.25607237 0.27072647
0.12962651 0.025991792 -0.67335945 -0.13243517 -0.24280722 0.49064428 0.75666326 0.24059764
-0.31473073 0.14816748 -0.04895199 0.67251986 -0.6868918 0.46571976 -0.4069146 0.4196087
-0.033581596 0.38202924 0.68852484 0.0019018876 0.33645153 -0.61362034 -0.43549353 -0.67768943
-0.34951362 0.7407864 0.34458575 -0.18610778 -0.25250944 -0.21052435 0.03150094 -0.69377935
0.04428036 0.6822796 0.379675 0.60081875 -0.28500688 -0.09637349 -0.53093326 -0.066435486
-0.4000063 0.33094075 -0.2987009 0.15944824 -0.61897165 -0.5705522 -0.359839 0.28344852
0.44424435 -0.5837435 0.48692703 0.30762777 -0.5487295 0.02753462 0.1187817 0.6697204
-0.22911869 -0.6059643 0.5195684 0.53125566 -0.3377828 0.6204568 0.29515955 -0.20894611
0.2684045 0.4055669 0.23443012 -0.36682585 -0.14497884 -0.47924945 0.42508736 0.36609033
-0.08032083 0.6574878 0.3464583 -0.19528885 -0.28385043 0.3455575 0.24244352 -0.06460606
0.11724392 0.40648544 0.011736883 -0.39086136 0.4657206 -0.57915324 -0.007381995 -0.2713002
0.027005088 -0.2532825 -0.11724031 0.01851258 0.2750257 0.20227797 0.59050936 -0.46626005
-0.6835583 -0.015965186 0.7574959 -0.11934049 0.5764182 0.49630788 -0.21961905 0.6952039
-0.062580764 0.23059922 -0.25941327 0.5493049 -0.41733158 0.2732774 0.30104744 -0.5813556

fc2.weight f4 [128, 128]
00000000: 5265 a63d 5a52 993d 74b9 733d c2c4 1bbc
00000010: 54eb 603a dbf8 f53d 0e5f 8f3c e730 e73c
00000020: 92ec 643d 493a fe3b 1aaf e83d 6250 843c
00000030: e2c4 793d fd9d 36bd e4b5 8b3d 3efb aa3d
00000040: 7938 88bc ba01 5cbd f360 313d bea5 7c3d
00000050: bb69 14bc 0794 d33d 2419 04bd 2a03 06bd
00000060: f62e 88bd 5300 6fba 4ce8 4dbb 79b6 033e
00000070: c163 27bd 6e1e a9bc c7c7 d63d 484f 073e
00000080: b762 12bb 889c 10bc 8b60 273d c814 bfbc
00000090: 1a79 293d 0dbd b43d 07c7 b9bc 47cd ac3d
000000a0: 17d3 103d 0acb 7b3d a3cb 833c 9a78 303b
000000b0: 7d6f 123c e2ff 9cbd 122b 973d 65c4 c2bb
000000c0: bb07 f03d d24b bc3c af55 113d 5171 643d
000000d0: 041f a03d cb67 323d 46c7 7cbd bf52 8c3d
000000e0: 9e60 1e3d b894 993d 0c23 b73d 64c5 ea3d
000000f0: a3a2 7ebd 59c6 6f3b 8b12 d9bc ca14 b63c
00000100: 83ef 923d 8c9b be3d 8dfc dd3d f324 6f3c
00000110: cbbf 24bd c509 96bd fa79 91bd ea54 803d
00000120: 8d8e 583d b94d 27bd aa31 783d df69 293d
00000130: ef75 82bd 3368 92bd b8f1 9f3d 7c33 db3c
00000140: ce9f 82bb 1094 b43d b8b6 fcbc 2cca 103d
00000150: 5b6c b53d 027c c2bc 2e29 a23d 9dec 6fbd
00000160: d85f 9f3d dd4e 59bb ed8f 1e3d 84bb 613d
00000170: 5b56 59bd 9f86 a3bb fb8d bb3d 610b 11bd
00000180: 5eeb e6bc fccf 7a3d f17b d43d d716 323d
00000190: a905 933d 43fb 23bd b6bb ec3d 2513 b3b9
000001a0: d674 48bd ab65 9ebd 8f98 8bbd 8023 ab3d
000001b0: f39a ba3b b548 b439 9425 d13c 0782 89bd
000001c0: 8009 873c f0f5 5b3d 019f c03b 7e98 243b
000001d0: a952 a8bc 7369 a43d c584 9ebc 0303 42bc
000001e0: 9a23 693d 07b5 813a 9d54 80bd 06f6 ee3d
000001f0: 854a 94bb 027e cb3d feaa 1fbc 1a58 a83c
00000200: 0cdf 99bc 8830 0e3d f413 8abd 3e1d 1abd
00000210: 1654 133d 0032 20bb 680b 633d 8b3c 25bd
00000220: cfb7 ec3b 7f47 54bd 1bec 433d a7a2 adbd
00000230: 469d 423d 52d8 0d3d d016 513d 9adc 5a3b
00000240: 97dd 0bbd 8aaa b3bd beac 2fbd 4e85 063d
00000250: c318 a6bd 3279 343d 186d 84bd 2940 95bc
00000260: 7c19 9f3c 46e9 6abb 88de c73c 4c06 9f3c
00000270: 4a82 8c3d e4a9 96bc e2e6 803d 9d88 923d
00000280: a3e0 57ba 31d1 53bb 4c79 2a3d 8f51 b0bc
00000290: 0baa 04bc 3a94 88bd 4868 9c3d 0fd7 a3bd
000002a0: 1940 c3bc e0e0 30bd 1ac7 b4bd 39d9 943d
000002b0: 8bec 5c3d b737 9bbd 3fb7 9f3d 02ba 6dbd
000002c0: 2b33 513c 155f d23c 1aeb 74bd f8b6 1c3d
000002d0: fbb2 bbbd 6b34 21bd 69ce d6bc d1fc 47bd
000002e0: f294 a73d d784 8e3d 14b8 ce3c 2257 503d
000002f0: ea90 a23d 4228 4f3c 9c0d 933d f8c2 293d
00000300: 29db 1bbd 1293 093c 7bba 703d 7a56 22bd
00000310: c12f 2c3c 2112 74bd 989c 023d 9be4 a4bd
00000320: 6649 2c3d 77f0 b2bd b579 3abc 8347 9ebd
00000330: 5e29 cabc 2159 613d 2d5d 17bd d25a e6bc
00000340: cd81 5cbd e846 87bc 3cf9 a2bd 2c12 b33b
00000350: 3ea4 7f3d 7756 4c3d 558b b13d cb68 5c3d
00000360: bb92 243d 2c00 aabd 9b6b bfbd 9fd3 9fbd
00000370: f168 023c 663a adbd 7f9b 9a3d a976 0b3c
00000380: 32fc 163d 37c4 cabc b0ed 2bbb f377 983d
00000390: 840f 8ebd 02af afbd cb04 6fbd 8984 e4bb
000003a0: ddab 3f3d 367e 473c 1a46 573d 6110 10bd
000003b0: d320 69bc a2a3 48bc 84fb 45bd 00f3 313c
000003c0: b68b 633d 0c59 113d a066 a6bd 2588 41bd
000003d0: df94 aebd 1bc0 8cbd eeb2 353d 7349 393d
000003e0: da5f 83bd 5773 88bd 2d8d 8c3d 1f7d 9c3d
000003f0: 22a0 f2bc 706c dd3b e8a1 d33c caae 15bd
0.08124794 0.074864104 0.059503034 -0.00950736 0.00085799885 0.12010356 0.01750138 0.02822156
0.055889674 0.007758413 0.11361523 0.01615161 0.060978778 -0.044584263 0.06821802 0.08348702
-0.01662849 -0.053712584 0.04330535 0.0616815 -0.009058411 0.10330968 -0.03225054 -0.03271786
-0.06649582 -0.0009117175 -0.0031418977 0.12862577 -0.040866617 -0.020644393 0.10487323 0.13213837
-0.002233667 -0.008826382 0.040863555 -0.023325339 0.041375257 0.08825121 -0.022677911 0.08437591
0.03535756 0.06147293 0.016088312 0.0026927353 0.008937714 -0.07665993 0.07381262 -0.005943822
0.117202245 0.022985373 0.035482105 0.05577213 0.07818416 0.043556016 -0.06171348 0.0685172
0.03866636 0.07499069 0.089422315 0.114634305 -0.06216682 0.003658673 -0.0264981 0.02222671
0.071745895 0.09307012 0.10839186 0.014596212 -0.04022197 -0.07326082 -0.07103343 0.06266196
0.052870322 -0.040845606 0.06059424 0.041360732 -0.0637015 -0.07148781 0.07809776 0.026757948
-0.0039863354 0.08817303 -0.030848846 0.035349056 0.08858558 -0.023740772 0.07918011 -0.05857526
0.077819526 -0.0033158578 0.038711477 0.05511047 -0.05306087 -0.0049904133 0.0915794 -0.035411242
-0.028188404 0.061233506 0.103752024 0.043478813 0.07178814 -0.040034544 0.115592405 -0.00034155804
-0.04893955 -0.077342354 -0.068162076 0.083563805 0.005694741 0.00034386446 0.025530614 -0.06714254
0.016484022 0.05370134 0.0058783297 0.0025115306 -0.020547228 0.08027925 -0.019350419 -0.011841538
0.056918718 0.0009895869 -0.06266139 0.11668019 -0.004525485 0.099361435 -0.009745358 0.020549823
-0.018783115 0.03471425 -0.06742087 -0.037625544 0.035968862 -0.0024443865 0.0554308 -0.04034094
0.00722406 -0.051825996 0.04783259 -0.08478289 0.04751327 0.034630127 0.051047146 0.003339565
-0.03414687 -0.08772762 -0.04288935 0.032841973 -0.08110192 0.044060893 -0.064661205 -0.01821907
0.019421332 -0.0035844608 0.024398103 0.019412182 0.06860788 -0.018391557 0.062940374 0.07154963
-0.00082350726 -0.0032320733 0.041619584 -0.021523265 -0.008097182 -0.06668897 0.076370776 -0.080000035
-0.023834275 -0.043183208 -0.08827038 0.072679944 0.053936522 -0.07578986 0.07798623 -0.05803872
0.012768547 0.025680104 -0.059794523 0.03826043 -0.09164997 -0.03935663 -0.02622147 -0.04882509
0.08182706 0.06958931 0.02523426 0.050864346 0.079377964 0.012643876 0.0718033 0.041445702
-0.038050804 0.008396881 0.05877159 -0.03963325 0.010509432 -0.0595876 0.03188762 -0.080514155
0.042062186 -0.08737271 -0.011381556 -0.077284835 -0.024677929 0.05501664 -0.036954094 -0.028119478
-0.053834725 -0.016513303 -0.07957694 0.0054648127 0.062412493 0.049887147 0.086691536 0.053810876
0.040178996 -0.08300814 -0.09346696 -0.078040354 0.00795959 -0.08458404 0.0754919 0.0085121775
0.036861606 -0.024751766 -0.0026234202 0.074447535 -0.06936553 -0.08578302 -0.05835418 -0.0069738072
0.04679476 0.012176087 0.05255709 -0.03517187 -0.014229017 -0.012246044 -0.048335567 0.010861158
0.05555316 0.035485312 -0.08125043 -0.04724898 -0.08524489 -0.06872579 0.044360094 0.045236062
-0.064147666 -0.06662624 0.06862865 0.076410525 -0.029617373 0.0067573115 0.025834039 -0.036543645

fc2.bias f4 [128]
00000000: 1978 fe3d 4f0d 4ebd fcdd afbd f1cd 133d
00000010: 2bbf 8d3d a80d 81bd 2b85 9c3d a612 abbd
00000020: b074 30bd e40a 4e3d eeb7 b13d f86c 70bd
00000030: b73d 8bbc bda7 0f3c 49df a5bd 45a8 4bbd
00000040: b81d cb3b 6d20 4a3d 1e0d 433d 9974 56bd
00000050: 2cdc 27bd b135 4fbc 1cca 9ebd 215c da3b
00000060: 79ca 8b3c a4e4 9f3d d52a a73c ab11 adbd
00000070: 8cd2 b73c 607a 9abd e195 a03d d43e a33d
00000080: a012 81bd b391 743a a611 843c fb1a 763d
00000090: 257e 72bd 0e39 b03b 2800 54bd 0ac1 c13d
000000a0: 21a0 253c 3928 c63d 48b6 083e 7bcb 9fbd
000000b0: 4c5a ab3d f3c1 0abd 5b4b 56bd 4295 2ebc
000000c0: 675e 813d 7e69 523c 54e2 003e d500 913d
000000d0: e447 8d3d e781 8ebd a823 053e e856 d83b
000000e0: 288e 96bd 3a3c a33d fbe3 efbc 8417 e83c
000000f0: 494b a9bc f2f1 f93d 58d0 67bd 9f4e 02bd
00000100: 5a63 71bd d70c 10bd e351 0bbd 5f7e ae3d
00000110: 8ff3 fe3d 4bf4 16bc 7ae3 8cbd 2092 12bd
00000120: 6d40 aa3d 600f 493d 9538 92bd 3067 3abc
00000130: 8f4e 8abd a939 dd3c c129 263d 3faf 6d3b
00000140: e556 a83c eec5 ac3d 8523 98bd 9936 97bd
00000150: 246d 413d 3628 b13d d228 42bd 4d62 02bd
00000160: c390 1fbc bf14 fe3d 3a7c b3bc 4404 673d
00000170: cbc8 543c 14c4 e1b8 5df9 09bb d95e ffbc
00000180: 4e41 3c3d b6e2 02bd b762 f7bc ee10 003d
00000190: 217c 593d 8fea 8f3d a823 153c 5934 1ebd
000001a0: 9387 74bb 8489 903d 1e0d 423c 6c7c c3bb
000001b0: e5c9 9dbc f342 5fb8 1538 ef3d 1dcf ad3c
000001c0: 9b04 0d3d 71cf a53b 115e 8dbc bdf1 fdbc
000001d0: 227b 10bd cd05 35bd 65a4 c13d bbe0 a53b
000001e0: 6036 8d3c 92d8 483d ba9d aabd caec be3d
000001f0: 65ed 3abd 5858 d23d 69ce 24bc 8b1e b53b
0.124252506 -0.05030566 -0.08587262 0.036085073 0.06921228 -0.06301433 0.07642587 -0.08353166
-0.043080032 0.050303355 0.0867766 -0.05869767 -0.016997201 0.008768019 -0.08099229 -0.04972102
0.006198611 0.04934733 0.04761993 -0.05235729 -0.040981457 -0.012647078 -0.07753393 0.0066638147
0.01706432 0.078072816 0.020406166 -0.084506355 0.022439264 -0.075428724 0.07841087 0.07970968
-0.063023806 0.0009329572 0.016121697 0.060084324 -0.059202332 0.005377895 -0.05175796 0.094606474
0.0101089785 0.096756406 0.13350785 -0.07802483 0.08366832 -0.03387637 -0.05231796 -0.010655703
0.06316834 0.012842534 0.12586337 0.07080237 0.06898478 -0.06958371 0.13001883 0.006602157
-0.07351333 0.07970472 -0.029283514 0.028331526 -0.020665782 0.122043505 -0.056595176 -0.03181326
-0.05893264 -0.035168495 -0.03401364 0.08520197 0.12448799 -0.009213517 -0.06879325 -0.035783887
0.083130695 0.04908693 -0.071396984 -0.011377141 -0.06753265 0.027005034 0.040567163 0.0036267785
0.020549247 0.084361896 -0.0742865 -0.073834606 0.047223225 0.08650248 -0.04740221 -0.03183203
-0.009739104 0.12406301 -0.021909822 0.056400552 0.012987326 -0.000107653585 -0.0021053173 -0.031173157
0.045960717 -0.03195449 -0.030198438 0.031266145 0.053096894 0.070271604 0.009102739 -0.03862414
-0.0037312254 0.07057479 0.011843948 -0.00596576 -0.01926131 -5.3229694e-05 0.11680619 0.021216923
0.03442822 0.0050601293 -0.017256768 -0.030999059 -0.03527368 -0.044194985 0.09455184 0.0050621904
0.017237842 0.049034663 -0.08330865 0.09322508 -0.045636553 0.102707565 -0.010058978 0.0055273226

fc3.weight f4 [1, 128]
00000000: 8000 d63d 5bbe 64bd 6a84 7bbd 62b7 43bd
00000010: 6b4a f0bc d2dd 9d3d a8b2 4e3d dbf9 4ebd
00000020: 138a bb3a 6612 5f3d f9b1 ef3c c837 09bc
00000030: 65ed c9bb fd3d 8a3c 7c59 4e3d fb9c 81bd
00000040: 0bdf 92bb 1713 0b3c c8a8 b0bb ba9f f23c
00000050: 73d9 9a3d f928 06bc ebcd 9fbb df10 16ba
00000060: 66f8 eb3d cfb8 4a3d 5020 f73c c522 4c3c
00000070: da31 fb3d 84b8 b03b 7bc4 a23d 5d81 16bc
00000080: 720a 9fbd 2402 533a f76d 893d c664 3ebc
00000090: 18d1 2abd d14c 453d 3e30 ae3d 2ded cd3d
000000a0: 79d2 6abc 89cd 263d d0c4 b83d 273a 8a3d
000000b0: 8d02 693d 3608 0f3d 94f2 3c3d 32d7 1dbd
000000c0: 29ef 153d 0639 2cbd aa2f e03d cb37 81bd
000000d0: ebfa 163c dcd6 ddbc bc46 dd3d 4b59 523d
000000e0: 2259 6d3d 6ae5 69bd 3719 17bd 44cd a9bc
000000f0: c0aa dc3d b7cb ca3d e735 a73c 76b1 89bd
00000100: a22f 99bc fefa fc3d 601e d83d 8123 5d3d
00000110: 2b1f 0f3e 3ea2 80bd 7d87 3cbd 6d3e 8abc
00000120: 2480 63ba 97e0 a1bc a19b 9f3d 531e f73d
00000130: 10d3 6fbc ba06 b13d 88fc 1bbd 9416 9f3d
00000140: 4441 8c3d 8cbc aa3d 0cfa 973d 6629 1abb
00000150: bd4b 4cba e669 f73d 3caf acbd 6ad0 363d
00000160: 90a9 f6bc c078 763d 461f 923b 3ab2 ae3c
00000170: 5c3e 013e bbc5 753d 5279 25bd b988 f93d
00000180: 3caf e4bb 96c9 653d a7cd be3c d47f 24bd
00000190: 9909 a3bb 3c00 44bd effb 4bbd 9ed3 34bd
000001a0: e1c8 93bd 3d76 c6bb 3ec7 e9bc 6cc9 ae3d
000001b0: 8088 9fbc 64dd dd3c 71d4 8b3d daca 5f3c
000001c0: ed7b 8bbd acc7 303d b74e 3ebb 147c 983d
000001d0: a9e3 30bd 9bf5 b0bd 9966 923d f6d6 aa3d
000001e0: 5aa5 ea3d 3665 39bd 99b1 fc3c 3aa9 cb3d
000001f0: 46ef 03bd a289 da3d 9b11 21bd 3f76 35bc
0.10449314 -0.0558456 -0.061405577 -0.04778231 -0.02933236 0.077083245 0.05046335 -0.05053125
0.0014308117 0.054460905 0.029259669 -0.008375116 -0.006162333 0.016875261 0.050378308 -0.0632877
-0.004482155 0.008488438 -0.005391214 0.02961718 0.075610064 -0.00818848 -0.0048768423 -0.000572456
0.115219876 0.049492653 0.030166775 0.012459462 0.12265368 0.0053930897 0.07947632 -0.009186116
-0.07765664 0.000804933 0.06710427 -0.011620706 -0.041703314 0.04816896 0.08505295 0.10055003
-0.014332407 0.040723357 0.09021914 0.06749373 0.0568872 0.03491994 0.046129778 -0.038535304
0.036605034 -0.04204657 0.10946591 -0.0630947 0.009215097 -0.027079992 0.10804507 0.051354688
0.05794633 -0.057103552 -0.03688928 -0.020727761 0.107747555 0.09902137 0.020411445 -0.06723301
-0.01869947 0.123525605 0.105526686 0.053988937 0.13976733 -0.06280945 -0.04602765 -0.01687547
-0.0008678457 -0.019760413 0.07793356 0.12066331 -0.014637724 0.08643861 -0.03808263 0.07767978
0.06848386 0.08336744 0.074207395 -0.002352321 -0.00077932683 0.120807454 -0.08431861 0.044632353
-0.03011015 0.06017375 0.0044592945 0.02132522 0.12621444 0.060003024 -0.040398903 0.12184281
-0.0069788974 0.05610045 0.023291422 -0.04016097 -0.0049755094 -0.047851786 -0.04980081 -0.044147126
-0.07216049 -0.0060565756 -0.028537389 0.08534512 -0.019474268 0.027083106 0.06827629 0.013659203
-0.06810746 0.043159172 -0.0029038617 0.07445541 -0.043185864 -0.086405955 0.07148475 0.08341782
0.114573196 -0.045262538 0.030846404 0.09944387 -0.03221061 0.106707826 -0.03932343 -0.011075555
