Graphs/MarttiWeights-5x5x2-b128-lr0.001000.pt (torch, 107415 bytes, 6 tensors)

fc1.weight f4 [128, 51]
00000000: da95 b1bc c275 49be c74d a63d 82b4 83be
00000010: f524 cdbd b6e9 93bf 65fb 20be c32d b2bd
00000020: 352b abbe 04ee 2fbe 3ccd 6cbe 29f7 e5bd
00000030: 46ea 53be 9921 22bf d920 60be b1af 70bf
00000040: 4ef5 1d3e 6403 01be 2ff1 b83c 2309 c43e
00000050: dd3d 7d3e 33a8 6e3e 1a7d 953d b447 b9bf
00000060: 978d 7e3e 74c4 80be 6267 1f3e d1fc 8ebe
00000070: 7193 a73d 2b2e 3a3f ffde c63d ffb5 913e
00000080: 8817 d93d f8e4 6c3c 0181 3a3f df60 6c3d
00000090: 672a a03d 00dc 823e 3fd5 7e3e ea7e 3dbc
000000a0: 4f9f dbbc 864f 2c3e fd1a 633d 052b 3a3e
000000b0: 2d28 983d 52ae 163e 63be 9bbd 2a81 fabc
000000c0: 8777 f63d 2593 203c cf93 0e3e 038c b23c
000000d0: 88ee 543f 9df1 4a3e 78b5 bcbd fcaa 1f3e
000000e0: 7ce3 443e 802c 96bb ba6b 8c3d 8980 a7bc
000000f0: 5d7b 6d3e 8300 9cbe d509 993e 0975 5f3e
00000100: 4870 473f 0297 77bd 72ca 353f 8966 663e
00000110: 08a0 a63d 0454 933e baa8 ed3c 2a13 da3e
00000120: 31f4 d63d 166f 113e cf62 4140 3ceb a93e
00000130: 4478 943d e8c5 b4bd e4bc edbe fe57 2dbc
00000140: 24e1 08bf 6b62 563e 7693 123e 202a 7e3d
00000150: 8c3c 28bf e331 973e c9db 983e 89c7 93be
00000160: 772f 883e 0524 153e 24dc 613d 1bc6 3a3e
00000170: 1c16 f0bd d357 9abd 3dc9 b3bf 7840 783f
00000180: 585b 573d 7acf 1bbe ef5c 753d 533a 243e
00000190: 5f90 1cbf 59fa 97bd d0a1 e53b 0aea 10bf
000001a0: a871 52be b650 30be 9e87 1cbe 73d6 cb3b
000001b0: 73d1 eabf 4e5d 96be 968c aebd 7af1 6d3e
000001c0: d716 1ebf f63a aebe d7bc b73d 28fe 74bf
000001d0: 77a6 893f 3cd1 f1be c0af 30be d43e 32be
000001e0: a454 a0bc 512a 99be 82d4 78be 1cf5 0ebe
000001f0: 0af4 05be 61f5 29c0 ba00 81bf 6146 f43b
00000200: a219 103f 8b9e fd3c 0b52 703e c572 7a3f
00000210: cf25 9a3d 0982 c03e 544f f73e b229 74be
00000220: 7851 01bf 9473 ba3e 7bd9 913e 37ac 96be
00000230: db2a e8be ecd3 58bf f41f c93e ee57 853e
00000240: ef82 b73e 4385 023f abfa 2a3f 6bd6 9f3e
00000250: 7cdf cb3e 7711 32bd bf75 273d 5e04 643e
00000260: cfa2 c53e 2a26 eb3c e52c fc3d bfeb 54be
00000270: 1255 7bbd 8414 0cbd 0251 353f f9c9 283e
00000280: e61a debd 3dd1 cd3d 5673 003d 0aec d33e
00000290: 0e4e 673e 830c 3a3c f829 55bf 4052 393e
000002a0: 953b 423d f2f7 47bf 046e bebd bcf9 433d
000002b0: f26d fc3c ad83 19bf 8f01 3e3e f700 0cbf
000002c0: 47ff b83d 623c ffbd 9967 00be 3f74 5a3d
000002d0: c548 c5bd a0b8 cb3e daf5 913e 526f 25bf
000002e0: ace3 153e 1aca eabc 5409 eebf 2fc1 db3e
000002f0: 340a eabd 000e 0fbf 0e8f 213f aa63 3cbf
00000300: 3ffc a23d 1706 883d c24d 173d c85f aebe
00000310: 77c4 6b3f dc41 86be 73f8 8b3e bd75 4dbe
00000320: a2ab 083f 4dfd 913e 6435 4d3e 6041 ccbd
00000330: f0d0 bfbb 1360 133f 1863 1b3e 6275 913d
00000340: 59f6 d3be 27f9 a7bd cd8d 0d3e 9e90 7a3e
00000350: c8e3 2a3e 0e28 de3d eb10 42bf fa86 9d3e
00000360: 1c1c 733e d2c9 c43e 31f6 cc3e 3e13 243f
00000370: 7ef7 a8be ce6e 2abd 12a3 b0ba 560d 9ebc
00000380: 4c5e 213e 8158 163e a6c4 06be bdbe 2440
00000390: 7af5 93be 579b 9b3e 1d4e 25be b6f4 87be
000003a0: 27ba 91bd 9624 183e 68aa 143f 2ef8 cebd
000003b0: 0058 d03e b96d acbc 8c98 853f 6ad6 fb3e
000003c0: 5a77 98be d5f7 5abe daf8 2cbf c2e0 1dbf
000003d0: e125 803e 7cac 233e f7e2 9b3e 7724 04bf
000003e0: 0f69 013e d86c 773c f002 0bbf e9ab c23e
000003f0: e4b2 f83d 85d0 8cbd a3be 33bd 3304 6bbd
-0.0216779 -0.19673827 0.081203036 -0.25723654 -0.100168146 -1.1555698 -0.157209 -0.087001346
-0.33431402 -0.1718064 -0.23125166 -0.11228783 -0.20694837 -0.63332516 -0.2188753 -0.94018084
0.15425608 -0.1259895 0.022575943 0.3828822 0.2473063 0.2330635 0.07299252 -1.4475007
0.248587 -0.25149882 0.15566781 -0.2792726 0.08182419 0.72726697 0.09710502 0.28459165
0.10600191 0.014458887 0.72853094 0.05770957 0.078205876 0.25558472 0.24886034 -0.011565903
-0.026809363 0.16827211 0.05544566 0.18180473 0.07429538 0.14714935 -0.07604673 -0.030579168
0.12034517 0.009800707 0.13923572 0.021795278 0.8317647 0.1981873 -0.092143 0.15592569
0.19227403 -0.0045829415 0.06856485 -0.020447033 0.2319159 -0.3046914 0.29890314 0.21821989
0.779057 -0.060446747 0.7101203 0.22500052 0.08135992 0.28775036 0.02901112 0.42592746
0.104957946 0.14202532 3.0216558 0.33187282 0.07249501 -0.0882681 -0.46433175 -0.010580061
-0.5346854 0.20935981 0.14314064 0.062051892 -0.6571739 0.29530248 0.29855183 -0.2886317
0.26598713 0.14564522 0.055141583 0.18239634 -0.11722967 -0.075362824 -1.4045788 0.9697337
0.052577347 -0.15215865 0.05990308 0.16037874 -0.6115779 -0.07420797 0.007007815 -0.56607115
-0.20551169 -0.17218289 -0.15286109 0.0062206327 -1.8345169 -0.2936806 -0.085229084 0.23236647
-0.617536 -0.3402936 0.08971565 -0.9570031 1.0753926 -0.47229946 -0.17254543 -0.1740678
-0.01957161 -0.29915097 -0.24299815 -0.1396069 -0.13081375 -2.6556017 -1.0078347 0.007454679
0.5628911 0.030959388 0.23468797 0.97831374 0.07526743 0.3759921 0.4830271 -0.2384403
-0.50514936 0.36416304 0.28486237 -0.29428264 -0.45345196 -0.8469837 0.3928219 0.26043648
0.35842082 0.5098459 0.6678874 0.31218275 0.39818943 -0.043473687 0.040883776 0.22267291
0.38600776 0.028704721 0.123132505 -0.20793055 -0.061360426 -0.034199253 0.70826733 0.16483296
-0.10844974 0.10049675 0.031359993 0.4139102 0.22588369 0.011355522 -0.83267164 0.18097782
0.047420103 -0.7811271 -0.092983276 0.047845587 0.030814145 -0.59966546 0.18555282 -0.5468897
0.09033065 -0.12462689 -0.1253952 0.053333517 -0.0963302 0.39789295 0.28507882 -0.64622986
0.14637631 -0.028660823 -1.8596597 0.42920825 -0.11427727 -0.5588074 0.6310891 -0.73589575
0.079582684 0.066417865 0.03693939 -0.3405745 0.92096657 -0.26222122 0.2733799 -0.20064445
0.5338689 0.28513566 0.20039898 -0.09973407 -0.0058537647 0.5756847 0.1517452 0.07102467
-0.41398886 -0.08201819 0.13823624 0.2446923 0.16688454 0.108474836 -0.75807065 0.3076704
0.23741192 0.38435227 0.4003158 0.6409186 -0.33001322 -0.041609578 -0.0013476333 -0.019293468
0.15758628 0.14682199 -0.13160953 2.5741417 -0.2889822 0.30391952 -0.16143079 -0.26553887
-0.07115584 0.14857706 0.5807252 -0.1010593 0.4069214 -0.021048414 1.0437179 0.49187022
-0.29778558 -0.21383603 -0.6756722 -0.6167108 0.250289 0.15983766 0.30446598 -0.5161814
0.12637733 0.015101634 -0.5430136 0.38021782 0.12143496 -0.068757094 -0.043882977 -0.05737705

fc1.bias f4 [128]
00000000: 1b5b 24bb 3265 6a3b 6b6f d73e 1a58 a33d
00000010: e656 2abc 9f0b 9f3e 4f9c 053e e125 223e
00000020: 4f2f 9d3d e937 193e 6558 803e 1df8 ebbd
00000030: 03ac 6d3e 3486 cebc d595 053e 6e7c 613e
00000040: 16a7 c83d 93eb 8dbd 28c8 d23c 18bd 993e
00000050: 0afc 0f3e ea91 e93d 217b 093c 5900 833e
00000060: 5d0c 023e 475b 533e c053 2f3d 68fc 513d
00000070: dd42 9b3d abde 6a3e 552d c03e da56 3dbc
00000080: 6a50 cabd ddfd 57be d5b3 1e3e be4e d4bd
00000090: 79cd acbd f6aa 9abd b18a 62bc 1345 b63e
000000a0: 3f10 a73d 85d1 12be d056 753e 6bc8 653e
000000b0: 81dc 2b3e 25f3 1a3d 080e c03d 7dda 31be
000000c0: 7e98 653e 996c aa3d 498b ed3d 9795 cb3d
000000d0: ca10 07bc 4b60 0a3d 3ede 7ebb 8290 b33e
000000e0: a41c f73d d81d d83e 26cf 3c3e 9b85 eb3e
000000f0: 6f2e 793e fd82 c9bd b43c a93d bd33 b9bd
00000100: 6869 ddba eff0 e73b fa71 86bd 3ed2 1abd
00000110: 8a9f 803c 57fd 1d3d a4f4 8c3e 7f65 d5bc
00000120: c4b9 de3d 3ca4 3e3e edb8 7e3e b47b 803e
00000130: 5271 ba3e 5edb 613e baa3 853d 4a75 f13e
00000140: c649 ea3d 04df 683e bb64 e6bd 0052 a4bd
00000150: f507 b63c 29b1 623e cc9c 393e 66f1 19be
00000160: 6999 01bd 0172 12bb 76ff 4a3d 9227 45be
00000170: 0e73 503e 3d1d d2bd b655 513e 085b ee3c
00000180: 4c5d f03e d57c 443e a6b8 003e 1295 573e
00000190: 0104 36bd c90a bd3d 7402 9b3e d387 e13d
000001a0: 71b9 0b3e f5b5 983e 977b 273e afed f0bd
000001b0: d1e5 95bd c80b a73e ad1d f2bd 8b19 30be
000001c0: d343 453e 3e46 093b 336f e93d 957a 293c
000001d0: 8a23 11bd 0a62 0d3d 039a 9d3e 5e86 e53d
000001e0: 21c5 813d 7d7e bb3d 7217 813e c995 233e
000001f0: 856d 353e 6c15 563d bea5 723e d7ad 383d
-0.0025078717 0.0035765884 0.42077193 0.079757884 -0.010396695 0.31063554 0.13047908 0.15834762
0.07675039 0.14962734 0.2506744 -0.11521933 0.23210149 -0.025210477 0.13045438 0.22020122
0.09797494 -0.06929698 0.025730208 0.3002708 0.14060989 0.11404784 0.008391173 0.25586203
0.12700029 0.20640288 0.04280448 0.051266104 0.075811125 0.22936504 0.37534586 -0.011556352
-0.09878619 -0.21092935 0.15498288 -0.103665814 -0.08437628 -0.075521395 -0.013827012 0.35599574
0.081573956 -0.14337738 0.23958898 0.22439735 0.16783334 0.037829537 0.09377676 -0.17368503
0.22421452 0.083214946 0.11598832 0.099406414 -0.008243749 0.03378324 -0.003888979 0.35071188
0.1206601 0.4221027 0.18438396 0.4600037 0.2433412 -0.09839437 0.08263531 -0.090430714
-0.0016892375 0.007078282 -0.06564708 -0.03779816 0.015701074 0.03857168 0.27530396 -0.026049374
0.10875276 0.18617338 0.24875231 0.25094378 0.36414582 0.22056338 0.06525369 0.47159797
0.114398524 0.22741324 -0.112496816 -0.08023453 0.022220591 0.22137894 0.1812622 -0.15033492
-0.031640444 -0.0022345784 0.049560033 -0.19253376 0.2035639 -0.10259483 0.20442852 0.029096141
0.4694618 0.19188245 0.12570438 0.2105296 -0.044437412 0.09230573 0.3027531 0.110122345
0.13644959 0.29826322 0.1635574 -0.117640845 -0.073192246 0.32626176 -0.118220665 -0.17197244
0.19264154 0.0020946409 0.11398163 0.010344167 -0.035434283 0.034517325 0.30781564 0.11207269
0.063364275 0.09154985 0.252132 0.15975107 0.1771756 0.052266523 0.23696038 0.04508766

fc2.weight f4 [128, 128]
00000000: f9b9 1a3d 766b 7c3c 9bc7 003c e213 45bd
00000010: 8eba be3d 64d2 0e3c edaa b13b 1c73 20bd
00000020: 65ec e03c debc b5bd 434b b0bd 396a 0fbd
00000030: 8021 783c 3da1 89bd d054 833d 6505 e73c
00000040: 702d 95bd c871 0fbd 09d4 4dbd 419d c5bd
00000050: 99a2 4ebd 7780 a73c d366 a6bd ca8b 953d
00000060: ec8a 04bd f2ba 403d 5b56 f1bd 34fc 09bd
00000070: 6829 1ebd b5b4 5a3c 4728 6eba be20 913c
00000080: 3890 693d 68dd 8abd 037e e7bd 80a0 c6bd
00000090: 0898 75bd 6a6d 53bd 5bdf e3bd 2bc9 0dbd
000000a0: 8ef3 e6bd 37ab 75bc b03b 27bd 02e0 bb3b
000000b0: 4428 0cbd 1ab4 323d bbbf 9d3d be6e 5fbd
000000c0: 8edf 9b3c 1863 01bc bc50 053a 8e9d aebd
000000d0: 2c98 3c3d 5a75 b73c 80f5 42bc 655b b13c
000000e0: dc1a 8e3d fba1 bdbd da18 51bc a1cc a4bd
000000f0: 71dc 54bd b964 55bc 731f 85bd 78bc bebd
00000100: 2c5a 88bd dace 81bd bd89 0bbb ec3a db3c
00000110: c288 77bd 5cd4 30bc c3a5 37bd cfff cfbd
00000120: 8aa6 85bd 41eb 1c3d af8b 013d 80b3 afbc
00000130: 33d1 9dbd b4e2 cd3c ba0c 34bd 59e2 debc
00000140: 3bf9 65bc a197 79bc 144d bdbc 2d05 1cbe
00000150: 2d1e 9c3b e3d1 963d dd81 cbbb 550b 55bd
00000160: 79ea 11bd 2c33 e83c 8862 e5bd 145c 353b
00000170: d5a3 8b3b 9c4c 2dbd a4b6 8dbc 070c 8939
00000180: 7db8 683d f027 2b3b 7edb d3bd a712 20bc
00000190: 06fe bdbd 12ea 45bd d22c 0a3d c754 36bc
000001a0: 6125 b9bd bfa9 a9bd f11a 463d c39a 8c3d
000001b0: c55b 343c b2cf 11bd 6976 5b3d da08 5e3d
000001c0: fefa e1bd 4162 8abd b5af 87bd 9f9b c83c
000001d0: b80b e1bd a8ef be3c bdeb b1bd 2429 97bc
000001e0: f44d 49bc 2e9d 15bc 2580 99bc 832c d3bd
000001f0: 51ff 903d 6f1c afbd 40c4 abbd 4804 a7bc
00000200: dbe9 10be 6041 1c3d 3a87 1bbd a528 d9bd
00000210: 6b75 413c add8 1f3b 719d b0bd 40e4 a93c
00000220: cecd 363d efaa 12bd 5107 cbbd b1b1 95bb
00000230: 01a3 03be c99a 6a3d b607 20bd 9e8d 6abb
00000240: 2daf cebd c786 21bd 353e b8bc a634 06be
00000250: 0647 06be 059c 2ebd 119c a1bd f560 69bd
00000260: 6690 0c3d 3e77 36bd 4731 3abd 7f32 5a3d
00000270: ea5c adbb 5745 e2bd d10d 05bd 4960 bbbc
00000280: 2593 9dbc 9045 39bd f05a e6bd bc77 04bd
00000290: 3fd2 5bbd 9f57 8fbd 771c 67bc ef42 fabc
000002a0: 6259 17bc e7f5 f7bc 8772 b4bd 0ae2 ce3c
000002b0: 483f 803b 0464 a6bc 3010 a9bd 07fb 8e3d
000002c0: ac63 b4bd 3e0e 01be e908 363c ef5f b0bd
000002d0: ec2e 57bd 2e24 b3bc 0af6 f33c 7dc3 0bbe
000002e0: d3d5 e9bd 0369 99bd ccf5 a2bd 2a0d 0ebe
000002f0: d5b4 6dbc 7884 0c3c 1633 2b3c c084 d5bd
00000300: 4fcd bbbb 9a34 a83c 04f8 833b cf67 d3bb
00000310: 675f 11bd 47c5 28be 0e70 60bd d4f1 bebd
00000320: 8ff8 96bd 0d7a afbd 9196 1abe b23f 833c
00000330: 67ea 12bd e831 0cbd b824 b3bd 5926 77bd
00000340: e006 09bd 31bf d3bd d568 b6bd c7e6 bdbd
00000350: b465 f43b 69fd 8e3c 49fe 86bd f745 30bb
00000360: 4de7 b1bd e1ee 233c cf12 bfbd 6af2 91bd
00000370: cb40 12be 73a3 03bd d1d4 3fbd bb23 57bb
00000380: 9aff d1bd 7b58 efbd 321a ba3c 7e35 25bd
00000390: 99b4 07be d113 72bd 5a77 8d3c 332d 22bd
000003a0: e07a 183c b52b 2abd a4ad 04be 49f9 3dbd
000003b0: a98e 76bd 4241 d0bd 5173 6abd 2217 21bc
000003c0: 5c66 a9bd 851d f2bc 90fc 9bbd 8652 08bd
000003d0: d27d 93bd 632b cebd add6 71b7 a177 d8ba
000003e0: 399c b9bd 8fca cfbd c8a8 f0bc 4d4f d3bd
000003f0: 1c20 873c 4b9c 813c 3d0e 8b3c ca10 4e3d
0.037775014 0.01540648 0.00786009 -0.048114665 0.09312926 0.008717153 0.0054219873 -0.039172277
0.027456472 -0.08873914 -0.08608105 -0.03501341 0.015144706 -0.06720207 0.06412661 0.028200815
-0.07284057 -0.03502062 -0.05025104 -0.096491344 -0.050448034 0.020446999 -0.08125081 0.07302053
-0.03235905 0.047053285 -0.11784049 -0.033687785 -0.038613707 0.013348748 -0.0009084981 0.017715808
0.057022303 -0.06780511 -0.11303332 -0.09698582 -0.05995944 -0.051618017 -0.11126586 -0.034615677
-0.11276923 -0.014994434 -0.040828407 0.005733491 -0.034218088 0.04362879 0.07702585 -0.05454897
0.019027498 -0.007897161 0.0005085578 -0.08526145 0.04604356 0.022394825 -0.011899352 0.021650026
0.06938717 -0.09259411 -0.012762273 -0.08046842 -0.05196804 -0.013024502 -0.06500139 -0.09313291
-0.06657824 -0.06338282 -0.0021291815 0.026761495 -0.060433157 -0.010792818 -0.044835817 -0.101562135
-0.065259054 0.038310293 0.031627353 -0.021447897 -0.07705917 0.025132515 -0.04395745 -0.02720754
-0.014036472 -0.015233905 -0.023108043 -0.1523635 0.0047643394 0.073642515 -0.0062105493 -0.05201276
-0.035624 0.028344713 -0.11200434 0.002767329 0.0042614737 -0.04230939 -0.017299004 0.00026139637
0.056816567 0.0026116334 -0.10344599 -0.009770072 -0.09276967 -0.04831893 0.03373415 -0.011128611
-0.090403326 -0.082843296 0.048365537 0.06865456 0.011008208 -0.035598464 0.05357972 0.05420766
-0.11034201 -0.06757022 -0.0662531 0.024488268 -0.10988563 0.023307636 -0.08687542 -0.018452235
-0.012286652 -0.009131713 -0.018737862 -0.10311224 0.07079948 -0.08550345 -0.08387041 -0.020387784
-0.14151709 0.038148284 -0.03797076 -0.106034555 0.01180778 0.0024390623 -0.086237796 0.02073872
0.044629864 -0.035807546 -0.09913505 -0.0045683016 -0.1285515 0.05727652 -0.039069854 -0.0035789977
-0.10092006 -0.039435174 -0.0224906 -0.13106021 -0.13113031 -0.04262926 -0.078910954 -0.05697723
0.034317397 -0.044547312 -0.04545715 0.053270813 -0.0052906172 -0.11048382 -0.03248388 -0.02287306
-0.019235203 -0.045232356 -0.11247814 -0.03234075 -0.053667303 -0.06999134 -0.014105908 -0.030549495
-0.009237619 -0.030268623 -0.08810907 0.025254268 0.0039137937 -0.020311363 -0.08255041 0.069814734
-0.088080734 -0.12603089 0.011110523 -0.08612048 -0.052534983 -0.021867838 0.029780407 -0.13648792
-0.11417737 -0.074907325 -0.07957038 -0.13872209 -0.014508446 0.008576505 0.010449192 -0.10425711
-0.005731262 0.020532895 0.0040273685 -0.006451584 -0.035491373 -0.16481505 -0.054794364 -0.09323469
-0.073716275 -0.08568201 -0.15096499 0.016021583 -0.035868075 -0.03422728 -0.08747238 -0.060339306
-0.033453822 -0.10339201 -0.08906714 -0.09272533 0.007458413 0.01745482 -0.0659147 -0.002689717
-0.08686695 0.010005684 -0.09329759 -0.07126315 -0.14282529 -0.0321383 -0.046833817 -0.0032827694
-0.1025383 -0.11686798 0.022717569 -0.040334217 -0.13252486 -0.05910093 0.017268825 -0.039593887
0.009306639 -0.04154559 -0.12956864 -0.046380315 -0.060194645 -0.10168697 -0.05723888 -0.009832175
-0.082714766 -0.029555092 -0.07616532 -0.033281825 -0.07201733 -0.10066869 -1.44147025e-05 -0.0016515144
-0.09063 -0.10146057 -0.029377356 -0.1031786 0.016494803 0.015821597 0.016974563 0.05030898

fc2.bias f4 [128]
00000000: da78 2e3d 7b2e 83bd 72fb 73bc eae7 083d
00000010: c2cf 5f3d 3372 acbd 11ec 5e3e 5a93 603e
00000020: f37a 613e 3c2f e2bc b136 3dbd aeb7 dc3e
00000030: a4fa 003d c1ac b73c 6316 e83c e0e5 86bd
00000040: f0f5 703c ea73 533d 37cb 52bd 9094 babd
00000050: 4520 f9bd 3291 a9bd 49a2 d2bd 47a1 9abd
00000060: 9fcd 8d3d 697b 6a3e f154 5c3d f43e 143d
00000070: b7bf 6c3d bc5b bebd ee3a 1dbd bcb4 253e
00000080: fa67 89bd e522 3f3c 6b18 3b3d 131a ecbc
00000090: 8d14 11bd 39a5 cf3d a912 353e e5bb 103e
000000a0: b0ae 453d a661 0c3d a422 8c3e 3350 babd
000000b0: dc1b 863d 9bdf f13a 0856 123d b672 3fbd
000000c0: a37a f7bb ccb0 563b 887e 1b3d dc9d b83e
000000d0: 049e c6ba d0e1 4a3e c3f9 a23d 2d07 8abd
000000e0: 1d0d 1bbd 242c 973d 7a27 b13e 8348 f33d
000000f0: 4d76 3b3e 8f26 c33c 44d9 d13d 9adc 8f3d
00000100: f843 003d fbcf be3e ef80 133e d7f6 1f3e
00000110: 5eed 5fbd 4aa7 eb3a aa45 7e3e dfa2 453d
00000120: 554e 89bd f690 eb3c f49e 4b3d 4414 19bd
00000130: bc05 a73d eb6c 17bd 2781 ecbd c75b 60bd
00000140: ef42 573e b09f 4f3d e2fa 1bbd 57e5 83bd
00000150: c42a b5bd 92b5 f4bc 30c8 793e ad3a d03d
00000160: e672 023d a9f2 a23b 1bb8 3fbd 7c42 cd3d
00000170: 0541 4d3d 2d3a 1d3c 4b74 b23d dea0 38bd
00000180: 6b2e cbbc bc18 9abd dd6b 5c3d 850c 6dbd
00000190: 85f7 aa3c 0ce5 233e 8823 ad3d 35db 8f3d
000001a0: 692d 8d3d d59f 373e 689e 82bd 77d9 283e
000001b0: f79b d2bc 8ff3 8dbd 4145 57bd cf17 9ebd
000001c0: 88b4 2e3e 4918 96bc 6550 5cbd b11b c5bd
000001d0: 31b5 5b3d 7d95 6f3f e367 bebd c134 fb3d
000001e0: 7f4c cc3d 3890 883e 9740 1e3e f3fa 933e
000001f0: 7ac5 87bd 4a3c e53d 15d7 dbbd bc7c cdbd
0.04259572 -0.0640535 -0.014891492 0.033424295 0.054641493 -0.08420219 0.2176974 0.2193121
0.22019558 -0.027610414 -0.046194736 0.43108886 0.03148903 0.022421243 0.028330987 -0.06586814
0.014707074 0.051624216 -0.051463332 -0.09110367 -0.12164358 -0.08279647 -0.1028486 -0.075502925
0.06923985 0.2289864 0.053791944 0.03619285 0.05780002 -0.09294841 -0.038386278 0.16182226
-0.06709285 0.011666034 0.045677584 -0.028821027 -0.03541999 0.101389356 0.176829 0.14134176
0.048262298 0.034272812 0.2737018 -0.09097328 0.065482825 0.001845348 0.035726577 -0.046740256
-0.0075524612 0.0032759188 0.037962466 0.36057937 -0.0015153293 0.19812703 0.079577945 -0.0673965
-0.037854303 0.07381466 0.3460043 0.11879065 0.18306847 0.023822097 0.10246518 0.07024498
0.03131482 0.37268052 0.14404653 0.15621506 -0.05466973 0.0017978933 0.24831262 0.04825103
-0.06704394 0.028755646 0.049712136 -0.037372842 0.081553906 -0.036969107 -0.11548071 -0.054775026
0.21021627 0.0506894 -0.038081057 -0.064402275 -0.088460475 -0.029871736 0.24392772 0.101674415
0.031847857 0.004972775 -0.046806436 0.100224465 0.050110836 0.00959639 0.087135874 -0.04507529
-0.024802407 -0.07524249 0.053813804 -0.057873268 0.02086998 0.16005343 0.08454043 0.07024232
0.06893427 0.17932065 -0.0637787 0.16489206 -0.025709135 -0.06931221 -0.05255628 -0.07719385
0.17061055 -0.018322127 -0.053787608 -0.09624422 0.053639594 0.93587476 -0.092971586 0.122659214
0.09975528 0.2667253 0.15454327 0.28902397 -0.066294625 0.1119314 -0.10734383 -0.10033557

fc3.weight f4 [25, 128]
00000000: cc8e 8c3b 3426 01bd d8de 513d ce9b 8abc
00000010: 7905 ad3d a431 753d 01fe 0ebe e311 a33d
00000020: ffb1 f03d 59a4 37bd a0af c03a a628 593e
00000030: ea83 573e 20c8 853c 1285 96bd 09ab 86bd
00000040: 31ed 8abb dac8 fd3c 6cd2 193d 9f30 75bc
00000050: a82f 42bd f0b8 813c 6261 91bd 391d 49bc
00000060: dd96 3f3e b76d 4a3e b349 283e 40cd a43c
00000070: 79cf 3abd fc4a 81bd 2824 043d 8913 c8bd
00000080: 2f67 aa3b 078e 91be c130 893e 7137 e83b
00000090: c2d2 143f 80d9 4e3e 1360 963d 8a85 48be
000000a0: b54c e63d 0768 76bd e479 43be 2a21 003d
000000b0: a281 edbd 5d6f 82bc d061 463d 86fe a13d
000000c0: e587 bb3d 3239 523e e9c3 863b 35be e63d
000000d0: 3417 393d 44d4 843e 9f6a b43e da15 1c3d
000000e0: d09f 163d 57c7 093e d61d bd3d 0293 4f3e
000000f0: b9e4 a9bd 2c4a 593e cb31 873d 9964 213e
00000100: 3e5a 283c 11bf 833e ba1d 8e3d 714e f83d
00000110: 26d1 87bc 9e55 64bd 7c30 b33d d0ee adbc
00000120: 89af 913d 432f 0abd 921d 3f3b 54fd 6ebc
00000130: ec91 6d3e 3429 9cbb ba2a 463e 0008 18bd
00000140: ed04 da3d 6c52 c73c 616a 7c3e 757d aa3d
00000150: c238 c8bd fb04 3cbd 8092 9bbd 13d2 683e
00000160: d92c 1f3e f0f8 233d ad0f 24bd e8a2 0c3e
00000170: 45e4 b33e 3eba a13c 5987 b23d 2b18 493d
00000180: 11d5 96bd 6160 f13c 4c75 11bc 3f0c 203d
00000190: a079 b9bc ac3f 993e 0e17 1b3e 41d4 1cbd
000001a0: 4655 6abc f761 bfbb b68a 8abd d88a 013e
000001b0: 2895 4bbd 3bdf aabd 6779 7cbd 9572 63bd
000001c0: c627 463e 8836 75be eb7f 893d 2d56 8bbd
000001d0: 440f 67bc 3106 003f fb2f 173d 8341 a13c
000001e0: c215 793e 4b0f 7f3c 1dbf 023e e9db 943e
000001f0: 1053 0b3c 832f 883d 6840 83bc 75a5 563d
00000200: 7674 863d 0d5a 82bd adbb 68bd fdd2 89bd
00000210: 13c7 eb3b 106b 403d bd7c 063d af2e ecbd
00000220: 9e00 7c3e 96ef 46bd 9484 cd3b 79da 9a3e
00000230: b6ca e93d 7a80 4abd bfc1 573c a4a1 8abd
00000240: 04e8 453d a76d a73c 1b26 3d3d c489 4abf
00000250: 5935 a33d 515b e1bc 218e 65bd 45c5 393d
00000260: 602c c83e 54ad 563e e02e 1c3e 580e c6bc
00000270: 40cd 723e a9d0 29bd a327 4fbd 192e 7bbd
00000280: 0dfd 063c e643 96be 316b 543e ee53 193d
00000290: 9d63 893e fb60 2b3e 97a7 8d3e 2b55 f3bd
000002a0: 06b9 373a 9b6b 34bd 5a8f 80bd 525a 03bd
000002b0: 4921 1abe f606 8a3c 29e2 1bbd 1a77 d9bc
000002c0: f0fc 2fbc 21f7 093e 39bd d3bc 938e d23d
000002d0: 1940 703d f9aa 0b3e 7e8f 813e 547a a7bd
000002e0: 8b82 253a a394 ee3c c219 52bc 48f8 1f3e
000002f0: 029b 5fbb cbc2 f73d 3fe3 273e 9835 813e
00000300: ae73 3a3e 6f8c c93e a13f 613d 3b8d 8c3e
00000310: f53d d33c e67a 06bd 7c3a b8bd c9bb 21bd
00000320: 8b5a 683d a217 38bd 54f0 cfbd fa88 4c3d
00000330: ec97 bb3e c7a9 87be 21fb 9c3e 8085 ccbc
00000340: eb4f 913e b41a c13d 1546 983e cb20 eb3c
00000350: 9f86 82bd 524c 3abd db18 f83c 5d6b 593e
00000360: 5c1d b53d 257a 2b3d d67d bb3c d27a 873d
00000370: 3253 463e e5c8 173c ba23 583e 7d01 203d
00000380: cbf1 683d 42ee 893d c29e 823e 0353 99bd
00000390: 4c0d 0f3d e4f7 53be 7085 13bd 86ac 0ebe
000003a0: daa7 8abe d76c 55be c760 083d 1497 923e
000003b0: 8cef debc 86a8 913d 18fc 2c3d 5df9 d9bc
000003c0: 6e00 393e 6d02 983e 8526 18bd acde b03d
000003d0: 575e d73d d715 d53e d0c5 0c3b 20d8 8e3e
000003e0: 02db 353e 17fa 603e 8662 023e 09de 8e3e
000003f0: 1e0a 8db8 dd5f 6e3e f356 cf3c 4381 ff3c
0.0042894837 -0.031530574 0.05123791 -0.016919997 0.084483095 0.059861794 -0.13964082 0.07962396
0.117527 -0.04483447 0.0014700778 0.21206912 0.21046415 0.016330779 -0.073496 -0.06575591
-0.004239701 0.030979563 0.03755419 -0.014965205 -0.04740873 0.015835255 -0.070986524 -0.012275034
0.18709894 0.19768415 0.16434364 0.020117402 -0.045608018 -0.0631313 0.032261044 -0.09769351
0.0052002887 -0.2842867 0.2679501 0.0070866873 0.5813409 0.20200157 0.073425435 -0.19582191
0.112450995 -0.060157802 -0.19089466 0.031281628 -0.11596991 -0.015922243 0.048433125 0.079098746
0.09156779 0.20529631 0.00411271 0.11266748 0.045188144 0.25943196 0.35237595 0.038106777
0.036773503 0.13454948 0.092342064 0.20270923 -0.082955785 0.212197 0.06601294 0.15761031
0.010275422 0.2573171 0.06939264 0.121243365 -0.016579222 -0.055745713 0.08749482 -0.021232039
0.07113559 -0.03373648 0.0029161912 -0.014586765 0.23200196 -0.004765654 0.19352236 -0.037117004
0.10645471 0.024331294 0.24649955 0.0832471 -0.09776451 -0.045903187 -0.07596302 0.22736387
0.15544452 0.040032327 -0.040054012 0.13734019 0.35135093 0.019742128 0.08717222 0.049095314
-0.07364858 0.029464902 -0.008878063 0.03907418 -0.022641003 0.2993139 0.15145513 -0.03828836
-0.014302557 -0.0058405357 -0.06764738 0.12650621 -0.049702793 -0.08343359 -0.061639216 -0.055529196
0.1935111 -0.23946583 0.067138515 -0.06803546 -0.014102761 0.5000945 0.036910992 0.019684559
0.24324706 0.015567611 0.12768216 0.29074028 0.00850369 0.06649687 -0.016021922 0.052403886
0.06565182 -0.06364832 -0.056819607 -0.06729696 0.0071953624 0.046977103 0.032833803 -0.11532342
0.2460961 -0.04856833 0.006271908 0.30244806 0.11415617 -0.04943893 0.013168751 -0.06769112
0.04831697 0.020438028 0.04617892 -0.79116464 0.0796916 -0.027509363 -0.056043748 0.045354147
0.39096355 0.20964557 0.15252256 -0.024176762 0.23711109 -0.04145876 -0.05057491 -0.06132326
0.008239043 -0.29348677 0.20744015 0.037433557 0.2683381 0.16736214 0.27666923 -0.11881479
0.00070084666 -0.044047933 -0.06277342 -0.032068558 -0.1505176 0.016849022 -0.03805748 -0.02654605
-0.010741457 0.13473178 -0.025847064 0.102811 0.05865488 0.1363944 0.25304788 -0.08177629
0.0006313703 0.02912361 -0.012823524 0.15622056 -0.0034119491 0.12097701 0.16395281 0.252362
0.18208191 0.39364955 0.054992322 0.274515 0.02578638 -0.03283205 -0.0899553 -0.039485727
0.056726974 -0.044944413 -0.10153261 0.04993532 0.36639345 -0.26496717 0.30660346 -0.024966002
0.28381285 0.09428921 0.29740968 0.02870216 -0.06373333 -0.04548294 0.03028529 0.21232362
0.088434905 0.041864533 0.022887152 0.06615223 0.19367674 0.009264206 0.21107379 0.03906392
0.056871217 0.06734897 0.25511748 -0.07486536 0.03492479 -0.20700032 -0.036015928 -0.13933
-0.27081186 -0.208423 0.03329542 0.28630888 -0.027213834 0.071122214 0.042232603 -0.026608163
0.1806657 0.2968935 -0.03714611 0.08636221 0.10516041 0.41618225 0.002148021 0.27899265
0.17759326 0.21970402 0.12732896 0.27903774 -6.7252884e-05 0.23278756 0.025310015 0.031189566

fc3.bias f4 [25]
00000000: c91b 9b3e 9d9f 12be c3f5 543e 9bbc 2e3c
00000010: 212d 9a3e 60c1 64bd 25e8 81bd 60e1 053d
00000020: 3f76 363e dcc7 293d 4969 253e e35b 5f3e
00000030: 1dfb 66be 2c55 6d3e 0fad 803d e4de 953e
00000040: 49db 193d 9a33 183e b4a5 153e 4cba 7c3d
00000050: 4ac0 d53e 7115 82bd ea1e 10bf d870 7d3d
00000060: c79f 963e
0.30294636 -0.143187 0.20796876 0.010665084 0.30112556 -0.05584848 -0.06343106 0.032685637
0.17818545 0.041450366 0.16153444 0.21812396 -0.2255673 0.23177022 0.06283008 0.29271615
0.037562642 0.14863434 0.14613992 0.061701104 0.41748267 -0.06351746 -0.5629717 0.061875194
0.29418775
