Graphs/MarttiWeights-3x3x4-b128-lr0.001000.pt (torch, 82775 bytes, 6 tensors)

fc1.weight f4 [128, 19]
-0.010363617 0.4423911 -0.104615785 -0.039425336 -0.1799591 -0.02630228 0.018536402 0.26629603
0.0540634 0.28164467 -0.13491371 0.23022304 0.27030784 0.23497893 0.044234313 0.17688756
0.26312238 -0.9672821 -0.42267805 0.10612732 -0.11866132 -0.032873448 -0.06583511 0.4481608
0.056464374 0.20985956 0.124467276 0.08721862 0.1871267 0.1166169 0.89491194 0.15199374
-0.27512327 0.0070352056 -0.025475755 0.187069 0.5641417 -0.34473696 -0.12699768 -0.1735899
-0.04409919 0.012005247 -0.103072286 -0.14397696 0.09834643 -0.0895329 0.038821068 -0.22120683
-0.22043969 -0.07908635 0.14303939 -0.23392764 0.07227847 -0.13481365 -0.06424948 0.062890254
-0.1920021 0.0479706 0.02045161 0.07405396 0.014523307 0.09149103 0.054070387 -0.0049445457
0.2530536 0.05865134 0.23120235 -0.030180795 0.22491987 -0.08767344 -0.04325272 -0.8113728
0.19865495 0.34459236 0.26369515 -0.22763349 -0.0122135095 0.16455635 0.09868333 0.017835362
0.27277547 0.09054273 -0.11829645 0.2958704 0.17793046 -0.30088246 0.20310302 -0.38429052
0.2051162 -0.1955792 0.6682796 -0.13854446 -0.25281474 -0.19422619 0.30741715 -0.027804013
0.056227982 -0.11165258 0.045268435 0.42335954 0.06298699 0.3061322 0.09692763 0.08441764
-0.26911274 0.037260905 -0.42436948 -0.03972822 -0.1724337 0.03785934 0.30745506 0.25332713
-0.48092183 -0.17661375 0.116478026 -0.4623064 -0.06498835 -0.2198107 0.0153996395 -0.0017337244
0.115934454 -0.1655202 0.20423552 0.26305434 0.43441373 0.9755851 0.5447936 0.13119812
-0.25453502 -0.09195656 0.51612157 0.2503784 0.09050035 0.10189659 -0.103723325 -0.02954636
0.42625862 -0.055644285 0.04649282 0.072250344 -0.14004338 0.077794574 0.20238756 -0.16904087
0.92558813 -0.2802208 -0.011221675 -0.0002389658 0.20859523 0.25328058 0.37715688 -0.14353885
0.21584773 -0.12804031 0.2811677 0.040475734 -0.10161755 -0.11066319 -0.16246718 -0.07827534
0.056619946 -0.044691917 0.71324307 0.02817214 0.2428624 0.6059703 0.51357716 0.38302746
0.41742998 0.5322821 0.69135404 0.013327382 0.40277988 -0.07258316 0.19978316 0.12165978
0.09697136 0.076245695 -1.2559655 0.056235366 -0.1673239 -0.15320155 -0.49946374 -0.08648474
0.48984748 0.17429361 0.10155996 0.20204459 0.1765448 0.16040722 0.033095863 0.11850055
0.079745725 0.15272623 -0.14085563 -0.19605787 0.1930014 0.4106426 -0.05395535 0.34539065
0.07654301 -1.037339 0.32412025 0.2274912 0.0061537526 0.1195693 0.094668314 -0.34581816
-0.063864015 -0.017431214 0.072612986 0.020464148 -0.005827034 -0.045745432 0.07179334 0.21159467
-0.10504248 -0.0020848615 -0.04828257 0.24936596 0.99979156 0.09406166 0.20861238 -0.6915831
0.10153828 0.16153905 -0.23118354 0.18132596 0.10736828 -0.19367138 0.1359505 0.0032004719
-0.20464721 -0.048864067 0.005298149 -0.08227492 0.27069342 -0.17801864 0.57123244 0.59110534
0.4766908 0.31490895 0.5558817 0.16289508 0.51122993 -0.2476228 0.86658657 0.00045040614
0.006777563 0.0019371307 -0.056966085 -0.21519232 -0.011528247 -0.04417046 -0.12392334 0.010973297
00000000: 29cc 29bc 1681 e23e cd40 d6bd 767c 21bd
00000010: 3347 38be e177 d7bc a7d9 973c f457 883e
00000020: 9571 5d3d bb33 903e d226 0abe 97bf 6b3e
00000030: ca65 8a3e 519e 703e 0a2f 353d 0322 353e
00000040: fab7 863e cd9f 77bf 4269 d8be 4859 d93d
00000050: b504 f3bd 4fa6 06bd 8fd4 86bd 5575 e53e
00000060: 3047 673d 6de5 563e b3e8 fe3d ad9f b23d
00000070: 249e 3f3e d7d4 ee3d f318 653f 3fa4 1b3e
00000080: f5dc 8cbe 9587 e63b 88b2 d0bc 048f 3f3e
00000090: 976b 103f 5d81 b0be ae0b 02be 8dc1 31be
000000a0: 5aa1 34bd a8b1 443c 9017 d3bd b26e 13be
000000b0: da69 c93d 065d b7bd d702 1f3d 0b84 62be
000000c0: f1ba 61be 06f8 a1bd eb78 123e ba8a 6fbe
000000d0: bc06 943d 970c 0abe 3b95 83bd 9bcc 803d
000000e0: 339c 44be d27c 443d 238a a73c 9aa9 973d
000000f0: 2af3 6d3c a65f bb3d e978 5d3d db05 a2bb
00000100: 3e90 813e 633c 703d 4fc0 6c3e b73d f7bc
00000110: 6551 663e 228e b3bd c429 31bd 21b6 4fbf
00000120: 346c 4b3e 696e b03e 0d03 873e c118 69be
00000130: 2c1b 48bc 7681 283e 7c1a ca3d 771b 923c
00000140: 3aa9 8b3e 786e b93d 6945 f2bd 537c 973e
00000150: 6733 363e 440d 9abe 3dfa 4f3e bac1 c4be
00000160: fb09 523e ea45 48be 5f14 2b3f 99de 0dbe
00000170: ef70 81be 3be3 46be c865 9d3e 3ec5 e3bc
00000180: 504f 663d 1caa e4bd 656b 393d 95c2 d83e
00000190: 53ff 803d 5cbd 9c3e fe81 c63d 28e3 ac3d
000001a0: 25c9 89be e49e 183d f546 d9be 0fba 22bd
000001b0: 7692 30be 6512 1b3d c06a 9d3e 18b4 813e
000001c0: 633b f6be 3cda 34be 088c ee3d 6db3 ecbe
000001d0: 9d18 85bd 0e16 61be c54e 7c3c 233e e3ba
000001e0: 0b6f ed3d 217e 29be 1e23 513e 0faf 863e
000001f0: 7a6b de3e f2bf 793f 9877 0b3f cd58 063e
00000200: 6a52 82be b953 bcbd 8b20 043f 9931 803e
00000210: 3f58 b93d 29af d03d e56c d4bd 350b f2bc
00000220: 923e da3e 43eb 63bd 416f 3e3d fdf7 933d
00000230: 8867 0fbe c352 9f3d af3e 4f3e 0d19 2dbe
00000240: 58f3 6c3f 1a79 8fbe 1edb 37bc e592 7ab9
00000250: fd99 553e fead 813e b51a c13e d9fb 12be
00000260: 3007 5d3e 001d 03be 36f5 8f3e e2c9 253d
00000270: dd1c d0bd 62a3 e2bd cc5d 26be d24e a0bd
00000280: 51ea 673d df0e 37bd 1997 363f 42c9 e63c
00000290: ecb0 783e df20 1b3f cb79 033f 2d1c c43e
000002a0: 62b9 d53e a443 083f 94fc 303f 175b 5a3c
000002b0: 2a39 ce3e 7ba6 94bd f593 4c3e c328 f93d
000002c0: ec98 c63d b426 9c3d 7ac3 a0bf 0e57 663d
000002d0: f556 2bbe dee0 1cbe b6b9 ffbe e91e b1bd
000002e0: 4acd fa3e 067a 323e abfe cf3d c7e4 4e3e
000002f0: 29c8 343e ca41 243e 878f 073d 6bb0 f23d
00000300: ba51 a33d 4464 1c3e 753c 10be 65c3 48be
00000310: 29a2 453e bf3f d23e 4900 5dbd 0bd7 b03e
00000320: 95c2 9c3d 86c7 84bf 17f3 a53e 74f3 683e
00000330: 6ba5 c93b c0e0 f43d 76e1 c13d 140f b1be
00000340: 23cb 82bd e8cb 8ebc 1eb6 943d 6ea4 a73c
00000350: b4f0 bebb 905f 3bbd 6308 933d 46ac 583e
00000360: 8320 d7bd 2ca2 08bb f2c3 45bd ca59 7f3e
00000370: 57f2 7f3f 66a3 c03d 7c9e 553e 970b 31bf
00000380: 4df3 cf3d 7e6a 253e 61bb 6cbe 83ad 393e
00000390: e7e3 db3d ca51 46be 9c36 0b3e 02bf 513b
000003a0: 0a8f 51be b025 48bd 189c ad3b c17f a8bd
000003b0: 5498 8a3e 854a 36be 4a3c 123f ae52 173f
000003c0: d110 f43e bf3b a13e 434e 0e3f f8cd 263e
000003d0: f7df 023f d590 7dbe 9ed8 5d3f 7d24 ec39
000003e0: 5216 de3b 52e7 fd3a 4555 69bd 605b 5cbe
000003f0: f9e0 3cbc 16ec 34bd 85cb fdbd 58c9 333c

fc1.bias f4 [128]
0.04055259 -0.17165923 -0.021420447 0.1973301 -0.11950839 0.23408782 0.13259313 -0.03517336
0.8512207 -0.17272015 0.33304626 -0.13495211 0.5189729 0.34685737 0.15173864 0.08733792
0.29961395 -0.06511427 0.17062126 0.47588515 0.6374983 -0.18773064 -0.13331315 -0.18561918
0.071863614 -0.3721696 -0.17340656 0.03758788 -0.003258575 -0.14443667 0.28404194 -0.013421995
0.2921141 0.03963746 0.21678166 0.26819822 0.50184405 0.24312241 -0.118892424 0.7091755
0.54048 -0.19860356 0.032336336 0.33690453 0.0337062 -0.21267863 0.31714174 0.44292477
0.30912992 -0.0019783506 0.29714203 0.013842098 0.16126041 0.44437054 0.21401548 0.29201615
0.606994 -0.15518777 0.25276133 0.49483505 0.7289228 0.8604629 0.29088312 0.09930385
-0.04360348 0.32388237 -0.3863612 0.23234731 -0.11290308 0.22374037 0.02037991 -0.16147792
0.48031303 0.56053543 -0.29624698 0.211613 0.21953404 0.13036698 0.41320422 0.14659758
0.17960253 -0.097413465 0.004271322 0.4372423 0.33289152 0.22285661 0.24799941 -0.111666344
0.6101079 0.36651975 -0.049868286 0.15639499 -0.14907163 -0.014801421 0.119603924 -0.156879
0.0021069846 0.31217685 0.35649034 -0.07722822 0.23027834 -0.13124844 0.62386626 0.5252036
-0.26016292 0.276057 0.29390475 0.27133292 -0.0144539345 0.39580792 -0.14061253 0.1113953
1.0008085 0.13884015 0.20080578 -0.28726456 0.04153085 0.58870274 0.5022981 -0.17059715
-0.056688484 -0.17122829 0.52135247 -0.24754564 -0.104125366 -0.010805558 0.10069932 0.1543247
00000000: 791a 263d 70c7 2fbe ef79 afbc e710 4a3e
00000010: d1c0 f4bd b8b4 6f3e 7ec6 073e f111 10bd
00000020: 9ae9 593f 8ddd 30be 0a85 aa3e e330 0abe
00000030: 68db 043f 4a97 b13e 6061 1b3e 39de b23d
00000040: 0067 993e a15a 85bd 57b7 2e3e 38a7 f33e
00000050: 1733 233f 763c 40be 3e83 08be f412 3ebe
00000060: 3b2d 933d 048d bebe 7d91 31be c0f5 193d
00000070: d18d 55bb 35e7 13be f26d 913e ede7 5bbc
00000080: fb8f 953e e45a 223d 03fc 5d3e 4751 893e
00000090: da78 003f 15f5 783e df7d f3bd 878c 353f
000000a0: e65c 0a3f bb5e 4bbe 1b73 043d c07e ac3e
000000b0: 830f 0a3d 6dc8 59be 6760 a23e 09c7 e23e
000000c0: 4746 9e3e 37a7 01bb 0023 983e f8c9 623c
000000d0: 7321 253e 8984 e33e e026 5b3e 2483 953e
000000e0: f563 1b3f 8be9 1ebe ef69 813e 055b fd3e
000000f0: af9a 3a3f 4c47 5c3f a2ee 943e d15f cb3d
00000100: 9099 32bd e9d3 a53e 23d1 c5be 74ec 6d3e
00000110: bb39 e7bd 321c 653e c5f3 a63c 785a 25be
00000120: 97eb f53e 407f 0f3f afad 97be 14b1 583e
00000130: 88cd 603e ec7e 053e 818f d33e ad1d 163e
00000140: bae9 373e b680 c7bd 72f6 8b3b 39de df3e
00000150: c270 aa3e 8634 643e 8ff3 7d3e 53b1 e4bd
00000160: 0830 1c3f 7aa8 bb3e b042 4cbd 0226 203e
00000170: 3ca6 18be a981 72bc e7f2 f43d e3a4 20be
00000180: 5615 0a3b a5d5 9f3e e785 b63e d429 9ebd
00000190: 16ce 6b3e fe65 06be b3b5 1f3f be73 063f
000001a0: 1334 85be 5857 8d3e af7a 963e 26ec 8a3e
000001b0: 32d0 6cbc 56a7 ca3e bbfc 0fbe 3823 e43d
000001c0: 7e1a 803f 1d2c 0e3e 08a0 4d3e 5714 93be
000001d0: 411c 2a3d 39b5 163f 9c96 003f 05b1 2ebe
000001e0: 2f32 68bd 7856 2fbe 5b77 053f 9b7c 7dbe
000001f0: ae3f d5bd cc09 31bc 723b ce3d 4b07 1e3e

fc2.weight f4 [128, 128]
0.04711852 -0.032275863 0.027560595 -0.02848591 0.06718598 0.020183332 0.049415614 -0.08968522
-0.047284003 0.6620171 0.022024088 0.033974197 0.11755082 1.3286098 -0.10254222 0.04161628
-0.41076958 0.08147902 0.016230112 -0.29572153 -0.01968609 -0.12088179 0.07277176 -0.03734526
-0.16437069 -0.141065 -0.060597215 -0.044280663 -0.10822272 0.0004278851 0.086077854 0.05079017
0.19594067 0.0077414378 0.032092765 -0.21691397 -0.101120494 0.043910377 0.104489736 -0.086030245
-0.06973295 -0.16094184 0.081223436 0.3396569 -0.03416565 -0.051194496 0.06840472 0.10182004
0.30226684 -0.051310632 0.06400609 -0.16387524 -0.11168176 0.050091837 -0.5669594 0.041187838
0.08991484 -0.116424106 -0.1460504 -0.018940857 0.23699209 -0.053682487 0.19586504 0.0015464454
-0.033768978 -0.078175806 -0.06155635 0.05069134 -0.11579621 -0.1038891 0.16219221 -0.01487706
0.011659856 -0.46912998 0.030168224 -0.01882332 -0.027450344 0.29895064 0.031022772 -0.18762402
-0.0150037715 -0.18138698 -0.08410468 -0.1574196 -0.10906675 0.08916108 0.011492054 -0.052039336
-0.21596622 -0.031744603 -0.0005289742 -0.20185876 -0.017901624 -0.054268636 0.018438105 0.09850309
-0.02273652 0.02686201 0.078457415 -0.057612594 -0.03167828 -0.43406484 0.049487393 0.08161354
-0.07897222 0.114925854 0.09078188 0.31900427 -0.015774436 -0.07563424 -0.025556842 -0.0685471
0.009748862 0.4761346 -0.041139614 0.03200171 0.00020776737 -0.13380864 -0.019497605 -0.11499771
-0.014449529 0.22447778 0.10594822 -0.11778533 0.20635492 0.056116406 0.18606809 0.10045404
-0.5791537 0.010211346 -0.03765858 -0.047592063 -0.15822206 -0.096527256 0.024845386 0.3837215
0.22000372 0.31591982 -0.1583604 -0.088313244 0.12130901 -1.2632056 0.08088283 0.08502288
0.37759423 0.02865649 -0.027811877 0.20173362 0.14110567 0.07054759 -0.31909767 -0.058349706
-0.1594014 0.11454317 0.06481682 -0.21536566 -0.03685877 0.30778524 -0.0528403 0.027850213
-0.3370737 -0.21058856 -0.32145908 0.20610061 0.17861585 -0.19899026 0.26970014 0.10912481
0.21043167 0.23824269 -0.08140823 -0.016218523 0.0697547 0.032021597 -0.219823 -0.0086520035
-1.2565706 -0.09712911 0.0219755 0.47316402 0.28845316 0.32232437 0.4928651 -0.23252101
0.21659657 0.44423258 0.32005695 0.13662462 0.0678573 0.24042182 -0.13946582 -0.06318139
0.519675 0.15666002 0.013541039 0.2829849 0.12301472 0.1726484 0.020520799 0.16989118
0.12974402 0.2322711 -0.18732405 0.14374813 0.23041785 -0.03460418 0.49616542 0.2051776
-0.09454364 0.43867046 -0.26351687 0.21959276 0.15962146 0.13256718 -0.024982618 0.13316952
0.33024126 0.013136844 0.10143152 0.37470055 -0.10054162 0.46720186 -0.042078312 0.50846815
-0.25106052 -0.0535911 0.11028395 -0.112515464 0.12967844 0.21826866 0.25880274 0.19563031
0.012913092 0.0011824262 -0.042382445 -1.0403675 0.015834633 -0.042041305 -0.368313 0.32501975
0.21390542 0.19260836 -0.19435477 -0.12954172 -0.2744889 0.22450422 -0.11252069 -0.012355163
-0.15153123 0.08407283 0.17525889 0.103463896 -0.21463352 -0.06168377 -0.21035035 -0.12476361
00000000: 59ff 403d b233 04bd c2c6 e13c 485b e9bc
00000010: ce98 893d 8457 a53c 0768 4a3d e2ac b7bd
00000020: dfac 41bd f479 293f dc6b b43c 8728 0b3d
00000030: 7cbe f03d e30f aa3f a801 d2bd d575 2a3d
00000040: 6450 d2be 79de a63d 03f5 843c d068 97be
00000050: b944 a1bc df90 f7bd 5c09 953d 58f7 18bd
00000060: ca50 28be 5873 10be c934 78bd a45f 35bd
00000070: e0a3 ddbd c455 e039 9649 b03d 5a09 503d
00000080: aca4 483e e3ab fd3b b473 033d b21e 5ebe
00000090: 4318 cfbd 5edb 333d b7fe d53d a030 b0bd
000000a0: 26d0 8ebd f0cd 24be 7958 a63d 82e7 ad3e
000000b0: 48f1 0bbd 52b1 51bd c617 8c3d 0687 d03d
000000c0: b8c2 9a3e 192b 52bd a015 833d e9ce 27be
000000d0: 68b9 e4bd 192d 4d3d 4024 11bf 94b4 283d
000000e0: 4625 b83d c36f eebd 3c8e 15be db29 9bbc
000000f0: 0eae 723e 2be2 5bbd d890 483e 19b2 ca3a
00000100: 5751 0abd a31a a0bd 8322 7cbd b9a1 4f3d
00000110: 9026 edbd cfc3 d4bd b715 263e eabe 73bc
00000120: fb08 3f3c ce31 f0be 5a23 f73c 5d33 9abc
00000130: 8bdf e0bc 0f10 993e 7823 fe3c 8320 40be
00000140: 61d2 75bc 82bd 39be 133f acbd 9b32 21be
00000150: 635e dfbd 169a b63d 2b49 3c3c 3327 55bd
00000160: 4026 5dbe a106 02bd dcaa 0aba 10b4 4ebe
00000170: 6da6 92bc ca48 5ebd 820b 973c fdbb c93d
00000180: f041 babc b80d dc3c 48ae a03d 2ffb 6bbd
00000190: 16c1 01bd bf3d debe 4bb3 4a3d 0025 a73d
000001a0: 30bc a1bd 3f5e eb3d daeb b93d 8754 a33e
000001b0: 6439 81bc 20e6 9abd 955c d1bc 6c62 8cbd
000001c0: b1b9 1f3c eac7 f33e 0382 28bd 3a14 033d
000001d0: 21dc 5939 2205 09be 71b9 9fbc eb83 ebbd
000001e0: b8bd 6cbc 81dd 653e 61fb d83d 6f39 f1bd
000001f0: b44e 533e 51da 653d a288 3e3e d9ba cd3d
00000200: 6b43 14bf 7d4d 273c e23f 1abd e5ef 42bd
00000210: f704 22be 15b0 c5bd 8d88 cb3c 2577 c43e
00000220: a848 613e 3ec0 a13e 3b29 22be 93dd b4bd
00000230: dc70 f83d b9b0 a1bf e6a5 a53d 7a20 ae3d
00000240: 0854 c13e 04c1 ea3c bcd5 e3bc 4293 4e3e
00000250: 017e 103e 417b 903d c560 a3be 1a00 6fbd
00000260: 1f3a 23be 9c95 ea3d aebe 843d d188 5cbe
00000270: 39f9 16bd 0796 9d3e 126f 58bd 2126 e43c
00000280: ed94 acbe 87a4 57be 4996 a4be 0a0c 533e
00000290: 13e7 363e 1ac4 4bbe 2316 8a3e d47c df3d
000002a0: 667b 573e e4f5 733e 5cb9 a6bd b5dc 84bc
000002b0: 8ddb 8e3d 1429 033d 4819 61be 22c1 0dbc
000002c0: 4ed7 a0bf a0eb c6bd f705 b43c 8e42 f23e
000002d0: 22b0 933e b307 a53e d058 fc3e fd19 6ebe
000002e0: 7ecb 5d3e 7472 e33e 81de a33e 53e7 0b3e
000002f0: c5f8 8a3d 2331 763e 21d0 0ebe 3f65 81bd
00000300: 6c09 053f 7c6b 203e 3cdb 5d3c 66e3 903e
00000310: 24ef fb3d beca 303e 3c1b a83c f4f7 2d3e
00000320: 9edb 043e 7ad8 6d3e e0d1 3fbe b632 133e
00000330: a8f2 6b3e 1dbd 0dbd 6509 fe3e 141a 523e
00000340: 19a0 c1bd 6a99 e03e afeb 86be eddc 603e
00000350: cf73 233e b1bf 073e 59a8 ccbc 975d 083e
00000360: 6215 a93e eb3b 573c 54bb cf3d c0d8 bf3e
00000370: c4e8 cdbd 1535 ef3e 4f5a 2cbd f82a 023f
00000380: 018b 80be 5782 5bbd 8ddc e13d 826e e6bd
00000390: 6dca 043e d281 5f3e cb81 843e 5053 483e
000003a0: 6f91 533c a4fb 9a3a 3799 2dbd c32a 85bf
000003b0: a2b7 813c 8133 2cbd 8693 bcbe fd68 a63e
000003c0: 060a 5b3e 203b 453e f004 47be 96a6 04be
000003d0: cf89 8cbe 6fe4 653e 3f71 e6bd 4f6d 4abc
000003e0: 012b 1bbe 602e ac3d 1177 333e e1e4 d33d
000003f0: e4c8 5bbe 1fa8 7cbd 1566 57be 1084 ffbd

fc2.bias f4 [128]
0.11301553 0.07637603 0.38289475 0.0745253 -0.03269035 0.0014370473 -0.08200987 -0.07413533
-0.03146722 0.038485684 0.16893135 0.078501895 4.9172264e-05 0.029285949 0.05948593 0.080095164
-0.0058232453 0.1301807 0.37437522 -0.14214322 -0.047945578 0.009935551 -0.020874225 -0.088203356
-0.05383404 -0.08914152 -0.023043327 0.007920515 0.007322824 -0.0098840315 0.0035646516 0.12491509
0.01654164 -0.023951875 0.13840078 -0.0701084 -0.036283612 0.11271624 0.2661606 0.024811888
0.034267154 0.035915427 0.019520247 -0.01116399 0.07400976 0.14782853 -0.0035042719 0.046447378
-0.06143272 -0.0077986317 -0.0006573117 0.19472696 -0.04007553 0.22406478 0.038737413 0.04448026
0.06003136 0.03162733 -0.01145543 -0.014052289 0.38809124 0.01780871 0.011188089 0.047055468
0.40902936 -0.0867216 -0.03968658 -0.09585407 0.0158859 -0.07366852 -0.051453784 -0.04421432
0.38843247 0.18999515 0.0057466608 -0.030625265 -0.08110507 0.03882017 -0.06404955 -0.050033096
0.041624013 0.34926984 0.18630432 -0.06674303 0.06502984 -0.015876966 0.009937638 -0.034149166
-0.020837152 -0.008795909 -0.0241356 -0.027891489 -0.08325095 0.19676393 -0.053889368 -0.032548793
-0.038962882 -0.0031390868 -0.0860638 0.038255297 -0.026294991 0.0064103096 -0.08259705 0.10118604
0.3800898 -0.020718474 -0.05567856 -0.0235312 -0.051916838 0.06038359 0.04460836 -0.061287813
0.15814444 0.017916167 -0.021204595 0.029986382 0.041773323 0.022884654 -0.118271105 0.042874232
0.1857761 0.019718468 0.36557233 -0.094997205 0.22282474 -0.007672925 0.008668163 0.07340742
00000000: b074 e73d 096b 9c3d c80a c43e b8a0 983d
00000010: 51e6 05bd 4e5b bc3a caf4 a7bd 44d4 97bd
00000020: c6e3 00bd 2aa3 1d3d 57fc 2c3e 9ac5 a03d
00000030: 513e 4e38 16e9 ef3c 85a7 733d ef08 a43d
00000040: ecd0 bebb 174e 053e 1cae bf3e fe8d 11be
00000050: 9562 44bd b9c8 223c 6c00 abbc f6a3 b4bd
00000060: 1581 5cbd d48f b6bd 5cc5 bcbc 0cc5 013c
00000070: 4df4 ef3b a2f0 21bc ee9c 693b 7cd3 ff3d
00000080: 5582 873c b936 c4bc efb8 0d3e fe94 8fbd
00000090: 209e 14bd c6d7 e63d 3446 883e 4d42 cb3c
000000a0: b75b 0c3d 0e1c 133d ede8 9f3c 2be9 36bc
000000b0: 6e92 973d 5d60 173e eda7 65bb 9b3f 3e3d
000000c0: e0a0 7bbd aa8b ffbb 714f 2cba 8166 473e
000000d0: 3d26 24bd 3d71 653e 1fab 1e3d ef30 363d
000000e0: 71e3 753d a98b 013d 8eaf 3bbc 923b 66bc
000000f0: e5b3 c63e 92e3 913c 3f4e 373c 3cbd 403d
00000100: 4c6c d13e 189b b1bd 658e 22bd 234f c4bd
00000110: 2623 823c 85df 96bd 34c1 52bd 131a 35bd
00000120: 9fe0 c63e 178e 423e 7c4e bc3b d6e1 fabc
00000130: 6a1a a6bd e601 1f3d 692c 83bd 81ef 4cbd
00000140: f17d 2a3d 7fd3 b23e 8fc6 3e3e 92b0 88bd
00000150: 5d2e 853d 6910 82bc 7ad1 223c ffdf 0bbd
00000160: adb2 aabc b71c 10bc 06b8 c5bc b17c e4bc
00000170: 797f aabd 7c7c 493e 19bb 5cbd e251 05bd
00000180: 8b97 1fbd 23b9 4dbb 3842 b0bd 96b1 1c3d
00000190: 9868 d7bc 930d d23b a428 a9bd a03a cf3d
000001a0: 219b c23e cab9 a9bc 340f 64bd 81c4 c0bc
000001b0: c0a6 54bd c954 773d 41b7 363d ee08 7bbd
000001c0: 9ef0 213e edc4 923c 42b5 adbc 00a6 f53c
000001d0: 811a 2b3d 9978 bb3c 1f38 f2bd e49c 2f3d
000001e0: 173c 3e3e a088 a13c 4c2c bb3e e58d c2bd
000001f0: 2b2c 643e 296d fbbb e904 0e3c a156 963d

fc3.weight f4 [9, 128]
-0.101604685 0.0838875 0.2840558 -0.08345678 -0.09566597 -0.019730879 -0.023359235 -0.080719285
0.07210739 0.015624281 0.12854232 -0.020085344 0.024467524 0.11108473 -0.03148092 0.061997283
-0.9967068 0.19273485 0.43539518 0.03512575 -0.02316224 -0.11719238 -0.044690024 0.15109241
-0.05912141 0.069227636 0.06234408 -0.0062933345 -0.045537546 -0.027023116 -0.10131582 0.17873482
0.08564401 0.06707343 0.34166223 -0.07821819 -0.0019584657 0.25453565 0.21344098 0.071612164
-0.01859424 -0.03502643 0.105805516 0.04980311 0.026398942 0.2701938 -0.015911 0.08786853
0.08109487 -0.054853816 -0.064234786 0.22987688 -0.10185225 0.12646607 0.11251727 -0.037964627
-0.0671686 0.11876533 -0.02594461 -0.030605968 0.22477084 0.009643734 -0.044574615 -0.033404477
0.28786898 0.0067584156 0.039028503 -0.37550262 -0.0025346766 0.017257664 -0.009191975 -0.0828702
0.2848374 0.45454565 0.026967369 -0.00085049233 -0.082522534 0.056221936 -0.12499075 -0.10258837
-0.0032639217 0.19821993 0.25050935 0.06605203 0.049120687 -0.029277723 0.038229633 0.12619379
0.037856482 -0.0105724 -0.049924076 -0.047580987 -0.064447366 0.18114078 0.06439057 0.03769814
0.06354321 0.022966918 -0.08186866 -0.057208456 -0.1054524 -0.100419655 0.06847651 -0.07077524
0.15560527 0.014271631 0.16629119 -0.03494276 0.06275462 0.008004092 0.01253633 -0.070493996
0.20891562 -0.012565276 0.07177507 -0.07321734 0.076269105 0.017086273 -0.12602141 -0.06327308
0.27847376 -0.76142746 0.33418027 0.02101722 0.3120354 0.024372319 0.10351774 0.048004907
0.024889171 0.13437185 0.2420216 0.010087195 0.014144588 0.049282048 -0.113326006 0.08385959
-0.35366914 -0.0031084702 -0.47566724 -0.034645505 0.03193082 0.09473841 -0.029382242 0.5115147
-0.21403842 0.20576018 -1.9540341 -0.06015517 -0.08036624 -0.20239621 0.056012373 -0.119428076
0.051201563 0.049314093 -0.08660592 0.034616955 -0.043689158 0.0124207605 -0.02066055 0.21880938
0.34656766 0.039936144 -0.033689763 -0.06417366 0.078127936 0.4844692 -0.05654947 -0.0422722
-0.11457702 0.010217697 -0.19263656 -0.08210255 -0.07037643 0.39410502 0.06171552 -0.13769369
0.0038779161 -0.09754528 -0.01507617 0.23902498 0.12853663 0.2125126 -0.18396802 0.022127232
0.13486154 -0.15712881 0.023055557 -0.16830659 0.16521615 0.016254239 0.060575582 -0.14295955
0.17401828 -0.061523512 -0.06887314 -0.2700668 -0.26675102 -0.14355832 0.07385207 -0.009557573
0.23455387 -1.2689521 -0.07772878 0.13244258 -0.024940168 -0.3728634 -0.11027342 0.006686828
0.10581611 0.21442467 0.20488815 0.008997162 0.008294164 -0.19675007 0.016861005 0.031202316
0.034191523 0.0075126337 -0.088135645 0.08347099 -0.06057373 0.2827041 0.038534056 -0.27096927
0.019409344 0.046339687 -0.18032044 0.04558486 -0.03873337 0.038986526 0.05094352 0.01648468
0.18210132 -0.07889158 0.10717972 0.076655604 0.0152672 -0.03342775 -0.11805307 0.016304284
-0.44210723 -0.13898814 -0.068454765 -0.13076031 -0.10429517 0.013143401 -0.09994113 -0.064191654
-0.044889484 0.06620315 0.15341619 0.084877074 0.60742396 0.035059247 0.18773891 -0.023229603
00000000: 1e16 d0bd 36cd ab3d c36f 913e 63eb aabd
00000010: 85ec c3bd a7a2 a1bc de5b bfbc 2750 a5bd
00000020: 0aad 933d fcfc 7f3c 99a0 033e 058a a4bc
00000030: 1e70 c83c 6480 e33d 23f2 00bd ddf0 7d3d
00000040: 2d28 7fbf 495c 453e 1eec de3e 05e0 0f3d
00000050: bdbe bdbc 8f02 f0bd e30c 37bd f8b7 1a3e
00000060: 4b29 72bd 38c7 8d3d 825c 7f3d 5138 cebb
00000070: 9485 3abd 955f ddbc ab7e cfbd 4306 373e
00000080: 2066 af3d cb5d 893d 5aee ae3e dc30 a0bd
00000090: 9a59 00bb 7f52 823e 4690 5a3e 66a9 923d
000000a0: f352 98bc e077 0fbd 90b0 d83d 59fe 4b3d
000000b0: 9842 d83c d756 8a3e c957 82bc 6af4 b33d
000000c0: 1115 a63d 65ae 60bd 878d 83bd d864 6b3e
000000d0: ea97 d0bd 5280 013e 746f e63d cc80 1bbd
000000e0: b18f 89bd 3d3b f33d ca89 d4bc 5eb9 fabc
000000f0: 542a 663e c100 1e3c df93 36bd 22d3 08bd
00000100: 9063 933e b375 dd3b 5adc 1f3d e141 c0be
00000110: d11c 26bb f25f 8d3c f099 16bc dab7 a9bd
00000120: 35d6 913e 35ba e83e acea dc3c 93f3 5eba
00000130: 9301 a9bd f948 663d 26fb ffbd da19 d2bd
00000140: 85e7 55bb 2afa 4a3e c342 803e 4946 873d
00000150: c632 493d d6d7 efbc ad96 1c3d f238 013e
00000160: 660f 1b3d dc37 2dbc 307d 4cbd 48e4 42bd
00000170: fbfc 83bd f87c 393e 34df 833d 5d69 1a3d
00000180: f122 823d 1e25 bc3c c2aa a7bd 6a53 6abd
00000190: 6ef7 d7bd d2a8 cdbd 6a3d 8c3d 9cf2 90bd
000001a0: fd56 1f3e 8fd3 693c 3d48 2a3e 2420 0fbd
000001b0: 7f85 803d 9823 033c 2e65 4d3c 285f 90bd
000001c0: faed 553e 96de 4dbc cffe 923d f9f2 95bd
000001d0: fa32 9c3d 83f8 8b3c c20b 01be 5195 81bd
000001e0: 1d94 8e3e e9ec 42bf ad19 ab3e 4e2c ac3c
000001f0: 1bc3 9f3e 75a8 c73c 1c01 d43d cba0 443d
00000200: 60e4 cb3c c698 093e 83d4 773e c344 253c
00000210: b4be 673c f9db 493d 7717 e8bd 94be ab3d
00000220: 1f14 b5be 7ab7 4bbb a88a f3be 72e8 0dbd
00000230: e4c9 023d 3606 c23d 07b3 f0bc a1f2 023f
00000240: e32c 5bbe ccb2 523e ca1d fabf 4465 76bd
00000250: 0e97 a4bd f440 4fbe 3b6d 653d b596 f4bd
00000260: bbb8 513d 93fd 493d 725e b1bd 82ca 0d3d
00000270: 67f3 32bd 7280 4b3c 5040 a9bc 910f 603e
00000280: 5171 b13e 1594 233d 47fe 09bd 7b6d 83bd
00000290: 8a01 a03d 590c f83e 6ba0 67bd 9d25 2dbd
000002a0: 5ba7 eabd 2168 273c 8542 45be 6225 a8bd
000002b0: 8521 90bd 22c8 c93e 6ac9 7c3d 93ff 0cbe
000002c0: a324 7e3b d2c5 c7bd 0a02 77bc f7c2 743e
000002d0: 1b9f 033e e79c 593e 1d62 3cbe 2b44 b53c
000002e0: 2519 0a3e 60e6 20be 02df bc3c 9058 2cbe
000002f0: 6c2e 293e 9c27 853c 1a1e 783d fd63 12be
00000300: d931 323e 1400 7cbd 5c0d 8dbd 3246 8abe
00000310: 9793 88be f400 13be c13f 973d 5e97 1cbc
00000320: e42e 703e 066d a2bf 4430 9fbd 079f 073e
00000330: 534f ccbc f4e7 bebe 08d7 e1bd 2e1d db3b
00000340: 1eb6 d83d 2492 5b3e 33ce 513e d568 133c
00000350: 3fe4 073c da78 49be 1720 8a3c 009c ff3c
00000360: 690c 0c3d 8a2c f63b 7680 b4bd d7f2 aa3d
00000370: 291c 78bd 97be 903e e3d5 1d3d 7cbc 8abe
00000380: 5800 9f3c afce 3d3d eca5 38be 31b7 3a3d
00000390: e2a6 1ebd 56b0 1f3d 27aa 503d e10a 873c
000003a0: c578 3a3e e991 a1bd 0b81 db3d 9dfd 9c3d
000003b0: 4723 7a3c 89eb 08bd cfc5 f1bd 9090 853c
000003c0: e15b e2be e852 0ebe 0332 8cbd 08e6 05be
000003d0: b598 d5bd 6b57 573c efad ccbd ea76 83bd
000003e0: 09de 37bd 8495 873d 2219 1d3e 08d4 ad3d
000003f0: 2380 1b3f 499a 0f3d a13e 403e 024c bebc

fc3.bias f4 [9]
0.008240233 -0.023760092 0.048485115 -0.023019172 -0.047874693 0.10221096 0.06272123 -0.0818367
0.056352574
00000000: 0b02 073c 86a4 c2bc 5498 463d b492 bcbc
00000010: 4118 44bd fb53 d13d fd73 803d 009a a7bd
00000020: f5d1 663d
