Graphs/MarttiWeights-2x2x2-b128-lr0.001000.pt (torch, 75095 bytes, 6 tensors)

fc1.weight f4 [128, 9]
000000 78 17 63 be 1f 3f f0 3d 5f db 0f be 68 35 86 3e
       -0.22176921 0.117307894 -0.14048527 0.2621262
000010 84 6f a6 3e ed 27 ba 3e 44 2a 51 3e ec b0 8b be
       0.32506955 0.36358586 0.2042628 -0.27283418
000020 50 02 9d be 7d c6 35 3c e2 c5 17 be 70 92 8b 3e
       -0.30665827 0.011094687 -0.1482158 0.2726016
000030 c4 a4 2a be c8 8b 8b 3e 53 8d 9e 3e 4e f1 3c be
       -0.16664416 0.27255082 0.30967197 -0.18451425
000040 c1 3a a5 3d 1e 1f 04 3f 65 d9 85 3c 35 d9 c4 3e
       0.08067847 0.5160998 0.016339013 0.38446966
000050 35 0d 96 3e 28 3a b7 bd 1f 2c 04 bc aa fe 45 be
       0.2930695 -0.08946639 -0.00806716 -0.19335428
000060 5b b8 55 3e 39 9b 76 3d d1 61 8b be 4d f8 a0 bc
       0.20871107 0.060206626 -0.27223065 -0.019649649
000070 e5 a5 e0 3d d7 b3 89 3e a6 4c 5a be 78 b7 88 be
       0.10969142 0.2689502 -0.21318302 -0.26702476
000080 b7 85 9a 3d 83 07 9d 3e bb f1 32 3e cf 37 16 3f
       0.07545035 0.30669793 0.17475025 0.5867891
000090 00 bc de bd bf ec 1e 3f 38 a9 ce 3d 5a 21 34 be
       -0.10875702 0.62079996 0.1009087 -0.17590848
0000a0 d9 fd 61 be 1a 1f 43 bf bf bb e6 3e 16 63 bd bd
       -0.22069491 -0.7621933 0.45065114 -0.09247415
0000b0 76 5c 82 bd 13 ef b9 bd 72 03 2a 3e 46 0e 27 be
       -0.06365292 -0.09078803 0.16602877 -0.16314039
0000c0 68 3e 10 be 5b a8 95 be 19 5e f5 3e 43 7f b9 3e
       -0.14086306 -0.29230008 0.47923353 0.36229905
0000d0 13 87 cd 3d d0 12 09 3e ea 81 de 3e 80 01 55 3e
       0.10035529 0.13386083 0.43458492 0.20801353
0000e0 42 3f 39 3c ce 31 86 be f0 82 a8 bc 2c cd 97 be
       0.011306586 -0.26209873 -0.020570248 -0.2964872
0000f0 72 8e 04 3f 3a e4 a7 3e 3b 28 c4 3e b3 1c 08 3e
       0.51779854 0.3279131 0.38311943 0.13292198
000100 b8 23 76 be 48 29 3c be 04 ce bc be 25 25 38 3e
       -0.24037063 -0.18375123 -0.36875927 0.1798292
000110 55 7a fc 3e d9 ce 20 bc f8 a0 91 3e 29 d4 13 be
       0.49312082 -0.009814941 0.28443122 -0.14436401
000120 43 86 39 3e 6a 40 49 3e bf f8 2c bc 6b 38 41 be
       0.18117623 0.19653478 -0.010557353 -0.18869178
000130 97 59 13 3e 7e 0c cd 3e 4b 2d d3 3e 6a 26 1e bd
       0.14389645 0.40048593 0.41245493 -0.038610853
000140 16 24 bd be 0e 1c a4 3e 44 01 96 3e 3e 39 96 bd
       -0.36941594 0.32052654 0.2929784 -0.07335137
000150 58 7a 9f 3e d6 45 5e 3e 4f 29 9d be a3 a0 b6 bd
       0.31148028 0.21706328 -0.30695578 -0.08917358
000160 09 18 a3 3e 42 d0 8f 3c 1d b2 5a be a2 d8 db bd
       0.31854275 0.01755536 -0.21357007 -0.10734679
000170 c1 69 ff 3d b2 56 6c bd ad d5 c4 bc 92 61 5f be
       0.12471343 -0.057699867 -0.02402767 -0.21814564
000180 6c a9 dc 3e 34 df 09 3f d1 c4 b4 3e c7 08 8d bd
       0.4309801 0.53856206 0.3530641 -0.0688644
000190 b8 e0 48 bd a9 2c ae be 58 32 44 be 37 b5 0a 3e
       -0.049042434 -0.34018448 -0.1915983 0.1354569
0001a0 e9 e3 d8 3e 68 52 10 3f 73 f5 9d 3e 75 10 a8 3d
       0.42361382 0.5637574 0.30851325 0.08206264
0001b0 b3 2c 43 3e 21 24 5e 3e 2f 00 f4 bb 9b 3e aa be
       0.1906002 0.2169347 -0.007446311 -0.3325089
0001c0 0a 71 c7 be a9 96 fe 3e 4b d0 80 3e ea 8e 44 3e
       -0.3895343 0.4972432 0.25158915 0.19195142
0001d0 a3 ac 1d 3f 67 bd 9d 3e 66 3b 9a be 80 eb fc bd
       0.6159155 0.30808565 -0.30123442 -0.123496056
0001e0 a0 0f b8 bd b2 24 92 be a9 02 a1 3e 21 76 5a 3e
       -0.08987355 -0.2854362 0.31447342 0.21334125
0001f0 b4 cd 8c 3e 90 97 32 be b0 d8 37 bc 79 d5 a8 be
       0.2750069 -0.17440629 -0.011221096 -0.32975367
000200 eb a7 f4 bd 22 ee 8b be a4 f7 21 3f 3f a3 d5 bd
       -0.1194609 -0.27330118 0.63268495 -0.10431527
000210 cc e2 2f 3e ad ab 84 bd d6 06 26 bf 7c 34 ad 3e
       0.1717636 -0.06478057 -0.6485418 0.33829105
000220 6a a7 ac 3e 20 90 d3 3d 47 ce 13 be d3 d2 4f 3e
       0.33721477 0.10330224 -0.14434157 0.20295267
000230 4e 78 c1 bd 08 44 95 be 91 1d ca 3d 98 4e ea 3e
       -0.094467744 -0.29153466 0.098689206 0.45763087
000240 79 28 0d 3e 2a 99 00 3f 65 22 b1 be 2d 74 75 be
       0.1378497 0.5023371 -0.34596553 -0.23970099
000250 68 b3 37 be 1f a5 87 be 3a 7e 57 3e 30 b6 c1 bd
       -0.17939532 -0.26493165 0.21044245 -0.09458578
000260 97 5d a2 3e ed d0 55 3e 63 c8 22 3e 99 7f b1 3d
       0.31712028 0.2088048 0.15896754 0.086669154
000270 c6 72 ad 3e c2 40 82 3e fc 2c 2b 3e 8a 95 4d 3d
       0.33876628 0.2544003 0.16716379 0.05019144
000280 90 54 b0 be d8 ae 4c 3c dc 98 aa 3d 4a 11 45 be
       -0.34439516 0.012492858 0.08329937 -0.19244877
000290 f8 c6 38 be ec 64 b3 3e 28 06 9e 3e e3 79 aa 3e
       -0.1804465 0.35037935 0.30864072 0.33296117
0002a0 b9 e0 a9 3e 92 eb a6 be 13 c1 30 bd 24 72 04 bd
       0.33179262 -0.326016 -0.04315288 -0.032335415
0002b0 a9 b3 a8 bd 60 0d 8b bd 46 eb d2 3e ee 32 25 be
       -0.082373925 -0.067896605 0.41195124 -0.1613271
0002c0 3d 7e 9c bc 18 79 b7 bd 41 26 76 be 9a 4f f5 bc
       -0.019103164 -0.08958644 -0.2403803 -0.029945184
0002d0 4e 38 45 3d 61 e7 8c 3d d0 18 a6 be ee 1e 0c 3e
       0.0481494 0.068800695 -0.32440805 0.13683674
0002e0 3a c1 ad be 93 fa cf 3e 5a 89 60 3e 4b dc 69 3e
       -0.33936483 0.4062086 0.21927395 0.22837941
0002f0 8e 57 28 3e 16 d2 a4 bc ac 0d 7b 3e 32 c9 b2 3e
       0.1643965 -0.020119708 0.24516934 0.34919125
000300 18 20 16 3d 7a f7 80 3e a3 33 00 be 99 82 d2 bc
       0.0366517 0.2518881 -0.12519698 -0.02569704
000310 4b cd 0c 3e f0 54 ec 3c f7 14 ee 3d 1c e4 a5 be
       0.13750188 0.028849095 0.116250925 -0.32400596
000320 df 7c 12 be 8a 18 95 3e fd dc b1 3d 82 31 13 3f
       -0.14305447 0.29120284 0.08684728 0.5749742
000330 2a 2b 59 3e ac 53 08 3f 73 89 c9 3e cd 65 6e 3e
       0.21207872 0.53252673 0.39362678 0.23281021
000340 da fc 47 3c 6e c8 c2 be ef b1 e2 3e e0 90 0d bd
       0.012206281 -0.3804354 0.44276378 -0.03456199
000350 5b 35 50 3e e4 db 24 be 69 e1 f4 be 39 06 ee 3d
       0.20332853 -0.16099507 -0.47828224 0.11622281
000360 87 2b 3f 3e 32 75 43 3e 21 7b 01 3e ba b9 71 3e
       0.18668948 0.19087675 0.12644626 0.23606005
000370 0c 37 5b 3e dc a9 3a 3e d1 0c fe 3d 29 05 dd 3d
       0.21407717 0.18228859 0.12404788 0.10792
000380 e8 a8 5d be 5d b7 42 bd 65 26 f6 bd 4a fb ce 3d
       -0.21646464 -0.04753815 -0.12019042 0.10106523
000390 a2 7f 68 3e c2 a8 a9 3e 7a e0 00 be 26 94 7c 3e
       0.22704938 0.33136564 -0.12585631 0.24665889
0003a0 89 e7 98 be d9 e1 95 3e 26 c8 7b bc fe 15 db 3e
       -0.29864147 0.2927387 -0.015367543 0.42790216
0003b0 66 ed c2 bd 9a 32 17 be 32 da 59 be f8 e5 90 be
       -0.095179364 -0.14765397 -0.21274641 -0.28300452
0003c0 8a 98 5f 3d 6a b7 e4 3d ee 44 4d be e8 0e 97 be
       0.054588832 0.11167796 -0.20045826 -0.2950356
0003d0 81 e1 e9 bd d9 72 3e 3e 3d b8 91 3c 75 8b 0c 3e
       -0.114199646 0.18598498 0.017788047 0.13725074
0003e0 ce 53 5f 3d 7c df ef 3e 89 05 2d 3e 87 c1 07 3e
       0.05452328 0.46850193 0.16896643 0.13257419
0003f0 95 ab 2e bd c5 d3 ff 3e d4 a1 20 be 23 db 8f bd
       -0.042644102 0.49966255 -0.15686733 -0.07024219

fc1.bias f4 [128]
000000 e2 87 02 3e c9 ad 4d 3c 85 6b 48 3e 78 ef 9f 3e
       0.12747148 0.012553641 0.19572265 0.31237388
000010 8e 26 cb 3d 08 67 d2 3e 2f 34 96 3e 4a 92 88 3e
       0.09919463 0.41094232 0.29336688 0.2667411
000020 63 5d cb 3e ba 8f 36 be 66 fd 9e 3e 5d de ce 3e
       0.39719686 -0.17828265 0.31052703 0.40404025
000030 fe 19 85 3e 04 07 fb bc 28 bd af 3c 58 a2 57 bd
       0.25996393 -0.030642994 0.021452501 -0.052645057
000040 40 fa 55 bd b9 fb ed 3d a8 0d c3 3e 54 28 54 bc
       -0.05224061 0.11620278 0.38096356 -0.012949068
000050 82 a1 06 3f 93 1e 3c 3d 63 c6 c8 bd 24 c9 fe 3c
       0.5259019 0.045927595 -0.09803464 0.03110177
000060 d9 66 91 3e 70 60 94 be c1 4d be 3c b9 68 d2 3e
       0.2839878 -0.28979826 0.023230435 0.41095522
000070 a0 bc 00 3e 14 f6 fd bd 30 ae 26 bd 38 0d 07 3e
       0.12571955 -0.12400451 -0.040693462 0.13188636
000080 25 3b 2a be a2 be 27 be 1c 20 88 be c8 2c 45 be
       -0.16624124 -0.16381314 -0.26586998 -0.19255364
000090 99 6f 27 3e 6d 24 96 bc e5 7e 36 3e 41 23 11 bd
       0.16351165 -0.018327916 0.17821844 -0.03543401
0000a0 3b 87 13 be 44 be aa 3d be 70 9b 3e b8 83 6d 3e
       -0.14407055 0.083370715 0.30359453 0.23194778
0000b0 ea 75 d9 3d 42 ec 9a 3e de bf 70 3e cc 37 74 bd
       0.106181934 0.30258375 0.23510692 -0.059623525
0000c0 a1 af ba bd c5 e7 9d 3e 2b c0 ac 3e 1b 57 82 be
       -0.0911553 0.3084089 0.33740363 -0.2545708
0000d0 91 f0 a1 3e 70 ae 64 3e bd 2b 83 3d 93 b9 2e 3e
       0.3162885 0.22332168 0.06404827 0.17062978
0000e0 c3 83 70 bc a5 56 1e bd 3f c7 d5 3d 8e c8 6a 3d
       -0.014679852 -0.03865685 0.10438394 0.05732017
0000f0 89 03 a8 3e 60 9a ea bb 5f d3 66 be d0 44 c2 3e
       0.32815197 -0.007159516 -0.22541569 0.37943125
000100 92 b5 1f 3e 9f c3 83 3e cb 76 69 bd 17 ea c3 bd
       0.15596607 0.25735185 -0.056998055 -0.095661335
000110 88 80 33 3e d8 d6 3f be d1 bd 05 3e 26 b2 ad bd
       0.175295 -0.187343 0.1306069 -0.08481245
000120 f3 61 1f be 65 d9 8e 3e bb fe 04 3e 19 f2 be 3e
       -0.15564708 0.27900234 0.12987797 0.3729408
000130 a2 cd 4d be 7f 5c d4 3d 43 b3 19 3e 9e de 00 3f
       -0.20097974 0.10369205 0.15009789 0.50339687
000140 01 65 cc 3e be 85 62 be ed b4 ab 3e a9 c7 84 be
       0.3992081 -0.22121331 0.33536473 -0.2593358
000150 1c 62 c9 bd d3 18 5f be b8 1d 11 3e 06 4d 89 3e
       -0.09833166 -0.21786813 0.14171493 0.26816577
000160 4a d2 94 be 8e 34 5e bd 14 03 9e 3e 4e a0 63 be
       -0.29066688 -0.05424934 0.30861723 -0.2222912
000170 6c 7e 06 bd 94 83 74 bd 66 d6 39 3e b7 f7 d9 bc
       -0.03283541 -0.059695795 0.18148193 -0.026607377
000180 cb 01 a3 be e6 ee c2 3e 7b 5b 8e bc 19 a7 88 3e
       -0.31837305 0.3807289 -0.017377606 0.26689985
000190 a1 a9 cf 3c ed 84 77 3e f4 77 24 3e 0c c3 ae 3d
       0.02534944 0.24171801 0.16061383 0.08533296
0001a0 a9 60 7e 3d 24 4b 0c be 57 0e db 3d 00 1a 18 be
       0.0621039 -0.13700539 0.106960945 -0.14853668
0001b0 c0 13 03 3f 73 7c c9 3d 69 1c 0f 3e 90 4c 0f bd
       0.5120201 0.0983819 0.13975681 -0.034985125
0001c0 30 2c 43 bd 0c 82 79 3e c8 f5 3c 3e 21 21 a2 bd
       -0.047649562 0.24366015 0.18453133 -0.07916475
0001d0 c7 95 05 be 40 84 8c 3d 34 5b 8a 3e 3a e9 c6 3d
       -0.13045417 0.06861162 0.27022707 0.09712453
0001e0 dc 74 6a bd 2a ee a3 bd 43 15 b4 3e bb 59 86 3d
       -0.057240352 -0.080044106 0.3517247 0.065600835
0001f0 30 21 64 3d 55 e3 bf 3b ab 03 c0 3e 5c a5 e0 3e
       0.055695713 0.0058559575 0.37502798 0.4387616

fc2.weight f4 [128, 128]
000000 2a e1 14 3e 14 02 18 3d 96 2c 9b bd 28 e1 d1 3d
       0.14539018 0.037111357 -0.075768635 0.10248023
000010 50 90 a0 be e7 74 84 3e e1 41 4d 3d 39 a9 50 3e
       -0.31360102 0.2587044 0.050111655 0.20377053
000020 3c 7e 85 bc 6d a4 0d be 9c 92 87 3d 9e e1 79 3e
       -0.016295545 -0.13832255 0.066197604 0.24402472
000030 fd 07 2e 3e c3 0a 4a 3e 2e bc 45 be 52 ba f6 bc
       0.16995235 0.19730668 -0.19310066 -0.030118141
000040 45 8d 23 bd e7 93 ba 3d f6 e0 b8 3d 34 08 08 3f
       -0.039929647 0.091102414 0.09027283 0.53137517
000050 7f 39 f4 3d bd 08 eb bd c0 30 08 3e 25 0e e3 3e
       0.11925029 -0.11476276 0.13299847 0.4434673
000060 cd f9 c7 3d 7a 61 c6 bb c0 31 99 be 43 e0 5e 3d
       0.097644426 -0.0060541006 -0.2992077 0.05441309
000070 88 15 1a be a9 b5 da bd 7f d6 5b 3b a7 c1 12 be
       -0.15047276 -0.1067918 0.0033544598 -0.14331685
000080 4f 67 14 be 62 2f 36 3b df 39 74 bd ba 3b 0c bc
       -0.14492534 0.0027799238 -0.059625503 -0.008559162
000090 e1 db 64 bd fd 27 d3 3d 43 e0 ec 3c c7 82 8a 3e
       -0.055873755 0.103103615 0.02891553 0.270529
0000a0 66 1f 59 bc 1e 6b 94 3e f1 e4 58 3e 32 47 f2 3d
       -0.013252115 0.28987974 0.21181084 0.11829986
0000b0 e4 dd d9 3c be 99 15 3e 55 cd a3 bc d4 aa 41 3d
       0.026595064 0.14609429 -0.01999537 0.047282055
0000c0 be 12 fb 3d 34 b3 1f 3e e9 22 ed 3d 3a 53 9b 3d
       0.12259434 0.15595704 0.11578924 0.075842336
0000d0 f4 62 75 3e ec cb c3 3d 95 6f f3 3d 23 a5 a0 bd
       0.23963529 0.095603794 0.11886517 -0.07843997
0000e0 56 fc 86 bd 26 c7 2f 3e 5f 05 f6 3e 94 f2 42 3d
       -0.06591098 0.17165813 0.48050973 0.04759462
0000f0 4c ee 72 3c 2c 2d 0d be 7b 63 01 be b8 8b 9d 3d
       0.014827322 -0.13786763 -0.12635605 0.07692665
000100 5b a5 ea 3d 57 34 37 3d ff 0b 0e be 1f e5 83 3e
       0.1145732 0.04472765 -0.13871764 0.25760743
000110 ce 2c b7 3d 6e 83 36 be a5 96 4b 3e 66 c6 c8 3c
       0.08944093 -0.17823574 0.19881685 0.024508666
000120 d2 c4 ab 3e ad c6 e9 bc 82 a3 81 3e b8 3b 13 bd
       0.335486 -0.028537119 0.2532006 -0.035945624
000130 9a c9 d8 3e 98 48 87 be c4 03 6a bc cd fe 16 3e
       0.4234131 -0.26422572 -0.014283124 0.14745636
000140 66 a1 4d 3e 82 9e 87 bd 82 f2 e4 3d 3d 3b ac 3d
       0.200811 -0.0662203 0.11179067 0.08409736
000150 11 8d 4b bd d9 a9 05 3d 0b a1 99 3c df 1a 76 3d
       -0.04969508 0.032632682 0.01875355 0.06008422
000160 c8 84 63 be c8 13 bd 3c 9f 36 01 be 47 b5 af 3d
       -0.22218621 0.023080721 -0.12618493 0.08579498
000170 72 d2 25 bc f5 17 8a 3c a9 4a f9 bc a2 76 1a 3d
       -0.010120975 0.016857127 -0.030431109 0.037710793
000180 11 40 29 be 85 67 ab 3e fd 0d 69 3e e7 43 2f be
       -0.16528346 0.33477417 0.22759242 -0.17115746
000190 28 07 e0 3e 3e e5 83 3e bb d9 ae bd ac 79 45 3d
       0.4375546 0.25760835 -0.085376225 0.04821174
0001a0 d5 5d a1 bd 75 bb 8c bd 01 9a 07 be c0 1c 7e bd
       -0.07879225 -0.06871692 -0.13242342 -0.062039137
0001b0 26 34 93 3e 53 25 b2 bc 0f 55 d1 3d 90 0c 2f be
       0.28750724 -0.021746313 0.10221302 -0.17094636
0001c0 5a 90 db 3e e9 b3 0a 3f 45 8b 3a 3e 3c 07 73 be
       0.4288357 0.5418077 0.1821719 -0.23733228
0001d0 53 da ba bd 77 34 4c 3d 38 db 9f bd 63 c8 17 be
       -0.09123673 0.049854722 -0.078054845 -0.14822535
0001e0 46 7f 8a 3e b5 2c b4 bd 47 01 70 3e 15 30 c9 bd
       0.27050227 -0.0879759 0.23437987 -0.09823624
0001f0 2a 9b 4b bd 7a 70 41 3e dd c7 39 bb 28 61 19 3e
       -0.049708523 0.18890563 -0.0028347888 0.14978468
000200 e1 17 a4 3d 12 98 03 3e 27 fe 29 bd b3 3a 6a bb
       0.08012367 0.12850979 -0.041502144 -0.0035740554
000210 fb 83 59 3e 8f 6f f6 bd 55 cb cc 3c d3 b8 a7 bd
       0.21241753 -0.12032997 0.0249993 -0.08189549
000220 ab 01 37 3d 60 12 78 3d e7 b5 b5 bc 74 2d 8d bd
       0.044679325 0.0605644 -0.022181464 -0.06893435
000230 b3 71 92 3d 10 30 40 be f2 1f bd bb 6e 90 0f 3e
       0.07150593 -0.18768334 -0.0057716304 0.1401994
000240 d8 fd 03 bd 68 01 a3 bb 6e 0b 00 bb 72 28 21 3e
       -0.032224506 -0.004974533 -0.0019538063 0.15738085
000250 be bf 35 bd 55 bf 76 bc a4 9f 2e 3d 18 05 8a 3d
       -0.044372313 -0.015060266 0.042632714 0.06739253
000260 51 32 c1 3c 56 5f 63 3d 4e 17 8e 3e 4d 2d 1f 3d
       0.023583563 0.05551084 0.27752155 0.03886156
000270 fe b3 5b 3d 71 a9 1c 3d 4a ec 79 bd 0e 45 9e 3e
       0.05363845 0.03824753 -0.06101636 0.3091206
000280 92 64 83 3e 6b fe 02 3e 75 3e a6 3b 15 ff 07 3e
       0.25662667 0.12792365 0.0050733634 0.132809
000290 db 2d 27 3e 2b d1 2f bb 33 5b 58 3d 61 b7 43 be
       0.16326086 -0.0026827555 0.05282135 -0.19112922
0002a0 b9 01 aa bc 6c 6e 07 be 51 a9 07 be 41 79 28 be
       -0.020752775 -0.13225716 -0.13248183 -0.16452505
0002b0 06 55 e7 3d 24 ef c3 3d ac f7 b9 3d 39 1d b7 3e
       0.11295514 0.09567097 0.09080443 0.35764483
0002c0 51 9a 9b bd 5f d3 8e bb 3b 68 d7 bd 4f 25 a9 3d
       -0.07597793 -0.0043586935 -0.10517927 0.08259069
0002d0 9c d4 2a be 18 e6 0e 3c 54 43 25 bc 00 a4 f1 3b
       -0.16682667 0.008721851 -0.010086853 0.0073742867
0002e0 29 06 b0 3d 1d c7 a7 bd 65 4d 13 be 14 48 dd 3d
       0.08594925 -0.08192275 -0.14384992 0.108047634
0002f0 75 73 92 3d d5 1b 82 3e 80 fd 37 bd 59 d3 79 bd
       0.07150928 0.2541186 -0.04491949 -0.060992572
000300 eb 9a 75 3d c7 7a 94 3c ae 48 fc 3c 94 3d ff 3c
       0.059962194 0.018124951 0.030796375 0.031157292
000310 f8 75 bc bc 72 35 da 3d 81 cd 5c 3b 10 14 4c bd
       -0.02300547 0.10654725 0.0033691826 -0.04982382
000320 4a e0 da bc 2e 2a 42 3d 43 a7 f8 bb 4e 91 32 3d
       -0.026718277 0.047403507 -0.0075882985 0.043595605
000330 70 1b a0 bc 62 9e 55 3e 75 45 8f 3d f3 ed af bd
       -0.019544333 0.208612 0.0699567 -0.08590307
000340 03 29 f1 bd 8f 0c ab 38 32 f5 6a 3d 93 28 bc 3d
       -0.117754005 8.1562546e-05 0.057362743 0.091874264
000350 c9 da 91 3c a2 71 f8 3d 21 0a 9d 3e df e2 7c bd
       0.01780452 0.12131049 0.3067179 -0.0617398
000360 ad 13 13 bc 95 29 2f 3d 80 44 02 3e 4b b4 56 bd
       -0.008976859 0.042764265 0.12721443 -0.052418035
000370 2f dd d8 3c 90 75 50 3e 4b 46 06 3d d3 c7 82 3d
       0.026472656 0.20357347 0.03278188 0.0638577
000380 5b 8b b6 3d fa 79 50 bc 0a 38 9b bd 55 5e 25 3d
       0.08913299 -0.012724394 -0.07579048 0.040373165
000390 05 10 7e be 82 f3 e7 bd 9d 29 84 bd 29 8b 1a 3e
       -0.24810798 -0.11325742 -0.064532496 0.15092148
0003a0 09 31 92 bd 7b 22 fe 3b 71 4e 1d bb 3a 2c 48 bd
       -0.07138259 0.0077555752 -0.0024003054 -0.048870303
0003b0 4b 2b 36 bc 5c 65 56 3d d2 d8 10 3b 59 6b 57 3e
       -0.01111872 0.052342758 0.0022101891 0.21037044
0003c0 20 36 a7 3d 50 c8 2b bd e4 98 ee bc 17 8e b6 3d
       0.081646204 -0.04193908 -0.029125638 0.0891382
0003d0 06 38 4a 3e bd 7a 53 3d 02 64 53 3c f6 d4 ee 3d
       0.19747934 0.051630724 0.012902262 0.11661713
0003e0 3a b2 27 be 06 6f f7 3d 6a 7d e3 3c b1 99 03 3f
       -0.16376582 0.12081723 0.027769763 0.5140639
0003f0 9e 56 bc 3c f4 d6 01 3e 9d df 4d 3c e2 c8 6e bc
       0.022990521 0.12679654 0.012565521 -0.014574261

fc2.bias f4 [128]
000000 d7 3f 27 3e bf 6d 06 3c 97 a5 78 3b 03 3a d8 3d
       0.16332947 0.008204876 0.0037940496 0.1055794
000010 06 5e 11 bd b2 da d8 3d c5 13 ac 3c c0 ef fd bb
       -0.03549006 0.10588588 0.02100552 -0.0077495277
000020 2b d5 06 bd 1b 76 d2 3d c5 63 38 bd 01 06 92 3c
       -0.032918137 0.10276433 -0.045017023 0.017825129
000030 03 5e 50 3a bd a8 9c 3d 29 2d ef bb 63 35 f6 3d
       0.0007948579 0.07649372 -0.0072990847 0.120219015
000040 9d 64 7e 3c ef ff ac 3c 96 c9 55 3c 7e f8 67 bd
       0.015526918 0.021118132 0.01304855 -0.056633465
000050 95 df 1b 3c af 43 fa 3d a8 36 d2 3c 24 5e 26 3e
       0.009513755 0.12219941 0.025660828 0.1624685
000060 c1 74 32 3d 21 97 62 3d 2e f8 ee 3c 26 57 f4 3c
       0.043568376 0.05531991 0.029171076 0.029826712
000070 87 1b 54 3d b2 b5 ba bd 1b c5 b1 bd 37 f3 ac 3c
       0.051784065 -0.09116687 -0.08680173 0.021112068
000080 c1 28 81 bd 36 a1 d6 3d b1 f7 ec 3c 9a 25 31 3d
       -0.06306601 0.10479967 0.028926702 0.04324875
000090 6b 8b a7 3d 87 69 87 bc d5 18 5e 3d cf 5c 86 3d
       0.08180889 -0.016529812 0.0542229 0.065606706
0000a0 b5 63 4e 3d 4b fe f7 3d a4 f5 67 bc 81 c9 a2 3b
       0.050388057 0.121090494 -0.014157686 0.004967869
0000b0 75 e2 a6 bc 87 d4 17 3e f4 f0 d1 3d af c3 85 3c
       -0.020371655 0.14827166 0.10251036 0.01632866
0000c0 30 33 ad 3d a2 db 66 3c c6 3c 56 3d 37 83 29 3d
       0.08457029 0.0140904505 0.05230405 0.0413849
0000d0 2f 8f 69 3d c0 d5 a0 bc 49 57 a3 3d 25 26 33 3e
       0.057021316 -0.019633174 0.07975633 0.1749502
0000e0 15 6d a8 3d 73 47 ad 3d 51 1f a5 3d d4 bb b1 3d
       0.08223931 0.084608935 0.08062614 0.086784035
0000f0 75 72 b9 bd 63 fb 12 3e 61 58 b9 3d da 7d 04 3d
       -0.09055034 0.14353709 0.0905006 0.032346584
000100 b9 b7 b9 3d 48 4d 51 bd 15 76 1e bb a7 98 5d 3e
       0.090682454 -0.05109909 -0.002417927 0.21640263
000110 5d 57 60 bc b2 70 47 3d a0 18 2a 3c 2e 39 dc 3d
       -0.013692704 0.04869146 0.010381848 0.10753094
000120 43 1d fc 3d ca c9 04 3d 38 4d 0c 3b 95 86 9f ba
       0.12310269 0.032419004 0.002140833 -0.0012170846
000130 17 b3 ca 3c 1c 69 51 3d 25 88 31 bc 41 5c 94 3d
       0.0247436 0.05112563 -0.010835682 0.072441585
000140 8e 6b d1 3d 63 22 62 3e 4a 2e b2 bb 46 77 b5 3d
       0.102255926 0.2208343 -0.005437647 0.0886064
000150 97 ab f2 bc a0 fb 8c bc 9b 7b cc 3d bc 5c 1c 3d
       -0.029622836 -0.017209828 0.09984513 0.038174376
000160 88 b7 23 3d 1d a1 2c bc 62 f9 06 bd a3 fe 36 3e
       0.03996995 -0.010536459 -0.032952674 0.17870574
000170 2a e3 a4 bc a5 22 c0 3c 30 1e 23 3c 08 8b 03 3d
       -0.020127852 0.02345402 0.009955928 0.032115012
000180 e6 e0 a5 3d 29 30 c4 bc 29 55 a0 bc 1d 7d ac bc
       0.080995366 -0.023948746 -0.019571858 -0.021055752
000190 9b b9 db bc f4 1e 5a bd 5c 80 0f 3e 41 0a 11 3d
       -0.026821902 -0.053252175 0.14013809 0.03541017
0001a0 84 13 1d 3d 34 1c df bc 15 27 1c bd ff ac 1d 3d
       0.03834869 -0.027235128 -0.03812321 0.03849506
0001b0 cd 4b 39 3e 12 0b 55 3d 4e e3 cd 3d b1 6d 1f 3e
       0.18095322 0.05201251 0.100531206 0.15569188
0001c0 cc 85 45 3d 65 9a 10 bc 67 57 94 3d c6 2f 8a 3d
       0.0482233 -0.008825873 0.07243233 0.06747393
0001d0 07 c4 3f bd 94 62 da 3d 6f 39 91 3d 82 92 b4 bd
       -0.046817806 0.106633335 0.07091033 -0.08817007
0001e0 be a2 80 3d da fe 55 bd 31 6c 21 bd c2 08 c1 3d
       0.062810406 -0.052245 -0.03940982 0.094254985
0001f0 9b 21 83 3b 0f a9 36 3c 96 01 17 3e 8c be 6c 3d
       0.004001809 0.011148705 0.14746699 0.057798907

fc3.weight f4 [4, 128]
000000 5a 7b 9c 3e fb 06 97 bd bc 11 83 bd 94 3f 14 bf
       0.3056286 -0.07374378 -0.06399867 -0.5790951
000010 7e 45 96 bd 41 85 91 3d 67 9f b5 bd 87 06 11 be
       -0.07337473 0.07105494 -0.08868294 -0.14162646
000020 10 54 c8 bc 96 38 06 bf 25 0f fc bc 7e b4 46 3c
       -0.024454147 -0.52430093 -0.03076894 0.012127994
000030 bc fa 85 3d a1 36 f5 bc 57 69 ec 3a 87 83 2b 3e
       0.065419644 -0.029933276 0.0018036765 0.16749392
000040 10 59 2a 3e df a8 44 bd 30 ec 75 bd 08 b3 ad 3d
       0.16635537 -0.04801261 -0.0600397 0.08481413
000050 be a0 21 be 6c ed 40 3e 82 ae 85 bd b2 c6 c6 3d
       -0.15783975 0.1884057 -0.06527425 0.09705867
000060 62 37 0a be 18 b2 bf 3b 97 b4 75 3c 5d 14 66 3e
       -0.1349769 0.005850088 0.014996669 0.22468705
000070 93 4f 8a 3e ca 81 6f bd 63 a0 87 3d aa 22 c5 3b
       0.27013835 -0.058473386 0.06622388 0.006016095
000080 e5 88 e5 3d 6a 0b 03 3e a9 c6 49 bd 10 83 87 bd
       0.11207751 0.12797323 -0.049261723 -0.06616795
000090 00 ee 3a 3e a9 e3 da bd 96 10 9b 3e 49 e0 92 bd
       0.18254852 -0.10687954 0.30286092 -0.07171685
0000a0 87 38 cc 3d 22 29 30 be 57 88 ce bd 29 a3 36 be
       0.09971719 -0.17203191 -0.100845985 -0.17835678
0000b0 7f 9f 2a 3d f4 95 b4 3d a8 cd ca 3d 8b 31 4b 3c
       0.041656014 0.08817664 0.09902507 0.012401949
0000c0 b7 7c 43 3d b7 fe 05 3d 3d 49 30 bd d3 62 9f 3d
       0.04772636 0.032713618 -0.043038595 0.07782521
0000d0 9b e4 0d be 2c d5 98 3c a7 22 a5 3d e0 c3 3d 3e
       -0.13856737 0.018656336 0.0806325 0.18531752
0000e0 42 b2 76 3d 7f 37 02 bf c7 b1 3c be b2 aa 96 3e
       0.060228594 -0.5086593 -0.18427192 0.29427105
0000f0 54 c3 fd ba 5c 89 18 3e ca a9 40 be 96 4f c0 bd
       -0.001936058 0.14896148 -0.1881477 -0.0939018
000100 c3 f3 63 3e 4f 22 4b bd e4 b6 2f ba 1d d5 ae 3d
       0.22260956 -0.049593266 -0.0006702973 0.08536742
000110 84 07 55 3e 57 0f 0e bd 98 53 9b be 38 a7 e0 bc
       0.20803648 -0.034682598 -0.30337214 -0.027423486
000120 05 20 e6 bd 8b a7 47 3d f2 b4 1c be d0 79 5e 3c
       -0.11236576 0.048743766 -0.153034 0.013578847
000130 8a a5 59 3d 69 0b 8a 3e ce e9 65 3e a7 04 df bd
       0.053136386 0.2696183 0.2245247 -0.10889559
000140 a3 60 bf 3d ee b6 1f 3e 3b 63 a4 3c a7 fe 24 3e
       0.09344604 0.15597126 0.020066848 0.16112767
000150 c2 d1 aa 3c d1 ba 6a 3e c2 52 d8 bd 1b 4d 23 3e
       0.020851973 0.22922827 -0.1056266 0.15947382
000160 24 45 f2 3c 1b 86 5d be 76 21 0f be 61 b2 56 3e
       0.029573984 -0.21633188 -0.13977608 0.20966484
000170 57 9c 12 3e 8e b8 2f be 28 0b dd bd db 79 ba 3d
       0.14317451 -0.17160246 -0.107931435 0.09105273
000180 d1 8e 05 bd 08 18 2a 3c 68 11 a8 bd bc 4f 9e bc
       -0.032606903 0.010381706 -0.08206445 -0.01932513
000190 aa ab 19 bd 32 fd 33 3d 75 e9 a4 be 99 d4 97 3d
       -0.037517227 0.043942638 -0.32209364 0.07413597
0001a0 d1 53 81 3e 40 eb da 3c 69 af 31 bd cf a6 fa bc
       0.2525926 0.026723504 -0.043380175 -0.030597119
0001b0 24 00 62 3e 1b 45 b0 bb 82 fd c0 3d 51 52 4e 3e
       0.22070366 -0.0053793318 0.09423353 0.20148589
0001c0 4a e6 ce bd 95 40 4f 3d ee ec b7 bd 2d 3d f1 3d
       -0.10102518 0.0505987 -0.089807376 0.117792465
0001d0 e1 ee b1 3d 04 d7 04 3d 3a a4 92 bd 1d 9d 98 3d
       0.08688141 0.032431617 -0.0716023 0.07451842
0001e0 04 57 71 3d 83 98 1d be 82 75 2b be 32 45 1a be
       0.058920875 -0.1539021 -0.16744044 -0.15065458
0001f0 67 8b ad bd a3 a4 74 bc 84 78 6b 3e 47 27 16 be
       -0.084738545 -0.014931831 0.22995192 -0.1466342
000200 8b 49 38 3e 83 34 64 be 88 83 82 3d fa 0b 27 3e
       0.17996804 -0.22285657 0.06372744 0.16313162
000210 e8 d5 2b 3c 44 34 4f 3e b0 43 20 bd e0 c5 3d 3e
       0.010488011 0.20234782 -0.03912705 0.18532515
000220 23 69 03 be e6 38 13 3e 75 c2 5c bd f1 e8 6e 3d
       -0.12833075 0.14377174 -0.053896386 0.05832762
000230 f0 82 8d bb 2a 00 ec bd ac 40 0f be 84 c8 5e 3e
       -0.0043185875 -0.11523469 -0.13989514 0.21756178
000240 7c f6 19 3c 70 83 94 3c b4 d9 2d 3c ce 84 d0 bc
       0.009397145 0.01812908 0.0106109865 -0.025453951
000250 4d 99 8c 3d b6 51 09 bd ea 70 80 bd b8 d6 04 3e
       0.06865177 -0.03352519 -0.06271537 0.12972534
000260 fb 55 ee bd 55 c5 a5 be 4a 89 32 3c 1c 11 10 be
       -0.11637493 -0.32377115 0.01089699 -0.14069027
000270 8e bd 29 3e c4 c6 a6 3c 16 5e 49 bd 29 81 9a 3c
       0.16576216 0.02035845 -0.049161993 0.018860416
000280 d0 6f 90 3c d8 c7 f3 bd 87 08 15 bd 7d a7 20 bd
       0.017631441 -0.119033515 -0.036385085 -0.03922223
000290 51 df e5 bd a2 41 15 bd d5 e8 2c 3e 2b bd cd be
       -0.11224235 -0.036439545 0.16885693 -0.40183386
0002a0 f7 19 91 3e 29 90 24 be e9 95 52 bb 21 ec 72 3c
       0.28340122 -0.16070618 -0.003213281 0.014826805
0002b0 10 b5 a9 bd 07 58 8d 3e 0f bd 3c be 99 c3 94 bd
       -0.08286488 0.27606222 -0.18431495 -0.0726387
0002c0 81 31 8c be e6 f5 3e be a1 c3 bc bc f7 2d 84 ba
       -0.27381518 -0.1864849 -0.023042502 -0.0010084499
0002d0 51 ab cb bd 12 e7 c4 bc 13 36 2a 3e 4f ed 37 3e
       -0.099447854 -0.024035964 0.1662219 0.1796162
0002e0 bc 34 83 3c 47 f9 c7 3d b6 50 26 3e 48 c7 5c 3e
       0.016016357 0.09764343 0.16241726 0.21560395
0002f0 98 51 91 3d 84 d7 69 3e dc 62 da 3d e0 a3 20 be
       0.07095641 0.22836119 0.10663387 -0.15687513
000300 b5 de 6a be 5a 6f 26 3d 84 76 5f 3d 1d 8f 2d 3e
       -0.22936518 0.040633537 0.054556385 0.16949125
000310 7b 0b 0d 3e f4 fb 26 3d 4d cb 51 3d 0a 04 92 3e
       0.1377391 0.040767625 0.051219273 0.28518707
000320 aa 30 19 be 75 d0 69 3d 12 1e c4 3d 2c 4c 00 bc
       -0.1495997 0.057083566 0.09576048 -0.007830661
000330 a8 20 63 3e dc d4 08 bc 66 e7 05 bf 71 bc 13 be
       0.22180426 -0.008351531 -0.5230621 -0.14427353
000340 a8 de 17 3e c5 58 73 3e 37 1e 57 be e7 ae 81 3e
       0.1483103 0.23764332 -0.2100762 0.25328752
000350 c2 80 d7 bd 59 51 44 3e b2 45 e5 3c d7 44 1f be
       -0.105226055 0.19171657 0.027987335 -0.15553604
000360 36 d8 81 bd 78 05 4c 3e 41 43 cb bd aa 84 2f 3e
       -0.06340067 0.19923961 -0.09924937 0.17140451
000370 bf c9 9f bd 3a d4 20 be 7f 38 01 be 99 67 95 3e
       -0.07802152 -0.15705958 -0.12619208 0.291806
000380 a5 4d e8 bd b8 e8 bf 3c 4a ff 3e b9 60 f0 db bd
       -0.113429345 0.023426399 -0.00018214915 -0.10739207
000390 20 0f 88 bd 06 a7 eb bc da b6 46 3e c7 2a 85 3d
       -0.0664351 -0.028766166 0.1940569 0.065023
0003a0 e9 c2 5b 3d aa 47 41 3d 7e fb 1f bd ad 27 25 bd
       0.053652678 0.047187485 -0.0390582 -0.04032104
0003b0 05 df 3b 3e 47 8d 75 bd 4f 90 47 3d 33 ac 76 3e
       0.18346794 -0.059949186 0.048721608 0.24089126
0003c0 e4 2d 0d be 1d 8b 05 3e 25 20 e1 bd 1c ca c2 bd
       -0.13787037 0.13041349 -0.10992459 -0.095112056
0003d0 df b8 8b 3e 2b d6 3e be 78 83 1b be e1 d2 49 3a
       0.27289483 -0.18636386 -0.1518687 0.0007698965
0003e0 81 81 42 3d 9b 86 75 3d 1b f9 bc 3d fd 9c e1 bd
       0.047486786 0.059942823 0.092272006 -0.11016271
0003f0 5d 77 b7 bd b0 7b 87 3e 49 80 19 3e 19 13 27 3d
       -0.089583136 0.26461554 0.14990343 0.040789697

fc3.bias f4 [4]
000000 05 6c 2f 3d 62 42 e8 3c 58 e5 3e bd ba 58 be 3c
       0.042827625 0.028351966 -0.046605438 0.023235667
