Graphs/MarttiWeights-3x3x5-b128-lr0.001000.pt (torch, 82775 bytes, 6 tensors)

fc1.weight f4 [128, 19]
0	0xbb163a17	-0.0022922808
1	0xbe53d732	-0.20687559
2	0xbd01691b	-0.031594377
3	0xbf1e09a8	-0.61733484
4	0x3ef7168d	0.48259392
5	0xbe0103bd	-0.12599082
6	0x3e944e25	0.2896587
7	0x3ee34ec3	0.44396028
8	0x3cf61077	0.030037148
9	0xbcdab72e	-0.026698675
10	0x3cb4a18e	0.022049692
11	0xbe3b13da	-0.18269292
12	0xbd18dbb2	-0.037318893
13	0xbe233f9e	-0.15942237
14	0x3e3a3a02	0.1818619
15	0x3e56325f	0.20917653
16	0xbd93944f	-0.07206022
17	0x3f24623e	0.64212406
18	0x3e31133f	0.17292498
19	0xbd19b39f	-0.037524816
20	0x3e2f9178	0.17145336
21	0x3dcd4508	0.10022932
22	0x3d7dbdff	0.061948773
23	0xbea50899	-0.32233122
24	0xbd71d814	-0.05904396
25	0x3ca83f9d	0.020538146
26	0x3e70f170	0.23529601
27	0xbd29cb79	-0.041453812
28	0xbdfa4d01	-0.122217186
29	0xbc3e81da	-0.011627639
30	0x3f05401e	0.5205096
31	0x3e3b021e	0.18262526
32	0x3ecc27ac	0.39874017
33	0xbf588266	-0.8457397
34	0xbdcb3692	-0.09922518
35	0x3e313f4f	0.17309307
36	0xbe602fe4	-0.21893269
37	0x3dd51856	0.10405032
38	0x3e2c78fa	0.16843024
39	0xbea2a519	-0.31766585
40	0xbc896e95	-0.016776362
41	0xbe0196e0	-0.1265521
42	0xbe6420bf	-0.22278117
43	0x3df27dcf	0.11840402
44	0x3e351a1e	0.17685744
45	0xbd3cf9f3	-0.046136808
46	0x3e0a0dbd	0.13481803
47	0x3d1a7cfa	0.037716843
48	0x3e984679	0.29741266
49	0x3f1fd930	0.62440777
50	0x3ebfa29f	0.37428758
51	0x3ec99c4b	0.39377055
52	0xbd90b0ac	-0.070649475
53	0x3e63116e	0.22174618
54	0x3e82e26b	0.25563368
55	0xbf1bd64a	-0.60873854
56	0x3e93b434	0.28848422
57	0xbc403276	-0.011730781
58	0x3deb3108	0.11483961
59	0xbe02de64	-0.12780148
60	0x3c5fc2e7	0.013657308
61	0x3e9231fd	0.28553763
62	0xbe24f32d	-0.16108389
63	0x3e071313	0.1319087
64	0x3e1d9687	0.15389453
65	0xbe2e5f8d	-0.17028637
66	0x3e3c4df6	0.18389115
67	0x3e78ec07	0.24308787
68	0x3c584a0f	0.013201251
69	0x3d926d99	0.0714981
70	0xbd72388f	-0.05913597
71	0x3e1d0c39	0.15336694
72	0x3e337593	0.1752532
73	0x3f0c41f9	0.54788166
74	0xbeba4e01	-0.36387637
75	0x3e003b4b	0.12522618
76	0xbb9c6511	-0.0047727902
77	0x3d30a583	0.043126594
78	0xbe23e74b	-0.160062
79	0x3e07a0af	0.1324489
80	0x3c7134c3	0.014722052
81	0xbdb94ae1	-0.09047485
82	0xbde5f86a	-0.11229022
83	0xbe563e3f	-0.20922183
84	0xbe43eba6	-0.19132861
85	0xbe50a517	-0.20375477
86	0x3f134d5b	0.5753991
87	0x3f0cfdcb	0.5507476
88	0x3ecf0e70	0.40440702
89	0x3eaad0c7	0.3336241
90	0xbf2524e8	-0.6450944
91	0x3ecd9471	0.40152314
92	0x3efbe963	0.49201497
93	0xbed89aec	-0.42305696
94	0x3f1a58f6	0.60291994
95	0x3c16da91	0.009207384
96	0xbe0dc705	-0.13845451
97	0x3d4219d8	0.047387928
98	0xbd761ac7	-0.06008413
99	0xbed7b465	-0.42129818
100	0xbd8ef7f9	-0.06980891
101	0xbed30154	-0.4121195
102	0x3f2bc703	0.6710054
103	0xbd2c2fc0	-0.042037725
104	0xbf47ecab	-0.780955
105	0x3c7f026b	0.015564541
106	0xbf29ca35	-0.6632417
107	0xbe31fe13	-0.17382078
108	0x3cfc6d5a	0.030813862
109	0x3e162028	0.14660704
110	0x3db4b08d	0.08822737
111	0xbddb5d28	-0.107111275
112	0x3e785e5a	0.24254742
113	0x3d273562	0.040822394
114	0xbda9dd3c	-0.0829415
115	0xbe9d20a5	-0.30688968
116	0x3d8d6158	0.069033325
117	0x3e8d760b	0.27629122
118	0xbd1f39f7	-0.03887364
119	0x3da5f4e8	0.08103353
120	0x3e515d20	0.2044568
121	0xbe4ee4a0	-0.20204401
122	0xbd26af08	-0.040694267
123	0x3e0261f3	0.12732677
124	0x3e5c3b16	0.21506914
125	0xbececa77	-0.40388843
126	0xbe0122d3	-0.1261094
127	0x3e166868	0.14688265
128	0xbe33276e	-0.1749551
129	0x3e2c6f73	0.1683939
130	0x3dda909f	0.106721155
131	0x3f2f273b	0.68419236
132	0x3e1ba0e2	0.1519809
133	0xbd596a2d	-0.053079773
134	0xbe106783	-0.14101987
135	0xbd0c6069	-0.03427163
136	0xbe8e32fa	-0.27773267
137	0x3e4f82c4	0.20264727
138	0x3d8600a1	0.06543089
139	0x3df257e6	0.118331715
140	0x3e82f2c6	0.25575846
141	0x3cade599	0.021227645
142	0x3e208411	0.1567538
143	0x3d85b237	0.065281324
144	0xbe89cd1b	-0.26914296
145	0x3eedd774	0.4645344
146	0x3e32cdd0	0.17461324
147	0xbfa1b4c2	-1.2633288
148	0x3d564e77	0.052320924
149	0x3e94e3ef	0.2908015
150	0xbe597cd7	-0.21239029
151	0x3e9ab101	0.30213168
152	0xbd1da208	-0.038484603
153	0xbe2f1be2	-0.1710048
154	0xbe99b568	-0.30021214
155	0xbeac8c99	-0.33701017
156	0xbe8aa27a	-0.27077085
157	0xbdd10d61	-0.1020763
158	0x3d9aff39	0.07568211
159	0xbd8585c6	-0.06519656
160	0xbe342d3b	-0.17595379
161	0xbe80a94e	-0.2512917
162	0x3ed01a22	0.40644938
163	0xbf513097	-0.8171477
164	0x3ed372c8	0.4129851
165	0x3ec22b1b	0.37923512
166	0x3e747606	0.23873147
167	0x3ec73b3f	0.3891239
168	0x3e7203d6	0.23634276
169	0x3f482590	0.78182316
170	0x3ee000d1	0.43750623
171	0x3cce4a47	0.025181903
172	0xbe0218bb	-0.12704746
173	0xbbf3e624	-0.0074432064
174	0xbe23a483	-0.15980725
175	0xbd4ef262	-0.050524123
176	0x3e688b27	0.22709332
177	0x3eb4950c	0.35269964
178	0xbe4abf46	-0.19799528
179	0x3c08e66a	0.008355716
180	0xbde98f43	-0.11404278
181	0x3df24730	0.11829984
182	0x3e9c086d	0.30475178
183	0x3e57ec98	0.21086347
184	0x3e84381c	0.25824058
185	0xbfc2fe54	-1.5233865
186	0x3e3f9fe8	0.18713343
187	0x3dfd6499	0.12372703
188	0x3eadb31a	0.33925706
189	0xbd3a4c22	-0.045482762
190	0x3da3dde9	0.080013104
191	0xbee66a80	-0.45003128
192	0xbe9c62c8	-0.30544114
193	0xbf0729f3	-0.52798384
194	0xbf040f2c	-0.5158565
195	0xbe0c190f	-0.13681434
196	0xbf10a7fe	-0.56506336
197	0xbef2c1b1	-0.474134
198	0xbe48d4b6	-0.19612393
199	0xbea5dfd0	-0.32397318
200	0xbdf9c6c8	-0.12196118
201	0x3ef1d647	0.47233793
202	0x3e8c7754	0.2743479
203	0x3c6f5975	0.014608731
204	0x3f032ffc	0.51245093
205	0x3e8823bc	0.26589763
206	0x3e746648	0.23867142
207	0x3eb4f84d	0.35345688
208	0xbd6ebc1b	-0.05828486
209	0xbbd874a2	-0.0066057006
210	0xbe152d10	-0.14567971
211	0x3e2af841	0.16696264
212	0x3cf3c1b4	0.02975545
213	0xbe20af2c	-0.15691823
214	0xbcb5637a	-0.02214216
215	0xbee6e265	-0.450946
216	0x3c92b574	0.01790879
217	0xbd53c36c	-0.05170004
218	0x3f7085f0	0.9395437
219	0xbe821cdc	-0.25412643
220	0xbe19a637	-0.15004812
221	0x3d51aa8e	0.051188044
222	0x3d6f8a22	0.058481343
223	0x3e9246b0	0.28569555
224	0xbe4155e3	-0.1888042
225	0x3d80393f	0.06260919
226	0x3f0714d2	0.52766144
227	0xbf1b8483	-0.6074907
228	0xbb893cd3	-0.004188159
229	0x3e314ded	0.17314883
230	0x3da97abb	0.08275362
231	0x3d32c7ba	0.043647505
232	0xbdb8ee92	-0.09029879
233	0x3de4898b	0.11159047
234	0xbdf0908e	-0.117463216
235	0x3e1f438e	0.15553114
236	0xbdda4026	-0.106567666
237	0x3e87bcf4	0.26511347
238	0x3e16dd84	0.14732939
239	0xbf138592	-0.5762569
240	0xbdb314f1	-0.08744229
241	0xbd2d1493	-0.04225595
242	0x3ea4604c	0.3210472
243	0x3e55813c	0.2085008
244	0x3e7cb7c0	0.2467947
245	0xbc4f1351	-0.012638883
246	0xbe7c3cf0	-0.24632621
247	0x3d8af7e5	0.067855634
248	0xbd4fd514	-0.050740317
249	0x3db802b9	0.08984894
250	0x3cb96305	0.022630224
251	0x3e07ce69	0.13262333
252	0xbd597327	-0.053088333
253	0xbde800fd	-0.113283135
254	0x3cc803e1	0.024415912
255	0xbd1575f0	-0.036489427

fc1.bias f4 [128]
0	0xbe457cf5	-0.19285949
1	0x3ed73612	0.4203344
2	0x3f0daea2	0.55344594
3	0xbb9add53	-0.004726091
4	0x3ee6b3f1	0.4505916
5	0x3e2d4ba5	0.16923387
6	0x3d6281e5	0.05529966
7	0xbce70cfc	-0.028204434
8	0x3ec9bc98	0.39401698
9	0x3db998ea	0.09062369
10	0x3e11db82	0.14243892
11	0x3c728bbc	0.014803823
12	0xbbcbcd74	-0.0062195603
13	0xbd330bba	-0.043712355
14	0x3e8d0aee	0.275474
15	0xbbb9e4c3	-0.0056730225
16	0xbe4e4050	-0.20141721
17	0xbe41a960	-0.18912268
18	0xbe529ab5	-0.20566829
19	0xbd2ba754	-0.041907623
20	0x3f1ddda9	0.6166635
21	0x3d916e1f	0.07101082
22	0x3ec77dd1	0.38963178
23	0x3d7371ad	0.05943458
24	0x3ea6e55a	0.32596856
25	0x3deca18f	0.11554252
26	0x3f03c998	0.5147948
27	0xbe24130c	-0.16022891
28	0x3e01e932	0.12686613
29	0xbe3f6157	-0.18689476
30	0x3e599f1a	0.21252099
31	0x3c926ed2	0.017875109
32	0x3dd2f572	0.10300721
33	0x3f125f89	0.57177025
34	0xbe31caf8	-0.17362583
35	0x3f0d2731	0.55137926
36	0xbd8dc64d	-0.069225885
37	0x3eb66bb9	0.3562906
38	0x3eb472df	0.3524389
39	0x3eaa7c66	0.33298033
40	0x3ee0139b	0.43764958
41	0x3d146e13	0.036237787
42	0x3de6e74c	0.11274585
43	0x3d93ba8a	0.07213314
44	0x3edb6648	0.42851472
45	0x3dc284e4	0.09498003
46	0x3f48421e	0.78225887
47	0xbd3ad3dd	-0.045612205
48	0x3e5c47e1	0.21511795
49	0x3e90d31b	0.2828606
50	0xbe865f20	-0.2624445
51	0x3e25575f	0.1614661
52	0x3e191ba5	0.14951952
53	0x3ea67f22	0.3251887
54	0xbe925c8f	-0.28586242
55	0x3ec5ff51	0.38671353
56	0x3f25163b	0.64487046
57	0x3efc06d8	0.4922397
58	0xbe2c4e12	-0.16826656
59	0x3e706a5b	0.23478071
60	0xbd472136	-0.048615657
61	0x3eeaa993	0.458325
62	0x3e063bc3	0.13108735
63	0x3d536684	0.05161144
64	0x3efae683	0.4900399
65	0x3f0f087a	0.5587231
66	0xbe61659d	-0.22011419
67	0x3f06e5f9	0.5269466
68	0x3e7cb0cb	0.24676816
69	0xbe87e766	-0.2654373
70	0xbe92e65a	-0.2869137
71	0x3dfc7361	0.12326694
72	0x3f6c0aaf	0.922038
73	0x3e7134e9	0.2355534
74	0xbd8d3fbe	-0.068969235
75	0x3cb9a498	0.022661492
76	0x3e0dfa9d	0.13865133
77	0xbe760782	-0.24026302
78	0x3eb8bf61	0.3608351
79	0x3eb55d70	0.3542285
80	0x3e8d6dd4	0.27622855
81	0xbea5cdf7	-0.323837
82	0xbe25589e	-0.16147086
83	0x3d71b940	0.05901456
84	0xbcccd5b1	-0.02500424
85	0xbd9f48bb	-0.07777544
86	0x3e308c7b	0.17241089
87	0x3e6290ff	0.22125624
88	0xbea8efe4	-0.32995522
89	0x3e7e502f	0.24835275
90	0xbd9b32fd	-0.075780846
91	0x3e3be528	0.18349135
92	0x3f030f73	0.5119545
93	0xbe7d5a82	-0.24741557
94	0x3f095c71	0.5365668
95	0x3e7f2d2d	0.24919577
96	0xbe151ca1	-0.14561702
97	0x3f4d47d0	0.801877
98	0x3f27af07	0.65501446
99	0x3d293413	0.041309427
100	0xbcef8df0	-0.029242486
101	0x3dfbf106	0.12301831
102	0xbe884d8c	-0.26621664
103	0xbde1fb2d	-0.11034236
104	0xbe6d0dbd	-0.23149772
105	0x3ebe0eab	0.37120566
106	0x3e50aa88	0.20377553
107	0x3de5bb85	0.11217407
108	0xbc8e62f6	-0.017381173
109	0xbe127220	-0.14301348
110	0x3eafd24f	0.3434014
111	0x3c8ff8f2	0.017574761
112	0x3ca88cde	0.020574983
113	0x3e7f945f	0.24958943
114	0x3e3d3db9	0.18480577
115	0xbe133ded	-0.14379092
116	0x3e4a1b62	0.19737008
117	0xbe148e41	-0.1450739
118	0x3ec8e70f	0.39238784
119	0x3e3ee4dc	0.1864199
120	0xbd10ab7a	-0.035319783
121	0x3e881367	0.26577303
122	0xbce464fd	-0.027880186
123	0xbe9a4188	-0.3012812
124	0xbed104ae	-0.40823883
125	0x3dcf3039	0.101166196
126	0x3c894d3b	0.01676046
127	0xbd7929d5	-0.06083091

fc2.weight f4 [128, 128]
0	0x3e3cff5c	0.18456787
1	0x3e3a9046	0.18219098
2	0x3c43ec3d	0.011958179
3	0xbda5516b	-0.0807217
4	0xbcacc020	-0.021087706
5	0x3f09db20	0.53849983
6	0xbe2416be	-0.160243
7	0x3d56796d	0.052361894
8	0xbd3491af	-0.044084247
9	0xbdd6750d	-0.104715444
10	0xbdd3d401	-0.10343171
11	0xbd9b7f7f	-0.07592677
12	0x3d839805	0.0642548
13	0xbe473f55	-0.19457753
14	0x3bab34f2	0.0052248174
15	0x3d852086	0.06500344
16	0x3c77d77d	0.01512706
17	0x3caac4bc	0.020845763
18	0x3df0344b	0.11728724
19	0xbdb6566f	-0.08903205
20	0xbdf58e59	-0.11990041
21	0x3dd1959d	0.102336146
22	0xbdc95aab	-0.09831747
23	0x3e91448d	0.28372613
24	0x3b900a1c	0.0043957364
25	0xbe231437	-0.1592568
26	0xbdf35e5f	-0.11883234
27	0xb956dac5	-0.00020490128
28	0xbc9e0cd8	-0.019293234
29	0x3e6bfb2d	0.23045035
30	0x3d6bd067	0.057571795
31	0x3e1e177d	0.15438648
32	0x3e229744	0.15878016
33	0xbe0ce8a9	-0.13760628
34	0xbe535f16	-0.20641741
35	0xbce01862	-0.027355377
36	0xbda2c898	-0.079484165
37	0x3e588eff	0.21148299
38	0x3e20cdc5	0.15703495
39	0xbe6c5bbd	-0.2308187
40	0xbd7eac3c	-0.062175974
41	0x3dcfe9cc	0.10152015
42	0xbdb00c20	-0.08596063
43	0x3ebf3f36	0.37352914
44	0xbef25585	-0.4733087
45	0x3b4ba1e6	0.003107184
46	0x3a96b9fc	0.001149952
47	0xbd694a3a	-0.056955554
48	0xbda58325	-0.080816545
49	0xbf265628	-0.64975214
50	0x3e17c66b	0.14821784
51	0xbb967063	-0.0045910343
52	0xbe070c4c	-0.13188285
53	0xbee4a3a5	-0.446561
54	0xbd7f0bc0	-0.062267065
55	0x3d6275d5	0.055288155
56	0x3c2c0545	0.010499303
57	0x3e1e8f5b	0.15484373
58	0x3e555129	0.20831741
59	0x3db1b35c	0.08676788
60	0x3d74ac69	0.059734736
61	0x3e56a9c6	0.20963201
62	0xbb003b28	-0.001956651
63	0x3d7c20af	0.061554607
64	0x3dd5960d	0.104290105
65	0xbd603264	-0.054735556
66	0xbca1ff01	-0.019774916
67	0xbd21e21a	-0.039522268
68	0x3c90ec8d	0.017690921
69	0xbe1effd3	-0.15527277
70	0x3dd59f71	0.10430802
71	0x3db4e46b	0.0883263
72	0x3c2ed191	0.010670082
73	0x3f064445	0.5244792
74	0x3d327106	0.04356482
75	0x3e45f212	0.19330624
76	0x3bdad827	0.0066785994
77	0x3d69300c	0.056930587
78	0x3d8de11d	0.069277026
79	0xbd0b0046	-0.033935808
80	0xbdb9518b	-0.09048756
81	0x3d7418e4	0.05959405
82	0xbdfdbbea	-0.123893574
83	0xbd73020b	-0.05932812
84	0x3e2ef217	0.17084537
85	0x3c875bb0	0.016523212
86	0xbe171d8c	-0.14757365
87	0x3deb57cd	0.11491356
88	0xbe17cb06	-0.14823541
89	0x3dc30b85	0.095236816
90	0xbd111385	-0.035419006
91	0x3dd16188	0.10223681
92	0x3e620ada	0.22074452
93	0xbd55d010	-0.052200377
94	0x3d26fc80	0.040768147
95	0x3d8cb91e	0.06871246
96	0x3de378d7	0.11107033
97	0xbe2562af	-0.16150926
98	0xbcef4ca3	-0.029211348
99	0x3b35fe75	0.0027770076
100	0x3d99f270	0.075169444
101	0x3cf4ad9c	0.02986794
102	0x3d08be1d	0.03338443
103	0x3d746e7c	0.05967568
104	0xbe1a8235	-0.15088733
105	0xbe7ccdb3	-0.24687843
106	0xbe1c7b10	-0.1528132
107	0xbc83d3e1	-0.016092243
108	0xbe1f3dfc	-0.15550989
109	0x3e8b4116	0.27198094
110	0x3dd81bca	0.10552175
111	0xbe9c964f	-0.30583426
112	0x3d9afca1	0.075677164
113	0x3e12f6aa	0.14351907
114	0xbc699616	-0.014256975
115	0x3d92635c	0.071478575
116	0xbdaad2d9	-0.08340997
117	0xbd6c56b5	-0.057699878
118	0x3d96717b	0.073458634
119	0xbd4c9946	-0.04995086
120	0xbe43e797	-0.19131313
121	0xbe0326e7	-0.12807809
122	0x3e3716e5	0.17879827
123	0xbd8745e2	-0.06605126
124	0x3da8a252	0.08234085
125	0xbdbf2ca5	-0.09334687
126	0xbb2df471	-0.0026543404
127	0xbdd5da8b	-0.104420744
128	0xbc9a14c7	-0.018808736
129	0x3f1b7432	0.60724175
130	0x3e181066	0.14850006
131	0xbe9f4772	-0.31109196
132	0x3ec0d70a	0.37664062
133	0x3dd88196	0.105715916
134	0x3e20ac9a	0.15690842
135	0x3f1ce01c	0.61279464
136	0x3c636972	0.013880121
137	0x3f5e3bd9	0.8681007
138	0xbe7dd081	-0.24786569
139	0xbe6e31ea	-0.23261228
140	0xbe9506ec	-0.29106843
141	0xbf33a6fa	-0.7017666
142	0x3e3f8057	0.18701302
143	0xbe861fe2	-0.261962
144	0xbf126ed3	-0.57200354
145	0x3b0bde1e	0.002134211
146	0xbe2018e4	-0.15634495
147	0xbdd4954b	-0.10380038
148	0x3e2962ef	0.16541646
149	0x3e8284b4	0.2549187
150	0x3d646ad8	0.055765957
151	0xbf239545	-0.6389964
152	0xbefd0235	-0.49415746
153	0xbed514cf	-0.41617438
154	0x3e95bc2c	0.29245126
155	0x3e18b36b	0.14912193
156	0xbc1dca37	-0.009630731
157	0xbeae0e6f	-0.33995387
158	0x3f6d9319	0.9280258
159	0x3da23133	0.0791954
160	0x3e458a5b	0.1929106
161	0x3c56f88d	0.013120783
162	0x3e51f5d1	0.20503928
163	0xbdabd494	-0.083901554
164	0x3ea8eff2	0.32995564
165	0x3e6f293f	0.23355578
166	0x3e1dacf4	0.15398008
167	0x3e36d890	0.1785605
168	0x3d06c51d	0.032902826
169	0x3ee0cfeb	0.4390863
170	0xbec2c5ed	-0.3804163
171	0xbee0fd9b	-0.43943486
172	0x3fa49e8e	1.2860887
173	0x3f402e0d	0.7507027
174	0x3df28d66	0.11843376
175	0x3eb1fe90	0.34764528
176	0xbe8fe6c9	-0.28105763
177	0x3fb0f724	1.3825421
178	0x3ed22848	0.41046357
179	0x3d7b6b3f	0.061381575
180	0xbe35c834	-0.17752153
181	0x3ec91633	0.3927475
182	0x3d5ab16b	0.053391855
183	0x3e534280	0.20630836
184	0x3ca318a6	0.019909214
185	0xbe19b0cc	-0.15008849
186	0xbec9d978	-0.39423728
187	0x3d085e23	0.0332929
188	0xbcc3e583	-0.02391315
189	0xbeca0793	-0.39458904
190	0x3ed18655	0.409228
191	0x3e0dae0a	0.13835922
192	0xbbbb3ca4	-0.005714016
193	0x3e0ec428	0.13942015
194	0x3d221d6c	0.03957884
195	0x3e6e8ba3	0.23295455
196	0xbda863ae	-0.082221374
197	0xbf72f434	-0.94903874
198	0xbf334d73	-0.70040053
199	0xbf0ebe25	-0.5575889
200	0xbc70909a	-0.014682913
201	0xbef1d3ce	-0.47231907
202	0xbed669fd	-0.41877738
203	0xbf3e786b	-0.74402493
204	0x3ebf52b3	0.37367782
205	0xbef672a2	-0.48134333
206	0xbe6ee6b4	-0.23330194
207	0xbd902d62	-0.07039906
208	0x3c0cdeb7	0.008598021
209	0xbf3c907e	-0.7365798
210	0x3dd2d09c	0.10293695
211	0xbe476bf6	-0.19474778
212	0x3ec8a825	0.39190784
213	0x3dd1b0e2	0.10238816
214	0x3f09cfc7	0.5383267
215	0x3d53c9b3	0.051706027
216	0xbe5173ea	-0.20454374
217	0xbed3266b	-0.41240248
218	0x3ceaea1b	0.028676083
219	0x3e7413e9	0.2383572
220	0xbe91ae4f	-0.284533
221	0xbd5ef2df	-0.05443084
222	0xbd02b6d4	-0.03191264
223	0x3f052eb5	0.52024394
224	0xbf2087ce	-0.6270722
225	0x3e9c9742	0.3058415
226	0x3d64b32f	0.055834945
227	0x3e7f053d	0.24904342
228	0xbeb55ea7	-0.35423777
229	0x3ebf12ff	0.3731918
230	0xbe56b18b	-0.20966165
231	0xbea0b53a	-0.31388265
232	0xbed52f29	-0.41637543
233	0x3d9630ba	0.073335126
234	0x3de2f220	0.11081338
235	0x3e9f3e5a	0.31102258
236	0xbe9e5f90	-0.30932283
237	0xbd79ff50	-0.0610345
238	0x3dec114b	0.11526736
239	0xbedf7a00	-0.43647766
240	0xbe8c271b	-0.27373585
241	0x3f6ce381	0.92534643
242	0x3f4a0a2d	0.78921777
243	0xbf1abef1	-0.60447603
244	0x3ef4f149	0.47840336
245	0xbd940790	-0.07228005
246	0xbe11dd4e	-0.14244577
247	0xbddd974b	-0.108198725
248	0xbf3059bf	-0.6888694
249	0x3d9039ff	0.07042312
250	0x3de89ca2	0.11358
251	0xbf254c6c	-0.64569736
252	0xbee265f4	-0.4421841
253	0x3efb55b1	0.49088815
254	0xbf08281b	-0.53186196
255	0xbe5192c5	-0.20466144

fc2.bias f4 [128]
0	0xbd7096ee	-0.058737688
1	0x3daa2c8e	0.083092794
2	0x3bd96889	0.006634776
3	0xbdc66bbf	-0.0968852
4	0x3e395e76	0.1810244
5	0x3eebd439	0.4606035
6	0xbc8d9955	-0.017285028
7	0xbdb31944	-0.087450534
8	0xbdb29204	-0.087192565
9	0x3dc402f7	0.09570878
10	0xbd180422	-0.037113316
11	0x3ca28650	0.019839436
12	0xbda5c513	-0.080942295
13	0x3b805d49	0.0039173705
14	0x3e6437ae	0.22286865
15	0xbcbacfe4	-0.022804208
16	0xb9600ed4	-0.00021367829
17	0x3d8353e3	0.064124845
18	0x3ee01549	0.4376624
19	0x3d42233b	0.04739688
20	0xbd0a91e2	-0.03383053
21	0x3d6db379	0.058032487
22	0x3cff2e87	0.031150116
23	0xbc2cd975	-0.010549893
24	0xbd28b4bd	-0.04118799
25	0x3ea1154f	0.3146157
26	0xbd4847ef	-0.048896726
27	0x3d1a5d6c	0.03768675
28	0x3dc25c05	0.094902076
29	0xbde3d40e	-0.111244306
30	0x3eda8d4e	0.42685932
31	0x3c941592	0.018076692
32	0xbd8edebd	-0.06976078
33	0x3ee61ebe	0.4494533
34	0xbdf854f3	-0.12125578
35	0xbc758d0b	-0.014987241
36	0xbcc8473f	-0.024448035
37	0xbd035b8d	-0.03206973
38	0xbd848dfc	-0.06472394
39	0xbd12ce38	-0.035841197
40	0xbd06b2b2	-0.03288526
41	0x3bde9624	0.0067928005
42	0xbc8f35c5	-0.017481694
43	0x3e60bfa7	0.2194811
44	0x3ecaeba9	0.3963292
45	0x3e111c68	0.14170992
46	0x3be6dd59	0.0070454297
47	0xbe041dfb	-0.12902062
48	0x3c9b3257	0.018944902
49	0xbda11e0a	-0.078670576
50	0x3cd4fd78	0.02599977
51	0x3da4192e	0.08012615
52	0xbdb3a549	-0.0877176
53	0x3e818bdf	0.25302026
54	0x3d7ec05d	0.06219517
55	0xbd40fc1e	-0.047115438
56	0x3e280a99	0.16410293
57	0x3e631951	0.22177626
58	0xbd608805	-0.05481722
59	0x3d11b430	0.03557223
60	0x3e96f57c	0.29484165
61	0xbda29051	-0.079376824
62	0xbd2bfb1e	-0.04198753
63	0xbdd74392	-0.10510935
64	0x3de04334	0.10950318
65	0x3d76fd67	0.060300257
66	0x3eadcd1d	0.33945552
67	0x3ce5c833	0.028049564
68	0x3d1af96d	0.037835527
69	0xbc67e3c3	-0.014153424
70	0x3d88ee37	0.06686061
71	0x3c72617b	0.014793749
72	0x3eaac999	0.33356932
73	0xbda6abfc	-0.08138272
74	0x3e0e20ee	0.13879749
75	0xbcc56bfc	-0.024099343
76	0xbda6f374	-0.08151904
77	0xbc958fea	-0.0182571
78	0x3e3384b7	0.17531095
79	0xbc723046	-0.014782017
80	0xbd8bb0ee	-0.06820856
81	0x3db0fc81	0.08641911
82	0xbd38e2cf	-0.045138177
83	0x3c174beb	0.009234409
84	0x3e77c0c6	0.24194631
85	0xbd937822	-0.07200648
86	0x3d4a5713	0.049399447
87	0x3d216a7c	0.039408192
88	0xbdb323ad	-0.08747039
89	0x3d00d293	0.03145082
90	0xbddbc636	-0.10731165
91	0xbcb1c7d5	-0.021701733
92	0xbd5874a9	-0.05284563
93	0x3d243ae3	0.04009522
94	0x3e9b7cc3	0.30368623
95	0x3e53a90c	0.20669955
96	0xbdf34980	-0.118792534
97	0x3da425cf	0.08015024
98	0x3d9f9153	0.0779139
99	0x3e1b0801	0.15139772
100	0xbd4107ef	-0.047126707
101	0xbd08b1a1	-0.033372525
102	0xbd7bbd02	-0.06145955
103	0xbc236f4e	-0.009975268
104	0xbda85ccc	-0.082208246
105	0xbd2f7b7e	-0.04284238
106	0xbdae1c5f	-0.08501505
107	0x3c380407	0.011231429
108	0xbca903c9	-0.020631688
109	0xbc9ae1d1	-0.018906506
110	0x3da47dbe	0.08031796
111	0x3daae771	0.08344925
112	0x3e2ef68b	0.17086236
113	0x3c3aa6fc	0.011392351
114	0x3ea83f9b	0.32861027
115	0xbdc7d5fd	-0.09757612
116	0x3d6a92b1	0.057268802
117	0x3d9c16ec	0.076215595
118	0x3dbfebb2	0.09371127
119	0x3d2a43ea	0.041568674
120	0xbd245820	-0.040123105
121	0x3dd6ebf4	0.10494223
122	0x3d6b8483	0.05749942
123	0xbd6e59e1	-0.058191184
124	0x3cd466f3	0.025927996
125	0x3d574ce6	0.05256357
126	0xbd8e9c4d	-0.06963406
127	0xbd1f1239	-0.038835738

fc3.weight f4 [9, 128]
0	0xbda318aa	-0.07963689
1	0x3eb31439	0.34976366
2	0x3d23b94f	0.039971646
3	0x3dafc4cd	0.08582459
4	0x3e959927	0.29218408
5	0x3e3de13b	0.1854295
6	0xbd5f2e69	-0.05448762
7	0x3d858d57	0.06521099
8	0x3d22a7dd	0.03971087
9	0xbcfb0454	-0.030641712
10	0x3d681d5b	0.05666862
11	0xbdd83a11	-0.1055795
12	0xbc4ffa0e	-0.012693895
13	0x3e969d62	0.2941695
14	0x3e727c42	0.23680213
15	0xbcca81a4	-0.02472002
16	0xbd15e210	-0.036592543
17	0x3d4b8e9a	0.049696542
18	0x3e739d34	0.23790437
19	0xbdc8657a	-0.0978498
20	0x3e0768e3	0.13223605
21	0x3db12fa2	0.08651663
22	0x3dc9fa5b	0.09862205
23	0x3e044471	0.12916733
24	0x3da1798d	0.07884512
25	0x3e23695c	0.1595816
26	0x3da1ef65	0.07906989
27	0x3ccd9c34	0.025098898
28	0xbd284906	-0.041085266
29	0xbd5d7ec5	-0.054075975
30	0x3e3a71e3	0.18207507
31	0x3d2cd406	0.04219439
32	0xbcf5b25b	-0.029992273
33	0x3e6d334a	0.23164096
34	0xbdda7cba	-0.10668321
35	0x3d496ea0	0.049177766
36	0x3cd52ae5	0.02602143
37	0xbd0aaa43	-0.03385378
38	0x3de79b56	0.11308925
39	0xbc7fdb2e	-0.015616221
40	0xbe15a90d	-0.14615269
41	0x3e7650ba	0.24054232
42	0xbd818b2b	-0.06325372
43	0x3e611f89	0.21984686
44	0x3e5a63a3	0.21327071
45	0x3e38791c	0.1801495
46	0xbd1e0f68	-0.03858891
47	0xbddb55a6	-0.107096955
48	0x3d419775	0.04726358
49	0xbd7dd279	-0.0619683
50	0xbf59fe9f	-0.85154146
51	0x3d97e299	0.07416267
52	0x3d9cb9fb	0.076526605
53	0x3e5806ec	0.2109639
54	0x3d94e82f	0.07270848
55	0x3ac37b56	0.0014914076
56	0xbdb0acd2	-0.08626713
57	0x3e9845eb	0.29740843
58	0x3bb22da0	0.005437568
59	0x3d9584b8	0.07300705
60	0x3ed576fb	0.41692337
61	0x38dc3e27	0.00010501994
62	0x3d164c68	0.03669396
63	0x3dc0a531	0.09406508
64	0x3e0713f0	0.131912
65	0x3db730ea	0.089448765
66	0x3e9b65b4	0.3035103
67	0x3e8a473f	0.2700748
68	0xbda47bf7	-0.08031457
69	0x3d6878ba	0.05675576
70	0x3d99512f	0.07486188
71	0xbd9c5439	-0.07633252
72	0x3e7bc149	0.24585451
73	0xbd24d4c7	-0.040241983
74	0x3e470f1a	0.19439355
75	0x3c33e1ca	0.010979125
76	0x3c8e222b	0.017350277
77	0xbd5641ab	-0.05230872
78	0x3e264d10	0.16240335
79	0xbda9bb49	-0.08287675
80	0xbe0c8633	-0.13723068
81	0x3e2a2cfb	0.16618721
82	0xbb50c893	-0.0031857833
83	0x3d084ff2	0.033279367
84	0x3ea29a6e	0.31758446
85	0x3d8d2d1f	0.06893372
86	0xbd9462ac	-0.07245383
87	0x3e869e0d	0.26292458
88	0x3ce5121f	0.027962742
89	0xbdc4fbc5	-0.09618334
90	0xbd7955c1	-0.060872797
91	0x3af33c79	0.0018557451
92	0x3d9eb2c1	0.07748938
93	0x3d20825c	0.03918682
94	0x3ee2910a	0.4425128
95	0x3e231f0b	0.1592981
96	0xbe0d84e8	-0.13820231
97	0x3dcec823	0.10096767
98	0x3cae2830	0.021259397
99	0x3e4dd8b7	0.20102201
100	0x3d09f052	0.033676453
101	0xbdfe4453	-0.124153756
102	0xbd3804df	-0.04492652
103	0xbe97d9a9	-0.2965825
104	0xbcf1a890	-0.029499322
105	0xbce72ff0	-0.0282211
106	0xbd92c345	-0.07166151
107	0x3d755742	0.05989767
108	0x3b85e8ab	0.004086574
109	0x3cbb2ac0	0.022847533
110	0x3ddb30ea	0.10702689
111	0xbddc8fa9	-0.107695885
112	0x3e964363	0.29348287
113	0x3d9cb71c	0.07652113
114	0x3e541f90	0.20715165
115	0xbd600098	-0.054688066
116	0x3db0aa5c	0.086262435
117	0x3e61a5fd	0.22035976
118	0x3e05df59	0.13073482
119	0xbc541cef	-0.012946351
120	0xbd5b3e0c	-0.05352597
121	0x3e3b6d3c	0.18303388
122	0xbe22e221	-0.15906574
123	0xbc456243	-0.012047353
124	0x3e00b90f	0.12570594
125	0xbd496d39	-0.04917643
126	0xbd53b026	-0.05168166
127	0xbd9750ab	-0.07388433
128	0x3df99734	0.12187043
129	0x3ea6b9c9	0.32563618
130	0xbe9e152d	-0.3087553
131	0xbd4f8cfa	-0.050671555
132	0xbf232578	-0.6372905
133	0x3e235a63	0.15952449
134	0x3c24565f	0.010030358
135	0x3d97928b	0.07400998
136	0xbe961db5	-0.2931954
137	0x3e46479f	0.19363259
138	0xbcd02cc0	-0.025411963
139	0x3cc93759	0.024562525
140	0x3cd0937f	0.025460957
141	0x3e72dd3a	0.23717204
142	0x3eaf42bf	0.3423061
143	0xbe4ac43b	-0.19801418
144	0x3f0eb0d7	0.55738586
145	0xbd4d366d	-0.050100733
146	0x3de4e043	0.11175587
147	0xbe5dbab4	-0.21653253
148	0x3e84c7a1	0.25933555
149	0xbe5bae7a	-0.21453276
150	0xbb996643	-0.00468138
151	0x3e9c524c	0.30531538
152	0x3d5388d0	0.051644146
153	0x3df4ff18	0.11962718
154	0xbbfbc6da	-0.007683617
155	0xbce548c7	-0.027988805
156	0xbcf05916	-0.029339354
157	0xbdab5945	-0.08366636
158	0x3e5ed154	0.2175954
159	0xbcc810ca	-0.024422068
160	0xbda13dee	-0.0787314
161	0x3e53cff0	0.2068479
162	0xbd35d707	-0.04439452
163	0x3d676433	0.05649204
164	0xbe0d0da9	-0.13774742
165	0xbd3e757d	-0.046498764
166	0xbbeb2d95	-0.0071770647
167	0x3ce8c3f7	0.028413756
168	0xbe919fd9	-0.28442267
169	0xbeafcfd4	-0.34338248
170	0x3f5f4045	0.8720744
171	0x3d7ac596	0.06122359
172	0x3e6f236e	0.23353359
173	0x3eb22ae8	0.3479836
174	0x3c9522e1	0.018205108
175	0xbeaae4e9	-0.3337777
176	0xbe488ff3	-0.19586162
177	0x3be0a8b3	0.006856048
178	0xbd502820	-0.050819516
179	0x3e3d89b7	0.18509565
180	0xbc0c0564	-0.008546207
181	0x3e76a0e3	0.24084811
182	0x3c2c6c1d	0.010523823
183	0x3c6ab999	0.0143264765
184	0x3dcca484	0.09992316
185	0xbe165a29	-0.14682831
186	0xbc900eb9	-0.017585145
187	0xbcfb1503	-0.030649668
188	0x3e98e843	0.29864702
189	0x3c8c4c6b	0.017126283
190	0xbd457472	-0.048206754
191	0xbdc136f0	-0.094343066
192	0x3e5d381b	0.21603434
193	0x3d6cee47	0.057844426
194	0x3e4ee424	0.20204216
195	0x3ea66474	0.32498515
196	0xbe121781	-0.14266779
197	0xbdc8c664	-0.09803465
198	0x3cd89729	0.026439266
199	0x3d20edd2	0.039289303
200	0x3d9d4b44	0.076803714
201	0xbdc691eb	-0.096958004
202	0x3edf6e17	0.4363868
203	0xbcbd4c9d	-0.023107821
204	0xbaed2cec	-0.0018095053
205	0x3dcf0128	0.101076424
206	0x3e836cc1	0.2566891
207	0xbe46865c	-0.19387192
208	0xbe65f2d8	-0.22455919
209	0x3efa05a4	0.48832428
210	0x3d69ebfd	0.05710982
211	0xbe16b031	-0.14715649
212	0xbf5b0843	-0.8555948
213	0x3d30fe33	0.043211173
214	0xbd0481d1	-0.032350365
215	0xbe98266b	-0.2971681
216	0x3cc9b742	0.024623517
217	0xbe966be4	-0.2937919
218	0x3d38098e	0.044930987
219	0xbc95b869	-0.01827641
220	0xbe226d2a	-0.15861955
221	0xbc8c67e9	-0.017139392
222	0xbff44f5a	-1.9086716
223	0x3ec77991	0.38959935
224	0xbda18476	-0.07886593
225	0x3d98e244	0.07465032
226	0xbc91d885	-0.01780344
227	0x3de8299a	0.1133606
228	0x3b93afe6	0.0045070527
229	0xbcd83443	-0.026392108
230	0x3da44cc0	0.080224514
231	0x3e07ad40	0.13249683
232	0x3dbee13b	0.09320303
233	0xbd67a644	-0.056555048
234	0x3d08396c	0.033257887
235	0xbcffe181	-0.031235458
236	0x3cd3ab0d	0.0258384
237	0xbdc40e7a	-0.09573074
238	0x3ed6abde	0.41928
239	0xbdd9ba28	-0.106312096
240	0x3e0d6078	0.13806331
241	0xbe064ba7	-0.13114797
242	0x3e0b657f	0.13612936
243	0x3cee379f	0.029079257
244	0xbf719896	-0.9437345
245	0x3dd2958e	0.102824315
246	0xbf280b56	-0.656423
247	0xbe9a8a4f	-0.30183646
248	0xbcdef6b9	-0.027217256
249	0x3ca0e013	0.019638097
250	0x3e17e0d8	0.14831865
251	0xbf1065a1	-0.56405073
252	0xbcf0484c	-0.029331349
253	0xbe47652d	-0.19472189
254	0xbd7954c9	-0.060871873
255	0xbcb8a14b	-0.022537848

fc3.bias f4 [9]
0	0x3d01d5c2	0.031697996
1	0x3cfc0cfd	0.030767912
2	0xbd421a65	-0.047388453
3	0xbceb80aa	-0.028747875
4	0x3db782cf	0.08960497
5	0xbcdbcf78	-0.026832327
6	0xbcfe50ef	-0.031044452
7	0x3d974b30	0.07387388
8	0x3dbeafd6	0.09310882
