Graphs/MarttiWeights-3x3x2-b128-lr0.001000.pt (torch, 82775 bytes, 6 tensors)

fc1.weight f4 [128, 19]
000000 21 1f 0d be 75 91 83 be 22 ac 4f be d0 f5 3b 3e
       -0.13781406 -0.25696912 -0.20280507 0.18355489
000010 61 a6 c2 3c 6c 32 b8 be d8 66 46 3e d0 bf 3e 3e
       0.023760976 -0.3597597 0.1937517 0.18627858
000020 e5 dc c1 bd 72 04 d2 3e 09 0f 46 3e ed 9f db 3e
       -0.094659604 0.41019017 0.19341673 0.4289545
000030 35 37 71 3e 50 bf d9 3e 34 1d 4a 3f 81 c2 2e 3e
       0.23556216 0.42528772 0.7895081 0.17066385
000040 fe 41 a4 3d 0e 38 bd 3d 05 67 2b be 69 42 d0 bb
       0.080203995 0.09239207 -0.16738518 -0.006355573
000050 8a 2b 6c 3e a3 fd e6 bc f9 81 45 be 5a 78 ad 3e
       0.23063484 -0.028197115 -0.19287862 0.33880883
000060 c3 bc df 3d e0 f9 d1 bd 62 d3 e1 bd 1b 90 1d 3e
       0.10924675 -0.10252738 -0.11026646 0.15387003
000070 18 f3 83 3e ec 07 97 be 64 ac 64 be 31 fd c1 3e
       0.25771403 -0.2949823 -0.22331387 0.37888482
000080 2e 5d c7 be 75 81 e1 3e aa 16 84 3e 1f ac ff bd
       -0.38938278 0.4404408 0.2579854 -0.12484001
000090 6c 0b 62 3e 4e 30 cf 3d fc e5 05 bc 73 07 b3 be
       0.2207467 0.10116635 -0.008172508 -0.3496662
0000a0 58 40 31 3e 8b 26 c7 3b 0d 1b 12 3c 4f 92 58 3d
       0.17309701 0.0060775927 0.008917582 0.052873906
0000b0 56 f8 f5 3e 55 44 80 3d ce b7 03 3d 7e 2b 97 bd
       0.48041028 0.06263033 0.03215771 -0.07381342
0000c0 f3 f1 9a 3e 3d c7 65 be 8b 26 66 3e 93 36 9a 3e
       0.30262718 -0.22439285 0.2247564 0.30119762
0000d0 6f d1 aa ba d5 38 3b bf a0 4c 03 be 5a 86 9a bd
       -0.0013032387 -0.73133594 -0.12822199 -0.07545157
0000e0 b0 08 3e bd 09 18 97 bb 7d bd 3a 3e 1e 78 8d be
       -0.046395004 -0.0046110195 0.18236347 -0.27630705
0000f0 b5 26 33 3e b0 22 eb 3e dc d8 46 be de c1 8c be
       0.17495234 0.45924902 -0.19418663 -0.2749166
000100 e7 71 cd bd 84 3c 3d bd 8b 14 a4 3e 2b 0e f8 bd
       -0.10031491 -0.04620029 0.32046923 -0.12112077
000110 5c e9 ba 3e 70 b1 85 3c 45 50 d5 be e2 d6 5b 3e
       0.36506164 0.01631996 -0.41662803 0.2146869
000120 3d e5 52 3b b1 5c 62 bd 6e 38 95 3e 41 f2 92 bd
       0.0032180094 -0.05526418 0.29144615 -0.071751125
000130 cf 1d 89 bc 05 a2 5d be a0 ab e4 3d 88 7a c9 3e
       -0.016737847 -0.21643837 0.11165547 0.39351296
000140 28 ea a8 3e d7 6a 0d 3e 6e 94 16 be 45 aa 37 3e
       0.32991147 0.13810287 -0.14705059 0.17936046
000150 7a 27 76 3d 2f c5 05 3e a3 01 c1 3e 7f e5 0f 3f
       0.06009624 0.13063501 0.3769656 0.5620956
000160 57 85 50 3c 75 ae 7b be 09 cb a2 3e 46 7a 90 3e
       0.012727103 -0.24578269 0.3179553 0.28218287
000170 47 93 b6 bd d9 64 b8 be 66 93 df bd 86 0c 66 3e
       -0.0891481 -0.3601444 -0.10916786 0.22465715
000180 c6 17 5e be 1f 6f 02 3e 69 5c c2 3d 0a 21 68 bc
       -0.21688756 0.12737702 0.09490282 -0.014168033
000190 2e d4 4e be d9 b0 b6 3e 32 82 39 3d 91 23 1f bd
       -0.20198128 0.356818 0.04529018 -0.03885228
0001a0 f1 4a 8f be d6 34 c6 3c 94 68 15 bf 8c 4e d5 3e
       -0.27986863 0.024195116 -0.583627 0.4166149
0001b0 0b 0e a9 3e 56 e7 32 be 6b c7 3e be 7a e2 83 3c
       0.33018526 -0.1747106 -0.1863076 0.016099203
0001c0 28 e6 1c 3f c7 36 99 3e 05 10 f4 3d 74 32 17 3e
       0.6128869 0.29924604 0.11917118 0.1476534
0001d0 35 10 1f 3e 95 2f 97 3e 3c 06 ac 3e f3 e4 fc be
       0.15533526 0.2952849 0.33598506 -0.49393424
0001e0 16 98 a8 3e e7 69 b8 3d 52 40 f4 3d 9e a2 d2 3d
       0.32928532 0.09004574 0.119263306 0.10284923
0001f0 d2 a2 c9 3e 49 87 1c 3e d9 1c 14 be ca 2f 67 bc
       0.39382035 0.15285982 -0.1446413 -0.014110515
000200 b4 d0 8b be 06 2e 9a be 84 c7 f1 bd 31 10 8b bc
       -0.27307665 -0.30113238 -0.11805633 -0.016975494
000210 81 80 0c 3d 70 14 33 3e ba 45 9a be 4e 88 53 3d
       0.03430224 0.17488265 -0.30131322 0.051643662
000220 18 f3 8d 3e 8f f2 48 3e 50 42 2d bd bf 0e 8b bd
       0.27724528 0.19623779 -0.04229957 -0.06789922
000230 a9 9c e5 3d 03 cb 36 be 66 62 0d bd c9 a8 d8 3c
       0.11211521 -0.1785088 -0.03451767 0.02644767
000240 79 92 04 3e 9c b5 57 3e 83 fb af 3e e8 71 5d 3f
       0.129465 0.21065372 0.34371576 0.8650193
000250 7d 8a dd bd 8e b9 f6 bd f5 8d a6 3e fe ae bc 3e
       -0.1081743 -0.120471105 0.3253018 0.36852258
000260 9c 74 04 3e f7 79 4c bd fb fe b3 3d cc ae 95 3e
       0.12935108 -0.049921002 0.08788868 0.29234922
000270 d0 2e 26 be 72 82 bc be ff ee 86 be ad c5 c4 bd
       -0.16228795 -0.36818272 -0.26354215 -0.09608016
000280 ef bf 88 3e d3 be ab be 4f f3 13 bd c4 7d a4 bd
       0.26708934 -0.33544025 -0.03612071 -0.080318004
000290 0d c1 43 be 1b c4 b2 3e e5 d7 e2 bc a0 5f e3 3e
       -0.19116612 0.34915242 -0.027690837 0.44408894
0002a0 53 47 c6 3e c1 c5 6f bf fb 68 00 3f bb 88 88 3e
       0.3872629 -0.93661124 0.5016019 0.26666817
0002b0 92 77 9f be b1 99 48 bb 94 6e 97 be b7 53 48 be
       -0.31145912 -0.0030609185 -0.29576552 -0.19563185
0002c0 a5 bf fb 3c 54 cd 97 be 62 d1 21 be 2d 63 23 3e
       0.030731032 -0.2964884 -0.1580253 0.15955801
0002d0 4d c5 34 be 84 53 16 3f 81 7f c0 3d 55 33 29 3f
       -0.1765339 0.58721185 0.093993194 0.6609395
0002e0 a2 77 bc 3e ce 29 1f 3f f5 8f e7 3d 32 92 06 3f
       0.36810023 0.62173164 0.113067545 0.52566826
0002f0 30 85 a2 3d 6f 1e d9 3e b8 49 53 bd 47 91 0d 3d
       0.0793556 0.4240603 -0.051583976 0.034562375
000300 5f 64 67 3d 06 6b ea bd c5 55 99 bd 3f af 5f 3d
       0.056492206 -0.11446194 -0.07487062 0.054610487
000310 24 87 48 3e d8 cd c6 3d 21 02 95 3e 5d e2 b6 3e
       0.19582802 0.0970723 0.29103187 0.35719576
000320 a1 31 08 bd 91 f9 e6 3b 3b 3c e1 3e a4 ae d8 3e
       -0.033250455 0.0070487936 0.43991265 0.4232074
000330 82 e7 1e be 30 be 01 3c 8e 44 38 bd 50 55 2f bf
       -0.15518 0.007918879 -0.044987254 -0.6848955
000340 f3 4f 34 3e 02 74 b5 3d 35 2b 1d 3d bb d7 19 3e
       0.17608623 0.08860017 0.038371284 0.15023701
000350 e9 f1 04 3e 40 fb 8a 3e 6a 65 c9 3d 3e de 99 3d
       0.12982906 0.27144814 0.09833796 0.075130925
000360 37 f8 09 3e 8b 2c 6a 3d 93 0b db 3b 86 df 35 be
       0.13473593 0.057171386 0.0066847294 -0.17761049
000370 c5 09 0f 3f 24 0b 77 3e bd 6b 32 be 9c ad c9 3e
       0.5587428 0.24125344 -0.17423911 0.39390266
000380 cf 99 43 be 2f e3 d8 3d a4 a6 67 be 83 19 63 be
       -0.19101642 0.10590207 -0.22622162 -0.221777
000390 0b 0a ae bd 01 2c 01 bd c3 2d b8 be c5 a3 89 3e
       -0.08498009 -0.031536106 -0.35972413 0.2688276
0003a0 8d 2f 7a 3e e5 70 44 3e 22 1f 2d 3e 41 e5 70 be
       0.24432202 0.19183691 0.16906407 -0.23524953
0003b0 f3 3d d1 3d 4a fe 4c be 3d 5c 93 3e 4d 70 af be
       0.10216894 -0.20018879 0.2878131 -0.34265366
0003c0 e8 c4 87 3e a4 ee 2c be 0b c6 fa be 61 63 b1 3e
       0.26517415 -0.16887909 -0.4897922 0.34646133
0003d0 c8 9c 2b 3d 84 29 8b be 54 74 6c 3e ea 0f 4c bd
       0.041897565 -0.2718011 0.2309125 -0.049819864
0003e0 d2 ab 0a bf a3 16 d9 bd d6 b7 eb be 05 a9 bd be
       -0.54168427 -0.10600021 -0.46038693 -0.37043014
0003f0 c9 96 64 be 68 16 c0 be 4b 8d 33 bd 27 37 b7 be
       -0.22323145 -0.37517095 -0.04383592 -0.35784265

fc1.bias f4 [128]
000000 bf 39 84 3e e8 4d 83 3e fe 3b b2 3d 99 42 2d 3d
       0.25825307 0.25645375 0.08702849 0.04229984
000010 fa c2 24 be c4 e3 91 bc 85 c3 ef 3d ff ec 58 3e
       -0.16090003 -0.017808802 0.11707214 0.21184157
000020 fa 56 93 3e 9a 59 b0 3e 3d 1e 11 3e ac f0 d7 3c
       0.28777295 0.3444336 0.14171691 0.026359878
000030 31 50 5d 3e 83 73 21 3e 05 91 1f be 37 78 c5 bd
       0.21612622 0.1576672 -0.15582664 -0.0964207
000040 a2 0a 82 3e 82 2a 4e 3e 83 47 44 bd 22 d0 fc 3d
       0.25398737 0.20133403 -0.04791976 0.12344386
000050 8e 68 f8 bc 6d 22 32 be 65 1f c7 3e b9 c2 73 3c
       -0.030323293 -0.17395945 0.3889114 0.0148779685
000060 08 bf 0d 3e fb ef c5 3e 59 f7 10 3d b6 6a 02 3e
       0.13842404 0.38659653 0.03539214 0.1273602
000070 d5 ca 20 3d cc 49 a6 bc 9e 5d 80 3e ba 48 30 bd
       0.039255936 -0.020298861 0.25071424 -0.043038107
000080 85 eb d1 3d 13 b3 82 3e 64 a3 a5 3e 5b 10 6a bd
       0.1025 0.25527248 0.3235122 -0.057144504
000090 a9 58 40 3e 45 f7 c9 3d b5 11 65 bb 73 27 b8 3e
       0.18783821 0.09861616 -0.0034953181 0.35967597
0000a0 bd 4a 8f 3e de 3a 49 3e 07 e0 34 3e 5f a6 75 3e
       0.27986708 0.19651362 0.17663585 0.23989247
0000b0 d1 15 7f bd 3d e8 8b 3e ed 2c b0 bc d9 b4 b7 bd
       -0.062276665 0.2732562 -0.021505797 -0.08970041
0000c0 9d 62 27 be a5 da 5a 3e fa eb 85 3e 7c 80 d2 bd
       -0.16346212 0.21372469 0.26156598 -0.10278413
0000d0 54 e8 9d 3e c3 60 e3 3d 3c b6 c2 bc 52 6d 24 be
       0.30841315 0.1110244 -0.023768537 -0.16057327
0000e0 8d e3 11 3e 4f 0d d8 3e 94 2b 83 3e 9e 34 92 3e
       0.1424696 0.42197654 0.25619185 0.2855577
0000f0 5f c8 9b 3e b8 a5 5e bd 82 8e 41 3e 6c 15 f6 bd
       0.3042631 -0.05435726 0.18902019 -0.12015805
000100 2d b6 82 3e 49 48 83 bd 08 5a 3e 3e d6 5c cc 3c
       0.25529614 -0.06410272 0.18589032 0.024946611
000110 6e 7b 97 3d a9 29 a3 bd cc 2a 25 3e 8d 42 f0 3d
       0.07396589 -0.079669304 0.16129607 0.117314436
000120 71 ba ef 3d 71 dc 95 bd c8 75 16 bd b6 95 93 3e
       0.11705483 -0.073174365 -0.03673342 0.28825158
000130 48 23 84 3e c6 52 c6 3d 6a b0 44 3e 08 69 d9 bc
       0.25808167 0.096837565 0.19207922 -0.02653934
000140 b4 54 dd 3d 55 d8 30 3e 8e 32 36 3e 67 06 47 3e
       0.108071715 0.17270024 0.17792723 0.19436036
000150 12 87 51 3e 58 9d 0a 3e 8c 85 0a 3e b7 ea f9 ba
       0.20461681 0.13536584 0.13527507 -0.0019067143
000160 f8 69 8a 3e 3a 39 8a 3e 17 b4 52 3d 36 22 25 bd
       0.27033973 0.26996785 0.05144128 -0.04031583
000170 cd 90 00 3e 8d b5 14 3c 21 84 b1 3e ce 11 c3 3d
       0.12555237 0.009076488 0.3467112 0.0952488
000180 66 76 83 3e 77 fd 44 3e bf 09 50 3e 14 9d d4 3d
       0.25676268 0.19237314 0.20316218 0.10381523
000190 e5 58 61 3e 15 52 bc 3e 35 bc 65 3d e4 d9 93 3e
       0.22006567 0.36781374 0.05608769 0.28877175
0001a0 ec bf 83 3e 87 91 8d bc 9c 7d 2e bd c4 f0 94 bc
       0.25732362 -0.017281307 -0.04260026 -0.018181212
0001b0 bc 43 5e 3e c1 06 d5 bb 53 f9 68 3e 7e 75 b7 3d
       0.21705526 -0.0065010493 0.2275136 0.08957957
0001c0 5e ac 50 3e 87 c3 15 3d c2 f8 89 3d 72 33 0f 3e
       0.20378253 0.036563423 0.067369 0.13984469
0001d0 16 09 c2 3e 48 47 41 3e 20 e0 95 3d 28 69 6f 3d
       0.37897557 0.18874848 0.07318139 0.058449894
0001e0 1f c9 0e be af 68 1a 3e f7 ce b7 bd 32 e1 49 3e
       -0.13943909 0.15078996 -0.08975022 0.19714811
0001f0 bc 47 65 3d 3e db fc bd b7 32 ac 3c 6c f5 96 3d
       0.055976614 -0.12346505 0.021020276 0.07371029

fc2.weight f4 [128, 128]
000000 f9 38 3f 3d f2 df ca 3c 60 92 90 bd 7a 74 e1 3d
       0.046685193 0.024764989 -0.07059169 0.11008544
000010 bc 4b bc bc ed 5d 86 bd ba 78 49 3d 86 31 db 3c
       -0.022985332 -0.06560884 0.0491874 0.026757013
000020 1c 6e 0a be c7 34 54 bc 5b c0 09 bd be 46 82 3d
       -0.13518566 -0.012952036 -0.03363071 0.06361149
000030 c9 11 5d 3e 64 bd fd 3d 9b e2 1f 3e b5 1f 7a 3d
       0.21588816 0.12389639 0.15613787 0.061065394
000040 62 11 13 be 3e c1 03 bd 3c 2e 65 bd 02 eb aa 3d
       -0.143621 -0.032166712 -0.055952296 0.083456054
000050 40 d7 51 bd a4 ac b0 bd 0c c7 05 bd 43 37 da 3d
       -0.05123067 -0.086266786 -0.03266053 0.106550716
000060 03 e5 75 3e 25 27 52 bb 00 74 25 3d 4a 97 85 3d
       0.24013142 -0.003206679 0.04039383 0.06522997
000070 41 0e 41 3d 3a a6 3f 3c fa ca ac bc 00 00 9e 3d
       0.047132734 0.011697346 -0.02109288 0.07714844
000080 af 97 e8 bd 09 80 ad bd 3b 35 0e 3e 85 43 f8 3d
       -0.11357056 -0.084716864 0.13887493 0.12122253
000090 c9 47 ae 3d e0 2e a4 3d a5 ab f0 bd 56 e2 88 3d
       0.08509786 0.08016753 -0.117514886 0.06683795
0000a0 b0 a8 32 3e 00 66 8a 3c 4f 9b 5e 3e 1c 8c 45 3e
       0.17447162 0.01689434 0.21738933 0.19291729
0000b0 c1 2e 9e 3c 9b 76 3d be 3e ba 9b bd 6c 91 3b 3e
       0.019309403 -0.18502276 -0.07603882 0.18317193
0000c0 82 04 e9 3d 39 f8 e2 3d 8b a7 ec 3d 2a 28 29 3e
       0.11377813 0.11082501 0.11555394 0.16519228
0000d0 66 84 18 bf 18 4e a0 3c 33 26 68 3d 63 52 20 bb
       -0.59577024 0.019568488 0.056677055 -0.0024463169
0000e0 51 9d 3c 3d 7d 9e a0 3d ad 88 37 bd 70 47 0d bf
       0.046048466 0.07842729 -0.04480808 -0.5518713
0000f0 e7 22 f4 bc b7 8a 0d bd ff 16 e4 bc 6b 4a 74 3c
       -0.029801799 -0.034556117 -0.027842997 0.014910321
000100 fc 2f b7 3c ac ca 4e bc 72 26 0a 3b 51 23 3e 3e
       0.022361748 -0.012621563 0.0021080044 0.1856816
000110 05 86 2c 3e ac 7a a4 bd e5 ac dd bd cf 3e 07 3d
       0.16848 -0.0803121 -0.10823993 0.033018883
000120 cf c6 ca bd c3 3e 13 3d 19 f5 13 be 6b 1d 35 3e
       -0.09901201 0.035948526 -0.14448966 0.17687003
000130 55 30 e1 3d 7d 75 98 3d 58 47 93 bd e1 8c 74 bd
       0.10995547 0.07444284 -0.07191342 -0.059704665
000140 1b 9f c5 3d a9 0c 33 3e de 73 94 3c 72 85 08 bd
       0.096494876 0.17485298 0.018121656 -0.03333039
000150 89 e2 7d 3d 94 b5 da bc fb f0 36 3c 47 87 1b bd
       0.06198362 -0.026697911 0.011165853 -0.037970807
000160 b7 aa 7a 3d 32 0b c8 3d dd 15 2d 3e dd 5c ef 3c
       0.061197963 0.0976776 0.16902871 0.029219085
000170 ef f3 4a bd 19 b7 73 bd b6 ef a8 3c 53 3b fd 3d
       -0.04954904 -0.059500787 0.020622116 0.12364831
000180 04 74 a6 3d 66 30 3a 3e 33 30 fa bc 1d d8 4f bd
       0.08127597 0.18182525 -0.030540561 -0.05074321
000190 01 22 06 3d 3b 74 ed 3d 81 51 54 3e dd c0 02 bd
       0.032747272 0.11594435 0.20734216 -0.03192221
0001a0 09 cf 04 be 11 62 09 3e d8 78 6d 3d c0 b9 00 3d
       -0.12969603 0.13416316 0.057976574 0.031427145
0001b0 75 0e 2f 3d 0a 86 03 be 2e 8d 55 3e 45 c1 0a 3d
       0.042738397 -0.128441 0.20854637 0.033875722
0001c0 fa d2 25 3f 80 26 ce be cc 43 31 be ef 4b 6e bd
       0.6477505 -0.40263748 -0.17311019 -0.058177885
0001d0 4f 6d d5 3e 1b f9 64 bd ca 7c 24 3c 5f ed c1 bd
       0.41684958 -0.055901628 0.010039518 -0.09469103
0001e0 52 8b b9 3d cf 68 48 3e f1 9a 8d 3d cc eb 11 3e
       0.09059776 0.19571231 0.06914318 0.14250106
0001f0 92 d2 9e bc 73 50 82 3e 72 24 84 bd e0 7b cb 3d
       -0.019387517 0.25452003 -0.06452264 0.09935737
000200 81 9f 67 bb d0 3c c3 3d c8 90 10 be dc e8 9c 3e
       -0.0035342874 0.095330834 -0.1411773 0.30646408
000210 ad 05 ed 3c 0a b4 27 3e b3 26 34 bc be f7 44 3d
       0.02893337 0.16377273 -0.010995555 0.048087828
000220 73 45 38 be 2a 37 f1 3d 67 b2 0f be c3 d7 a1 3d
       -0.17995243 0.117781 -0.14032899 0.079024814
000230 91 41 47 3c b9 e7 96 bd 8a 9a b1 bc b2 02 76 3d
       0.012161628 -0.07368416 -0.021680135 0.060061164
000240 62 7e 93 bb f0 25 55 bc 19 15 1c bd dc db 59 bd
       -0.00450115 -0.013009533 -0.038106058 -0.05318819
000250 de c3 9a 3b 31 f2 31 be 06 64 1b 3c d5 72 38 bb
       0.004723056 -0.17377545 0.009484297 -0.0028144617
000260 a1 3d ce bd ae 7b a4 bb 08 02 81 3d aa 3b 2b be
       -0.100703485 -0.0050196266 0.062992156 -0.16721979
000270 5d 30 10 be 7b 8b 01 3d 87 93 92 bc df a4 e7 3c
       -0.14080949 0.03162716 -0.017892612 0.028276859
000280 ef 1d 78 3d cf 26 42 bd f7 8d 99 bd ba 27 2d be
       0.060575422 -0.047400292 -0.07497781 -0.16909686
000290 90 5d 31 3c 47 3a 62 3d 41 4d d9 3d f2 b9 10 3d
       0.01082553 0.05523136 0.10610438 0.03533358
0002a0 76 15 c4 3d 61 f1 ce 3d cf df af bd e1 94 b8 3d
       0.09574406 0.10104633 -0.0858761 0.090127714
0002b0 f4 cb 97 3d 75 9f db 3d 2c 4e e2 3c dd 19 a2 bd
       0.07411948 0.107237734 0.027625166 -0.07915089
0002c0 1d 5e 85 bb 40 bc a7 3d d0 51 fd 3d c5 d1 ee bb
       -0.004070057 0.08190203 0.1236912 -0.00728819
0002d0 64 8f aa 3e 3b e8 df 3c 15 b4 6f 3e 31 d3 8c 3d
       0.33312523 0.027332416 0.2340854 0.06876219
0002e0 0c 59 91 bd 58 88 7a 3e d9 f1 b3 3d 67 c9 ca 3e
       -0.070970625 0.24466074 0.08786363 0.39606783
0002f0 f6 f1 ae 3d 4c c7 17 3c 2b f2 51 bc 2c 02 d9 3d
       0.08542244 0.009263825 -0.012814085 0.105961174
000300 5f a1 31 bc 91 b7 e4 bc e8 13 28 3d 91 aa 29 be
       -0.0108416965 -0.027919563 0.04103461 -0.16568972
000310 34 79 21 be e3 f5 03 3e 46 cd 4d 3d dc 88 b6 3c
       -0.15768892 0.12886767 0.050244592 0.022282057
000320 03 f9 b6 3c 18 dc b3 3c 75 35 76 bd bf 29 47 3e
       0.022335535 0.021955535 -0.060109574 0.19449519
000330 03 a1 1a be d2 ce 02 be 84 cb 2f bd b7 11 11 bd
       -0.15100484 -0.12774208 -0.042918697 -0.035417285
000340 28 9a 74 bc 33 d5 4c 3e 72 ab 14 bd f4 3e d6 3d
       -0.014929332 0.20003204 -0.036296315 0.10461226
000350 28 bc 02 be 50 33 dd 3c ac b3 26 3d cc e1 8f bd
       -0.12767088 0.027002007 0.040698692 -0.07025489
000360 ed a9 fd bd d7 1b 81 3d 15 e1 e4 bd c9 a0 ac bd
       -0.123859264 0.06304138 -0.111757435 -0.08429105
000370 84 63 37 bd 31 6d d6 bd f3 6a a2 be 11 fa 56 bc
       -0.04477264 -0.10470045 -0.3172222 -0.013121144
000380 11 ea 9b 3a 4a c2 4e bd bd 77 21 3e 32 bc 92 bc
       0.0011895319 -0.050478257 0.15768333 -0.017912004
000390 0f 7c 8c 3d c3 ab 14 be cb 88 0c be 8a 64 14 bd
       0.068596 -0.14518647 -0.13724057 -0.036228694
0003a0 ca af 36 be c1 b3 c8 bb e3 d4 bb bc ae a7 64 bd
       -0.17840496 -0.006124944 -0.02292866 -0.055823974
0003b0 b7 8d 88 3e a4 da 34 bd 33 29 e8 3d 28 75 19 3d
       0.2667062 -0.044153824 0.11335983 0.037465245
0003c0 26 1b 93 3c 9e bb bb be 09 7d 05 bd 67 1e c9 3d
       0.017957281 -0.36666578 -0.032589946 0.09820252
0003d0 6e 30 b4 be 58 c8 2d 3c f0 a6 eb 3b 48 93 f1 3d
       -0.351932 0.010606848 0.0071915314 0.1179567
0003e0 48 e5 64 be 96 d8 a8 3d 63 c4 ba bc 0d dc 0b 3c
       -0.22353089 0.082444355 -0.022798723 0.008536351
0003f0 46 a1 5c 3d 8b 65 a6 3e c9 f3 8d 3e 66 7e 6b 3d
       0.05386474 0.32499346 0.27725056 0.05749359

fc2.bias f4 [128]
000000 38 82 87 bd 96 5c 37 3b 3b 4a 0b bd 97 a4 fd 3c
       -0.06616634 0.002797877 -0.03400634 0.030962272
000010 1e 57 bf bd 5d 6e 8a bd a4 22 8e 3d 05 d7 27 3e
       -0.09342788 -0.067593314 0.06940201 0.16390617
000020 d9 02 13 bd e4 9e 48 bd 5b 7f 83 3d 2d d6 73 bd
       -0.035891388 -0.048979655 0.064207755 -0.059530426
000030 27 ea 0c 3e 77 38 d1 3d 74 bb 14 3c ea 36 c0 bd
       0.13761197 0.10215848 0.009077895 -0.09385474
000040 48 6a cb bc ad 1e ac bd ae 11 35 3d 50 d0 70 bc
       -0.024830952 -0.084042884 0.044206314 -0.014698103
000050 9c 28 e9 bc f2 da f5 3d a7 ff 73 3d 17 f9 42 3d
       -0.028461747 0.12004651 0.05956998 0.04760083
000060 f4 4f 49 bd ef 15 11 3d ef a6 bb 3d 45 af f8 bc
       -0.049148515 0.035421308 0.091626994 -0.030357013
000070 de 9a 5d 3c 17 3c b0 bd 5c bf 62 3d 58 de 09 3e
       0.013525693 -0.08605211 0.055358276 0.13463724
000080 7f 75 aa 3c 7a 30 e0 bd f3 e7 3f bd 7a 30 18 bd
       0.02080798 -0.10946746 -0.046852063 -0.037155606
000090 5a aa b5 3c 4a 7b 44 bd 07 84 88 3d 4c a8 5e 3d
       0.022175957 -0.04796914 0.06665807 0.05435972
0000a0 00 78 52 bd 1e 4d c1 bd 90 c2 33 3d ea 63 c0 3d
       -0.051383972 -0.09438537 0.04388672 0.09394057
0000b0 d9 60 55 3d 0c 62 22 3a b1 4b 67 3d 2b 98 b8 3c
       0.052094314 0.00061944197 0.05646867 0.022533497
0000c0 13 45 cb 3c c4 3c 41 3e 2d 64 db 3d f8 88 c4 3c
       0.02481321 0.18870836 0.107124664 0.023991093
0000d0 b9 7d 34 3d d4 75 85 3d 12 5a 1b bd 3d 56 e7 3d
       0.04406521 0.065166146 -0.037927695 0.112957455
0000e0 9d 8f 0a 3d 37 7c c1 3d b9 27 a8 3d 9e 72 e2 3d
       0.033828367 0.0944752 0.082107015 0.11057018
0000f0 1b f1 67 3e 85 73 3e 3d 0a fe bf 3d 16 49 f4 3c
       0.22650568 0.046496887 0.09374626 0.029820006
000100 ac d6 3d 3d e8 51 ba bd 24 d3 11 bc 25 28 a6 bd
       0.046347305 -0.090976536 -0.0089004375 -0.08113126
000110 4f ef 35 3c 44 96 e2 3c 2a 45 f8 bc 27 82 7b 3c
       0.011104419 0.027659543 -0.030306417 0.015350855
000120 9d 31 86 3d 2d fa a0 bd e6 47 d5 3d fd d7 0f 3c
       0.06552432 -0.07860217 0.10414104 0.008779523
000130 9d cc 5a 3c c0 78 a8 3d dc 69 10 3e 39 72 2c bd
       0.013354448 0.08226156 0.14102882 -0.04210112
000140 20 6c 01 3c f1 31 a7 bc fb 05 83 bc d5 2c bb bd
       0.007899314 -0.020409556 -0.015994063 -0.091394104
000150 e3 c1 0c bd 7a b8 a9 bc 96 da 55 3b 79 8f 9a 3d
       -0.034364592 -0.020717848 0.0032631508 0.075468965
000160 d5 8e 1d 3d 2e cc 67 bc 35 24 10 3e b6 50 96 bd
       0.038466293 -0.014147801 0.14076312 -0.07339613
000170 45 b5 d6 3d b8 57 7d 3e b2 f4 09 3e b5 3d 97 3d
       0.10483793 0.24740493 0.1347225 0.073848166
000180 a1 4d 7f 3c bb 2d aa 3d e0 71 31 3d 89 57 6b 3d
       0.015582473 0.08309504 0.04332149 0.057456527
000190 b0 2c 23 bd ba 85 f0 3d 0e fb 42 3d 9a dd 0f 3e
       -0.03983754 0.11744256 0.047602706 0.14049378
0001a0 77 2b 52 3e 8c c7 9a bd 17 b8 24 bd 03 f8 c1 3b
       0.20524393 -0.07557592 -0.040214624 0.005919458
0001b0 f9 e4 5f 3e a4 53 b2 3d 47 ba 99 bd 52 70 5c bc
       0.2186469 0.087073594 -0.07506233 -0.013454514
0001c0 3c 88 0d bd a4 d8 8f bd 12 77 b9 3d 0d bf a8 bc
       -0.03455375 -0.07023743 0.09055914 -0.020598913
0001d0 c9 ea ae 3d c0 a2 3a bd 5c 34 1d 3d ff 72 13 bd
       0.085408755 -0.045565367 0.038380012 -0.03599834
0001e0 63 c8 7f bd ca bb b9 3b 92 a3 2a bd 80 5e 55 bd
       -0.062446963 0.005668138 -0.0416599 -0.052092075
0001f0 7c b2 c4 bc 11 aa d7 3d 13 7e 54 3c 7e ed 37 bd
       -0.02401089 0.105304845 0.012969512 -0.044904225

fc3.weight f4 [9, 128]
000000 9b 52 ca bd 45 3c 48 3d b8 91 13 3c 9d 60 b1 bd
       -0.09879037 0.048885603 0.00900691 -0.08661006
000010 d7 55 8a bd 0e 9b 96 bd c6 80 22 3e 3d 80 a7 3e
       -0.06754654 -0.07353793 0.15869436 0.32715026
000020 7b c4 fb 3c 2d 6a 98 3d 1c 85 7a 3e ae 03 4b 3e
       0.030733338 0.074421264 0.2446484 0.19825622
000030 22 9d 78 3e 0d 7f b7 3e 94 1a f4 bd 8d 39 be 3d
       0.24278691 0.3583912 -0.11919132 0.09288321
000040 2a 6a ff 3c 68 66 55 bd 0b fd 88 bf 1c 9e 19 be
       0.031178553 -0.052099615 -1.0702223 -0.1500172
000050 35 50 50 bb bf 29 76 bd 19 f1 0b be 48 18 7a 3d
       -0.0031786088 -0.060098406 -0.1366619 0.061058313
000060 77 f3 2f 3d fb a0 4f bd f4 b2 e0 bd 48 71 36 bd
       0.042956796 -0.050690632 -0.109716326 -0.044541627
000070 71 0a e6 bc a7 7a 88 bd f4 0f 04 be c2 d4 48 3d
       -0.02808115 -0.06664019 -0.1289671 0.049031027
000080 7a 51 07 3e 82 97 a2 bd 51 38 07 3c de 02 45 3c
       0.13214675 -0.07939054 0.008253173 0.012024609
000090 23 9b ec bc 4b 55 ad bd 62 96 13 3e a3 c6 9d bd
       -0.028882569 -0.08463534 0.14412835 -0.077039026
0000a0 3c 6c 34 bd 24 02 74 bd e2 cf 92 3c e9 8d 96 3d
       -0.044048533 -0.059572354 0.017921392 0.07351286
0000b0 ae 9d e1 3c 3d fb 52 3e f8 7f 25 bc 60 80 70 3c
       0.027541008 0.20603652 -0.010101311 0.0146790445
0000c0 0b d7 32 3b 2c ac 91 3e 1f 64 1c be e8 da 00 bb
       0.002728882 0.2845167 -0.15272568 -0.0019661728
0000d0 41 c3 e0 bd fb 0a 32 3d 3a ff b1 3d 44 f5 97 3e
       -0.10974742 0.043467503 0.08691259 0.2967931
0000e0 a8 fb f7 bd 4d c0 95 3d 4d 47 10 be 5f de 09 be
       -0.121085465 0.07312069 -0.14089699 -0.13463734
0000f0 36 bc 48 3e 09 65 cb bc 89 24 3f 3e 30 2b bf bc
       0.19603047 -0.02482845 0.18666281 -0.023336023
000100 9f f7 51 3d ab 9f 87 3d 3b b6 85 3c b3 22 2f 3b
       0.05126154 0.06622251 0.016322246 0.0026723563
000110 28 8c 83 3c 77 9e 0c bd da 8e 8a bd 1a 21 cd 3d
       0.016058043 -0.03433081 -0.06765528 0.10016079
000120 40 93 24 bd 54 19 b8 3c 22 d5 01 be 72 ce 40 3d
       -0.04017949 0.022473015 -0.1267896 0.04707188
000130 b1 fd fe bd 98 78 77 bd c8 04 31 3c 33 25 06 be
       -0.124507315 -0.06041774 0.010804363 -0.13100128
000140 7b 9a a3 3e 8c b1 55 bd 4a 21 17 bd 61 5b 66 3b
       0.31953797 -0.052171275 -0.03689698 0.003514968
000150 18 ec 03 be 9b 8b 77 3c be 38 13 3d 14 ba 94 bc
       -0.12883031 0.015108968 0.035942785 -0.018155135
000160 84 b3 a2 bb b0 cb 65 be 15 41 e4 3d 56 b0 35 3d
       -0.0049652476 -0.22440982 0.11145226 0.04435762
000170 ea c0 9a bd a3 7f 41 3e b3 ac 39 bd a0 ae 36 be
       -0.07556327 0.18896346 -0.045330714 -0.17840052
000180 b8 63 75 bd 07 32 10 3e 04 8a c3 3e a9 88 16 be
       -0.059909552 0.14081584 0.38191235 -0.14700569
000190 8c 7d a4 3d a9 c0 ba 3e f3 c8 01 bc c9 6d 08 3e
       0.08031759 0.36475113 -0.007921445 0.1332313
0001a0 6f 44 e9 3d a1 91 e6 3c b2 eb fa bd 96 97 d8 3e
       0.11390006 0.028145613 -0.122519866 0.4230315
0001b0 05 a4 7c 3e 6b af 37 bd 78 4c 92 bd b9 51 6c bd
       0.24671943 -0.044845026 -0.071434915 -0.057695124
0001c0 22 65 a0 3d 52 a9 97 bd 4d 74 a1 3d d1 eb 66 3d
       0.078317896 -0.07405342 0.07883511 0.056377236
0001d0 2c 0e e7 bd 74 df 9b 3e 90 53 64 3d 5b a8 09 bd
       -0.11282 0.3044392 0.055743754 -0.033607822
0001e0 b7 a8 88 3d 84 6c b0 bc 99 2a 2a 3c c6 97 b9 3e
       0.06672805 -0.02153612 0.010386133 0.36248606
0001f0 e9 69 3b 3e ab e4 ff ba 60 6d ef bd 58 45 b3 bd
       0.1830212 -0.0019523104 -0.116907835 -0.08753461
000200 0c be 24 3e a3 33 09 be ab 95 75 3e 0e 83 1b be
       0.16088122 -0.13398604 0.23982875 -0.15186712
000210 64 d3 91 bc c5 d1 e4 bc 25 9e 14 be 5b 97 8b 3e
       -0.017800994 -0.027932057 -0.14513452 0.27263913
000220 64 bd a7 3d b3 a1 bf bd c0 b5 8d bd 4e 07 c7 3e
       0.0819042 -0.093570136 -0.06919432 0.3887276
000230 1d 3d bd 3e 76 a0 8a 3e 09 f6 32 be 58 3e 80 3e
       0.36960688 0.27075547 -0.17476667 0.25047565
000240 a2 d2 94 bd 2d 99 4a bd 2d 99 d5 bd 14 0d 90 bd
       -0.072667375 -0.049462486 -0.104296066 -0.070337445
000250 be a5 a6 bd b2 be d7 bd e2 9d 26 3e 84 a5 70 3c
       -0.081370816 -0.10534419 0.16271165 0.0146878995
000260 2b de 27 be b1 ad 47 bd 3f 22 ce 3d 1d 0e 53 3c
       -0.16393344 -0.04874963 0.10065126 0.012881783
000270 9f f5 11 be 60 98 02 bd 15 a2 01 3e 17 95 d3 3c
       -0.14253853 -0.031883597 0.12659486 0.025827928
000280 fb 90 74 bf 6e f3 59 3d 80 ae ac 3d 89 c1 08 3e
       -0.9553372 0.05321067 0.08431721 0.13355078
000290 1f 70 83 bd c3 f5 38 3d 84 b5 e6 be 2b 05 80 3d
       -0.0641787 0.04515625 -0.4506036 0.06250986
0002a0 62 28 07 be 8b 35 86 3d 32 16 02 3a 6b 8b 2e be
       -0.13198999 0.06553181 0.0004962414 -0.17045371
0002b0 00 5f 36 3d 66 c3 09 3f 62 32 8e bd 0d 13 c8 bc
       0.044524193 0.5381378 -0.069432035 -0.024423147
0002c0 a9 10 18 3c 46 2c 55 3e 4f bb fb bd aa 6a 91 3c
       0.009281316 0.2081767 -0.12291586 0.017751057
0002d0 d0 38 1e bd 38 46 86 be 8c 1b 0d bd 63 95 f5 3e
       -0.0386284 -0.26225448 -0.0344501 0.47965536
0002e0 05 b5 c6 bc 98 2f b7 be 93 44 54 bd fe 77 3d bd
       -0.024256239 -0.357785 -0.05182321 -0.04625701
0002f0 5f 2f 3c 3e ef f4 74 bc 45 f5 57 3e cf e3 d4 bd
       0.18377446 -0.014950975 0.21089657 -0.103950135
000300 ea e1 75 3d a5 b3 0e bd 39 bc 93 bd 3f cb 8b 3d
       0.0600299 -0.03483929 -0.07213635 0.068258755
000310 aa ec 04 3d 00 2a e7 3c 76 3d e8 3d 89 e2 86 bd
       0.032452263 0.02821827 0.11339848 -0.06586177
000320 b2 6b 68 bd 52 12 17 3c 92 4d 0b be 7b fd 66 bd
       -0.05674333 0.0092206765 -0.1360381 -0.05639408
000330 7d 31 c1 be cf 02 1a 3d 55 76 c9 bd 34 e9 60 bd
       -0.3773307 0.037600335 -0.09837023 -0.0549099
000340 95 f2 09 3e d2 f4 c2 bc 44 ad 84 be c0 44 23 3d
       0.13471444 -0.02379838 -0.2591344 0.039860487
000350 70 c5 1c 3e 2f d2 e1 3e bd b5 3f be 3c be ba 3d
       0.15309691 0.4410567 -0.18721671 0.091183156
000360 56 58 4d be 31 0d f0 3e 95 2f 8a 3e c4 42 10 bf
       -0.20053229 0.46885064 0.26989427 -0.56351876
000370 06 4b 76 be 11 c0 8a 3e 40 b0 ff bd 53 ff d2 3e
       -0.24052057 0.2709966 -0.12484789 0.41210422
000380 ec a3 99 3e c8 09 a9 3e 18 67 0e bf de 5b 91 be
       0.30007875 0.33015275 -0.5562606 -0.28390402
000390 3f 44 21 be 53 e9 49 be ec e7 ad 3b b1 fc 8f 3d
       -0.1574869 -0.19717912 0.0053071883 0.07030619
0003a0 6a 05 9f bd f6 d2 53 3d 25 1e b0 be c0 a9 1d be
       -0.077647045 0.05171486 -0.34397998 -0.15396786
0003b0 bf a2 82 3e 15 7b 1e 3d 62 e5 30 bd a7 38 e9 bd
       0.2551479 0.0386916 -0.043187506 -0.11387759
0003c0 00 cb 4f bd f6 e7 c4 bb 3a 8f 7d 3d af 93 1c 3d
       -0.050730705 -0.006009097 0.06190417 0.03822678
0003d0 5d e8 a2 bd a8 07 3d 3d bf b0 d9 3d 3f 85 39 bd
       -0.07954476 0.04614988 0.10629415 -0.04529309
0003e0 17 e2 83 bd 3e a6 15 bd b2 32 8e 3d cc 88 9e 3e
       -0.064396076 -0.036535494 0.06943263 0.30963743
0003f0 11 21 83 3d 59 78 d6 bd e1 73 4d 3c 1d f9 0d 3e
       0.06402791 -0.10472173 0.012539835 0.1386456

fc3.bias f4 [9]
000000 84 78 91 bc e1 4a 88 3d ae 5d 3e bd 1e 3f 61 bc
       -0.017757662 0.06654907 -0.04647606 -0.0137479585
000010 09 aa f6 3c 1d 3f 03 bc 50 5e 13 3d a1 13 ad bd
       0.030110376 -0.008010653 0.035978615 -0.084510095
000020 23 cd 83 bd
       -0.06435611
